laughter/models/model_dataset_all.pth (torch_old, 151430 bytes, 12 tensors)

lstm1.weight_ih_l0 f4 [40, 20]
-1.421342 6.0140944 -1.2820241 1.4628458 0.9698511 -2.5334888 -2.0132275 3.0585964
-2.035598 2.4449508 1.1575227 -2.395158 -4.399144 0.0028388784 -1.4931219 -1.0410783
-1.078157 -1.2798902 -1.2062846 -5.6605535 -0.72626525 0.72070587 0.15731844 4.325294
3.449122 6.032617 -5.607784 0.34393063 0.6692514 -3.740403 -0.45382679 4.649142
5.2936773 -0.28690487 -2.8912454 4.037048 -0.057424624 3.38367 3.6631978 0.870069
-0.39394405 -1.7995248 7.2510686 2.323279 -1.597783 1.2422409 -0.7873052 -5.565626
-7.061741 0.5481751 -0.4068665 1.5173321 -0.28639948 3.8013644 3.3591661 1.0091318
3.34069 3.5730813 -1.0220509 1.9831526 3.5716572 1.5515125 -0.67066646 0.29224622
2.1077228 -1.8531277 0.059375703 -3.7553732 -0.2211334 0.3244564 3.1088476 -2.2247188
-1.8309541 -2.6833277 -0.7622394 -7.6088953 -2.045807 -4.5405874 -3.9764547 -2.2806973
1.1667539 1.0348063 0.35608092 -0.4159442 4.2427306 1.230193 5.5385976 1.2144032
-0.9100386 -0.02485617 4.764628 -0.18917608 2.5311131 -5.875446 -2.0344646 -4.706227
-2.9500194 -7.235653 -3.6999297 -1.6675314 -0.13766974 1.8108284 -1.0017074 1.5261664
-2.6572504 0.44727045 -2.833689 2.0316455 -1.3674183 -0.40046337 -1.4376953 -0.7174935
-2.1855915 -2.9871106 -3.7462592 0.7367403 -1.1531974 1.2300744 -0.18565719 2.5300934
0.3694934 -8.545228 0.7766816 -3.1125238 1.3941638 -0.22309282 0.6515881 1.515581
-0.43558282 -1.8490822 -1.2788966 -1.0154791 -0.41395748 0.011399069 4.8387756 -0.73849195
-1.6525705 1.5515056 0.09215781 -0.44847372 -1.4698268 -0.09354758 2.3566387 2.3511808
3.67108 5.112823 -3.8085163 -1.9990069 -2.360203 -3.4381378 -5.8898783 -0.25184938
1.3659858 -2.0272298 2.4922886 3.1011913 -1.7991092 -5.082179 -3.0514708 5.423428
-0.8015724 0.04908333 1.1746527 1.7205533 -1.2211599 2.5769253 -4.2395453 1.6788839
-4.9166765 -0.9031273 -2.4622705 -0.4615731 -2.0183604 0.23790672 -2.706972 2.8772144
-3.109461 3.1281843 -2.607188 0.26380864 -0.8761786 1.0688308 -0.6001709 -0.77738106
2.7826037 -0.17713189 1.5009382 2.2336369 -5.2207785 4.6585107 2.457509 2.437124
-5.5424476 0.2739396 -3.6965594 -6.9096227 -2.2638562 -6.2258797 -3.1147077 0.7586021
-0.15942356 1.1415204 -0.5465743 1.9504273 -4.367575 1.3855978 -4.8033934 2.431077
-2.2736707 1.5316763 -2.557639 0.11661083 -2.2513466 -0.34392634 -3.8115766 0.95156467
-4.2961135 0.7904083 -2.687219 2.3027887 -3.6717477 2.3715422 -0.48416728 0.12391946
-3.7277312 -3.4508984 0.90550226 -1.1826411 2.6591926 3.2452147 -0.85321486 -0.031517718
2.3702178 -5.6486654 -0.6761527 1.9734895 0.7732583 -1.6053398 0.83101845 1.4157977
-0.5245748 2.4063938 1.6082901 1.3195181 -4.3801823 -4.0229707 3.0183768 -4.9704003
3.1992383 1.1241924 2.357495 0.7588424 -0.13321373 -2.0991297 2.8301597 1.6409088
00000000: 89ee b5bf 7673 c040 5e19 a4bf 883e bb3f
00000010: 2948 783f ae24 22c0 b8d8 00c0 0bc0 4340
00000020: 3d47 02c0 137a 1c40 b429 943f 454a 19c0
00000030: cac5 8cc0 7a0c 3a3b 9e1e bfbf 0e42 85bf
00000040: 0c01 8abf 71d3 a3bf 8967 9abf 4123 b5c0
00000050: 85ec 39bf 2e80 383f 1618 213e cf68 8a40
00000060: 6abe 5c40 330b c140 f772 b3c0 ad17 b03e
00000070: 0f54 2b3f c362 6fc0 fc5b e8be c5c5 9440
00000080: ce65 a940 32e5 92be 2a0a 39c0 7f2f 8140
00000090: 1536 6bbd 0d8e 5840 d571 6a40 d8bc 5e3f
000000a0: 09b3 c9be d456 e6bf c108 e840 9ab0 1440
000000b0: 2784 ccbf c001 9f3f d58c 49bf 9c19 b2c0
000000c0: c8f9 e1c0 3455 0c3f ce50 d0be f037 c23f
000000d0: f4a2 92be 8e49 7340 94fc 5640 3b2b 813f
000000e0: ddcd 5540 5dad 6440 90d2 82bf f2d7 fd3f
000000f0: 0896 6440 f697 c63f ccb0 2bbf 4ca1 953e
00000100: eee4 0640 4a33 edbf f033 733d 0958 70c0
00000110: cb70 62be 261f a63e 5cf7 4640 cb61 0ec0
00000120: b45c eabf a4bb 2bc0 1f22 43bf 127c f3c0
00000130: 80ee 02c0 7e4c 91c0 3c7e 7ec0 f2f6 11c0
00000140: 3158 953f 8874 843f 3d50 b63e a3f6 d4be
00000150: 73c4 8740 f776 9d3f 313c b140 9071 9b3f
00000160: 4af8 68bf 2b9f cbbc d577 9840 60b7 41be
00000170: c2fd 2140 a703 bcc0 ab34 02c0 6999 96c0
00000180: 1ecd 3cc0 788a e7c0 a6cb 6cc0 ab71 d5bf
00000190: 4cf9 0cbe 3ac9 e73f f337 80bf 6c59 c33f
000001a0: 6410 2ac0 a200 e53e 295b 35c0 7b06 0240
000001b0: 9007 afbf 8909 cdbe 6606 b8bf a7ad 37bf
000001c0: bbe0 0bc0 d22c 3fc0 b6c2 6fc0 039b 3c3f
000001d0: f99b 93bf 1473 9d3f eb1c 3ebe 0ded 2140
000001e0: 3d2e bd3e 41b9 08c1 9bd4 463f 9733 47c0
000001f0: f673 b23f 7272 64be 7ace 263f 8ffe c13f
00000200: b604 dfbe baae ecbf e2b2 a3bf 38fb 81bf
00000210: 3cf2 d3be 29c3 3a3c 40d7 9a40 cf0d 3dbf
00000220: 6e87 d3bf bc97 c63f 3cbd bc3d 599e e5be
00000230: 4923 bcbf e095 bfbd 2bd3 1640 bf79 1640
00000240: faf2 6a40 3f9c a340 bbbe 73c0 75df ffbf
00000250: 910d 17c0 730a 5cc0 e279 bcc0 67f2 80be
00000260: 9fd8 ae3f 22be 01c0 a881 1f40 eb79 4640
00000270: 3649 e6bf 36a1 a2c0 4c4b 43c0 b98c ad40
00000280: d933 4dbf 9a0b 493d 055b 963f 173b dc3f
00000290: f84e 9cbf 58ec 2440 5baa 87c0 abe5 d63f
000002a0: 6a55 9dc0 5a33 67bf d795 1dc0 4f53 ecbe
000002b0: d12c 01c0 d29d 733e 073f 2dc0 4824 3840
000002c0: 6901 47c0 2c34 4840 2bdc 26c0 ed11 873e
000002d0: 3e4d 60bf 73cf 883f cda4 19bf 7202 47bf
000002e0: 2e16 3240 1062 35be be1e c03f e8f3 0e40
000002f0: 9e10 a7c0 8512 9540 d447 1d40 d7f9 1b40
00000300: bb5b b1c0 d041 8c3e 6e94 6cc0 a11b ddc0
00000310: 05e3 10c0 683a c7c0 5f57 47c0 bf33 423f
00000320: ee3f 23be 571d 923f 4bec 0bbf 9aa7 f93f
00000330: 2dc3 8bc0 455b b13f 66b5 99c0 c496 1b40
00000340: d283 11c0 f80d c43f 5bb0 23c0 a9d1 ee3d
00000350: 1016 10c0 1d17 b0be dff0 73c0 be99 733f
00000360: c379 89c0 3358 4a3f 65fb 2bc0 e460 1340
00000370: eafd 6ac0 59c7 1740 c6e4 f7be 7cc9 fd3d
00000380: 2693 6ec0 85db 5cc0 ffce 673f c960 97bf
00000390: 3630 2a40 99b1 4f40 4a6c 5abf b918 01bd
000003a0: a6b1 1740 dec1 b4c0 5818 2dbf 4e9b fc3f
000003b0: 42f4 453f c67b cdbf a0bd 543f dc38 b53f
000003c0: 894a 06bf 5b02 1a40 73dc cd3f f8e5 a83f
000003d0: 742a 8cc0 2dbc 80c0 162d 4140 850d 9fc0
000003e0: 52c0 4c40 89e5 8f3f 33e1 1640 7f43 423f
000003f0: 2e69 08be 2458 06c0 5621 3540 4d09 d23f

lstm1.weight_hh_l0 f4 [40, 10]
-3.3897085 -0.45225787 2.7466927 1.3363992 -0.1296366 -0.44172215 -3.360917 -1.7359204
4.8402715 -0.41812557 1.9256198 7.6474586 -6.8002005 -0.4164488 4.4726768 5.8055844
3.4503014 2.87483 1.4238982 -2.9246197 -8.090535 -8.026702 10.273449 -13.035336
-10.934845 -17.30331 -2.4433343 -3.4951603 13.007552 21.61904 0.6615262 5.2556143
-5.6501837 -0.5855437 -0.38404638 4.6921363 -2.0916781 2.2797399 -2.5042086 -5.1984696
-2.4333086 -0.052465435 3.6482139 -1.4357501 -4.030155 -10.18872 -2.1197624 -5.296789
9.07655 12.037515 -2.555065 1.4989188 1.3057995 -1.3859155 -1.1926914 -1.8875918
-2.0266368 -0.554271 0.35447538 3.9844344 2.2505229 2.195197 -2.5691361 2.5032048
1.1078565 1.5829312 1.0798681 4.231927 0.5679869 2.4201276 0.22708954 -4.405443
-0.09113588 -4.766787 -10.694614 -9.471402 -3.613093 0.5884048 4.2136555 6.942123
-1.1797299 -0.6058191 4.2945566 1.6659349 -0.8366014 -2.4316516 0.18055728 -0.19075064
1.3807364 2.0199056 -6.143349 -5.98718 14.483386 -7.514615 -11.1450205 -13.712823
-5.9912357 -7.6835837 17.683317 14.616015 -7.329439 -3.5111322 4.8926644 -6.373727
-7.6257086 -4.8491845 0.122690655 -6.090529 1.9811068 4.1285324 -12.51772 3.5159042
2.6529498 -4.2974124 -8.820889 -2.6036332 -8.825004 -12.4561205 5.4987364 8.786126
-3.346798 1.7695178 0.97206265 -7.119929 -14.415277 -6.7026525 -9.202076 -11.542641
6.2485433 8.982895 -5.0118027 -5.060954 9.63331 0.7205842 -6.347478 -13.138104
-2.3191788 -5.0226893 14.047913 8.24026 -9.516161 -6.873196 14.287171 -6.5351152
-8.600001 -20.089773 -7.839815 -17.013664 10.514686 19.594553 -9.539861 -8.598717
10.977502 -4.5248604 -10.581186 -10.649631 -2.1945937 -11.599359 9.252145 8.853134
-9.53766 -3.9595265 7.942718 1.4234643 -4.8667865 -3.8096824 -9.342652 -7.694527
8.431228 7.6989436 -6.3234744 -4.6218643 6.2698317 -0.57095665 -6.170069 -10.49569
-6.9616857 2.7365887 9.883354 15.345922 -5.018223 -7.344596 10.657314 -2.8182273
-10.893952 -7.3152323 -4.2651734 -7.0718 10.95469 8.598688 -4.542821 -5.306979
6.972367 -9.477307 -10.448387 -7.0995135 -5.7121425 -7.8157544 16.660532 3.489718
2.0204892 0.19921455 -2.251791 6.8082867 10.355359 5.952108 2.6299357 8.01598
-6.953776 -6.936164 9.960411 9.2646265 -10.198341 13.34082 20.248745 17.237217
6.4761715 9.63612 -7.6627536 -23.531288 -7.533486 -10.111449 5.7027254 -1.5484958
-10.535643 -8.086177 -1.1703117 -4.0403457 4.544587 8.511761 2.5229592 0.8404706
-1.5838338 -0.46010473 6.271439 12.411598 4.802474 7.3254423 -2.489676 -5.296012
3.1257913 7.03133 -5.524562 3.0003464 5.626091 3.5362136 2.4028988 5.592776
-4.2550683 -4.4630504 3.009292 4.467947 -4.6712413 0.6684637 4.7985077 2.7703023
00000000: fcf0 58c0 588e e7be d0c9 2f40 210f ab3f
00000010: 75bf 04be 6829 e2be 4419 57c0 a432 debf
00000020: 81e3 9a40 8e14 d6be b67a f63f fbb7 f440
00000030: 3e9b d9c0 c738 d5be 2b20 8f40 59c7 b940
00000040: bdd1 5c40 37fd 3740 4c42 b63f f82c 3bc0
00000050: d572 01c1 5f6d 00c1 0c60 2441 bc90 50c1
00000060: 20f5 2ec1 2e6d 8ac1 975f 1cc0 b5b0 5fc0
00000070: ef1e 5041 cbf3 ac41 c859 293f fe2d a840
00000080: 4ece b4c0 31e6 15bf baa1 c4be fb25 9640
00000090: 0ede 05c0 42e7 1140 f444 20c0 dd59 a6c0
000000a0: 54bb 1bc0 ffe5 56bd 567c 6940 a9c6 b7bf
000000b0: 08f7 80c0 ff04 23c1 30aa 07c0 4c7f a9c0
000000c0: 8c39 1141 a999 4041 2f86 23c0 92dc bf3f
000000d0: 7024 a73f ae65 b1bf 1daa 98bf 9c9c f1bf
000000e0: 6bb4 01c0 b4e4 0dbf cc7d b53e f900 7f40
000000f0: 9108 1040 1c7e 0c40 ba6c 24c0 8234 2040
00000100: 3ece 8d3f 7d9d ca3f 1e39 8a3f f26b 8740
00000110: 9767 113f 5fe3 1a40 298a 683e 64f9 8cc0
00000120: 73a5 babd 8589 98c0 241d 2bc1 dd8a 17c1
00000130: ea3c 67c0 b2a1 163f 44d6 8640 df25 de40
00000140: 6401 97bf f616 1bbf 026d 8940 5b3d d53f
00000150: 822b 56bf 2ea0 1bc0 02e4 383e 2354 43be
00000160: f8bb b03f 2246 0140 5196 c4c0 fb96 bfc0
00000170: f3bb 6741 ba77 f0c0 0152 32c1 b967 5bc1
00000180: 34b8 bfc0 ebdf f5c0 6f77 8d41 33db 6941
00000190: c48a eac0 64b6 60c0 b590 9c40 92f5 cbc0
000001a0: ce05 f4c0 852c 9bc0 3d45 fb3d 9de5 c2c0
000001b0: e894 fd3f f01c 8440 9548 48c1 9304 6140
000001c0: eec9 2940 6784 89c0 5d22 0dc1 eda1 26c0
000001d0: 3733 0dc1 454c 47c1 a6f5 af40 f993 0c41
000001e0: f031 56c0 8f7f e23f 19d9 783f 75d6 e3c0
000001f0: f9a4 66c1 217c d6c0 b43b 13c1 a8ae 38c1
00000200: 11f4 c740 f0b9 0f41 b060 a0c0 56f3 a1c0
00000210: 0a22 1a41 3578 383f 8a1e cbc0 ad35 52c1
00000220: 6d6d 14c0 dfb9 a0c0 40c4 6041 1bd8 0341
00000230: 3242 18c1 39f1 dbc0 4198 6441 aa1f d1c0
00000240: 9b99 09c1 dbb7 a0c1 c4df fac0 fc1b 88c1
00000250: 273c 2841 a5c1 9c41 45a3 18c1 5894 09c1
00000260: d9a3 2f41 a8cb 90c0 8a4c 29c1 e364 2ac1
00000270: 3974 0cc0 f996 39c1 c908 1441 70a6 0d41
00000280: 419a 18c1 e268 7dc0 bf2a fe40 1434 b63f
00000290: b7bc 9bc0 d6d1 73c0 817b 15c1 9139 f6c0
000002a0: 4fe6 0641 bf5d f640 e759 cac0 50e6 93c0
000002b0: 76a2 c840 372a 12bf 3571 c5c0 59ee 27c1
000002c0: 21c6 dec0 4524 2f40 3822 1e41 e688 7541
000002d0: 4895 a0c0 ee06 ebc0 5c84 2a41 d65d 34c0
000002e0: a14d 2ec1 6216 eac0 4d7c 88c0 304c e2c0
000002f0: 6946 2f41 3a94 0941 ca5e 91c0 c6d2 a9c0
00000300: a11d df40 0da3 17c1 982c 27c1 372f e3c0
00000310: dfc9 b6c0 a91a fac0 c548 8541 8a57 5f40
00000320: b24f 0140 e6fe 4b3e 581d 10c0 7cdd d940
00000330: 8daf 2541 ab77 be40 de50 2840 7441 0041
00000340: 5585 dec0 0ef5 ddc0 d85d 1f41 e93b 1441
00000350: 682c 23c1 0074 5541 6efd a141 d2e5 8941
00000360: cc3c cf40 8c2d 1a41 4735 f5c0 1440 bcc1
00000370: 5112 f1c0 7fc8 21c1 ba7c b640 1c35 c6bf
00000380: fe91 28c1 fb60 01c1 c6cc 95bf 834a 81c0
00000390: 426d 9140 2c30 0841 2a78 2140 1529 573f
000003a0: 11bb cabf d992 ebbe a1af c840 e895 4641
000003b0: dead 9940 066a ea40 da56 1fc0 ee78 a9c0
000003c0: f70c 4840 a800 e140 36c9 b0c0 ad05 4040
000003d0: f008 b440 5351 6240 18c9 1940 05f8 b240
000003e0: 8529 88c0 4fd1 8ec0 3d98 4040 6cf9 8e40
000003f0: cf7a 95c0 7020 2b3f 608d 9940 a24c 3140

lstm1.bias_ih_l0 f4 [40]
2.8249424 1.4708384 0.14419167 -4.640496 -5.02375 2.6737077 -1.6764755 0.47707424
5.8350043 -0.16282563 7.5636706 1.2516749 1.0287278 2.075364 -1.0364616 5.801731
2.7792757 -1.9980007 7.468322 -2.4216895 -0.16456056 -0.68769157 5.300374 -0.94164664
-5.838414 -1.5368502 -2.112876 -8.207835 5.2283807 7.1416216 -0.96318436 5.703147
2.8900106 2.305928 2.0639255 -2.8172615 4.8437476 2.514243 -2.745553 -1.8253475
00000000: dbcb 3440 6f44 bc3f fba6 133e f17e 94c0
00000010: 8fc2 a0c0 071e 2b40 c096 d6bf 1343 f43e
00000020: 5bb8 ba40 c3bb 26be 9709 f240 e236 a03f
00000030: 5aad 833f c4d2 0440 c6aa 84bf c8a7 b940
00000040: a7df 3140 7dbe ffbf 7efc ee40 f6fc 1ac0
00000050: 9082 28be 8e0c 30bf aa9c a940 c10f 71bf
00000060: 4ad4 bac0 82b7 c4bf 5c39 07c0 4b53 03c1
00000070: e54e a740 2a88 e440 4093 76bf 2e80 b640
00000080: eff5 3840 5394 1340 5b17 0440 034e 34c0
00000090: fbff 9a40 5be9 2040 24b7 2fc0 fda4 e9bf

lstm1.bias_hh_l0 f4 [40]
3.2555847 1.3104779 -0.10028524 -4.5981097 -4.6306214 2.7842863 -1.3717167 0.19190533
5.3379703 -0.07875055 7.165876 0.9895082 1.413493 2.1936834 -0.627156 5.8038797
3.0115142 -2.131348 7.0789986 -2.5595999 0.0029748634 -0.9637361 5.520197 -0.40069783
-5.866716 -1.6862341 -2.3701596 -8.047201 5.1679626 7.50214 -1.2216679 5.936213
3.334984 2.8764558 2.172564 -2.790005 4.7955637 2.5868146 -2.4302285 -1.6748507
00000000: 805b 5040 bdbd a73f 5962 cdbd b723 93c0
00000010: 0d2e 94c0 bf31 3240 6a94 afbf d582 443e
00000020: a7d0 aa40 f847 a1bd db4e e540 6950 7d3f
00000030: 57ed b43f 4f65 0c40 4c8d 20bf 62b9 b940
00000040: a6bc 4040 0168 08c0 2887 e240 7cd0 23c0
00000050: edf5 423b 69b7 76bf 74a5 b040 4428 cdbe
00000060: 23bc bbc0 85d6 d7bf b2b0 17c0 56c1 00c1
00000070: f35f a540 8811 f040 9d5f 9cbf 75f5 bd40
00000080: 6170 5540 da17 3840 4a0b 0b40 718f 32c0
00000090: 4275 9940 5f8e 2540 dd88 1bc0 8261 d6bf

fc1.weight f4 [2, 10]
-0.33339316 -0.38776743 0.6327775 -0.19138846 -0.24441291 -0.19339685 -0.6947991 -0.30425572
0.851219 0.283575 0.2851331 0.5461721 -0.10701994 0.5499079 0.3285017 0.6630056
0.14209753 0.12425747 -0.65669435 -0.6296221
00000000: 82b2 aabe 7489 c6be b5fd 213f 56fb 43be
00000010: 6147 7abe d309 46be 5bde 31bf 68c7 9bbe
00000020: 7de9 593f be30 913e f7fc 913e efd1 0b3f
00000030: 452d dbbd c4c6 0c3f 6031 a83e bcba 293f
00000040: 0482 113e b37a fe3d 1f1d 28bf ea2e 21bf

fc1.bias f4 [2]
-0.13552266 0.15202409
00000000: 74c6 0abe 34ac 1b3e

lstm2.weight_ih_l0 f4 [200, 128]
7.8436985 -2.6466796 -0.08192174 1.7622614 4.264575 4.5248694 3.368707 2.0169902
1.9252108 1.3640742 -0.43908554 -1.4399433 -1.9835303 -0.7358052 0.13364217 2.0021677
1.2767295 2.3642728 3.6024022 4.227166 4.1479487 0.8084404 0.3390073 1.1846172
1.8769448 1.867189 2.3846624 3.7237859 5.005301 4.0813885 2.835848 3.0736618
1.6929001 0.1327662 0.36677217 0.49109325 1.1811692 0.33666936 -0.1688049 0.90082043
-1.0116943 0.008268042 1.283792 0.922468 -0.92047155 0.8725779 0.42176256 0.09085071
0.30123127 0.50133985 -0.46070442 -2.3558738 -0.78739667 0.9274949 -0.16178297 -0.18485378
2.0272918 1.543644 1.2786815 0.057225782 -0.93462545 -0.8446006 -0.06787463 -1.4779077
-1.5212845 -1.770988 -4.527716 -4.66607 -5.141793 -3.3844128 -2.3103957 -2.7929778
-2.7713032 -0.5281817 -0.40097755 2.3556707 2.2111619 -2.2915637 -1.5497034 1.3116609
2.4436045 3.026309 3.7964253 2.171756 1.5590606 2.6955929 2.8241115 1.7118428
1.0772763 1.4033543 0.6850714 2.3654912 3.9523623 3.6626403 3.2069893 1.8182029
-0.22888596 -1.9462122 -2.5413947 -1.6913363 -3.1633587 -2.7842226 -1.9658378 -4.1139235
-3.5254595 -4.1091075 -4.8333063 -4.2368636 -3.9832618 -5.286067 -4.5927963 -5.398775
-4.8305387 -4.241923 -4.469352 -2.6992638 -3.0013719 -0.85938597 0.49466586 1.4404777
1.7943144 3.4635258 4.061676 3.7405384 3.5530827 4.6709967 5.114469 4.8489943
-1.6426218 -1.3976161 0.2982891 2.9244006 1.6025628 -0.27711606 -1.182222 -0.5786874
0.09024428 0.16906744 -0.9427692 -2.2355692 -1.8396217 -0.85485023 -0.44369557 -0.13078028
0.24633649 -1.0827043 -1.3605286 -2.0258837 -1.5106595 -1.9644423 -0.011752428 0.37906024
-1.1448708 1.3103456 -2.051891 -0.10397539 2.8223999 1.6008792 2.4521117 4.084098
1.0815381 0.48935604 -0.039087825 2.1840355 3.3237684 1.2764834 2.501624 2.3864357
-2.891886 -0.6099674 -0.4188543 -1.9463327 -2.4358227 -3.1102395 -1.7634925 -3.5518055
-4.902504 -2.1274276 -3.7983541 -0.3532957 1.4619443 0.6905025 2.9861174 4.8932643
3.2458863 -0.1243638 -0.24471249 0.16593035 0.26814437 -1.1858258 -0.7453869 0.09628006
0.036576506 -0.7980513 1.1540871 2.3150153 5.740523 6.1650634 4.5190463 5.1580048
4.5202904 4.3252444 3.0735703 4.3882184 5.3323555 4.6816278 3.2474215 6.582305
5.4218817 5.278166 6.2574315 6.5543895 6.5596356 7.271476 6.3150334 4.2537837
3.1900764 5.250475 5.9603043 5.4568763 2.9004407 2.5448544 2.7410147 3.5964973
4.5271945 3.6906874 4.7705793 2.0938919 0.94991857 1.7905817 2.6875725 4.3230195
4.865269 6.229565 5.040463 3.8349857 3.5387876 4.095713 4.4008136 3.7393286
3.6640403 2.6552346 1.7741283 1.5878065 1.5813233 1.7253029 2.0520527 1.4466437
0.77525395 1.085263 0.8132237 1.1293697 1.0734607 1.2470073 1.4162803 1.3819233
00000000: 94ff fa40 3363 29c0 96c6 a7bd c891 e13f
00000010: 6677 8840 bbcb 9040 e598 5740 5e16 0140
00000020: 4f6d f63f fc99 ae3f d2cf e0be 1050 b8bf
00000030: 52e4 fdbf bb5d 3cbf 7ed9 083e 8423 0040
00000040: df6b a33f 3f50 1740 c28d 6640 f244 8740
00000050: ffbb 8440 f3f5 4e3f 5d92 ad3e 89a1 973f
00000060: ba3f f03f 0d00 ef3f 4f9e 1840 8252 6e40
00000070: 6d2b a040 bc9a 8240 897e 3540 e0b6 4440
00000080: f3b0 d83f ddf3 073e 90c9 bb3e 9370 fb3e
00000090: 8d30 973f ed5f ac3e 31db 2cbe 2b9c 663f
000000a0: 337f 81bf ae76 073c 4c53 a43f dd26 6c3f
000000b0: 06a4 6bbf 4461 5f3f 43f1 d73e f00f ba3d
000000c0: fc3a 9a3e cf57 003f 73e1 ebbe a3c6 16c0
000000d0: d492 49bf 4e70 6d3f 6faa 25be 4f4a 3dbe
000000e0: 26bf 0140 2096 c53f d6ab a33f 9565 6a3d
000000f0: 9d43 6fbf bf37 58bf db01 8bbd 142c bdbf
00000100: 73b9 c2bf bcaf e2bf 0de3 90c0 7250 95c0
00000110: 9189 a4c0 389a 58c0 86dd 13c0 26c0 32c0
00000120: 085d 31c0 ea36 07bf ee4c cdbe 4fc3 1640
00000130: ad83 0d40 fba8 12c0 ae5c c6bf 81e4 a73f
00000140: 0464 1c40 0caf 4140 a2f8 7240 0dfe 0a40
00000150: 4c8f c73f 9884 2c40 3ebe 3440 aa1d db3f
00000160: 31e4 893f 1da1 b33f d760 2f3f 3564 1740
00000170: 81f3 7c40 b368 6a40 503f 4d40 dfba e83f
00000180: 1561 6abe 7b1d f9bf 36a6 22c0 b57d d8bf
00000190: 7874 4ac0 b430 32c0 93a0 fbbf 43a5 83c0
000001a0: 21a1 61c0 cf7d 83c0 72aa 9ac0 6394 87c0
000001b0: c3ed 7ec0 7627 a9c0 30f8 92c0 c4c2 acc0
000001c0: c693 9ac0 d5bd 87c0 ee04 8fc0 bdc0 2cc0
000001d0: 7a16 40c0 b800 5cbf d844 fd3e 9361 b83f
000001e0: 18ac e53f 68aa 5d40 40f9 8140 fb64 6f40
000001f0: b565 6340 ce78 9540 bba9 a340 f62a 9b40
00000200: 6e41 d2bf 16e5 b2bf 59b9 983e 6129 3b40
00000210: c720 cd3f 28e2 8dbe 0d53 97bf dc24 14bf
00000220: fed1 b83d 0420 2d3e 5359 71bf 9113 0fc0
00000230: b978 ebbf 77d7 5abf 112c e3be 44eb 05be
00000240: a23f 7c3e 0e96 8abf cd25 aebf 14a8 01c0
00000250: 4a5d c1bf d872 fbbf 418d 40bc 2f14 c23e
00000260: 208b 92bf 68b9 a73f 2f52 03c0 0df1 d4bd
00000270: 33a2 3440 9ce9 cc3f 66ef 1c40 eeb0 8240
00000280: d76f 8a3f e08c fa3e 8e1a 20bd 3dc7 0b40
00000290: 9fb8 5440 cf63 a33f 9c1a 2040 5dbb 1840
000002a0: a914 39c0 d326 1cbf 1274 d6be 6e21 f9bf
000002b0: 85e4 1bc0 2a0e 47c0 1fba e1bf c850 63c0
000002c0: 50e1 9cc0 c627 08c0 3c18 73c0 2de3 b4be
000002d0: fe20 bb3f c6c4 303f 8c1c 3f40 9f95 9c40
000002e0: 9abc 4f40 73b2 febd e995 7abe a5e9 293e
000002f0: 384a 893e 24c9 97bf add1 3ebf 7b2e c53d
00000300: 3fd1 153d 174d 4cbf 20b9 933f 3629 1440
00000310: 5db2 b740 3348 c540 079c 9040 600e a540
00000320: 38a6 9040 6768 8a40 60b5 4440 496c 8c40
00000330: a8a2 aa40 e5cf 9540 c1d5 4f40 3ea2 d240
00000340: 0e80 ad40 bce6 a840 e13c c840 8fbd d140
00000350: 89e8 d140 eeaf e840 c114 ca40 ff1e 8840
00000360: 362a 4c40 e403 a840 d0ba be40 bb9e ae40
00000370: d2a0 3940 e5de 2240 c96c 2f40 032d 6640
00000380: c7de 9040 3934 6c40 96a8 9840 5302 0640
00000390: dd2d 733f c831 e53f 3001 2c40 2d56 8a40
000003a0: 49b0 9b40 9958 c740 794b a140 6870 7540
000003b0: 7f7b 6240 1510 8340 77d3 8c40 2951 6f40
000003c0: a37f 6a40 5def 2940 a316 e33f 3e3d cb3f
000003d0: cd68 ca3f bad6 dc3f d554 0340 9f2b b93f
000003e0: 0b77 463f e6e9 8a3f 6e2f 503f 308f 903f
000003f0: 2967 893f ef9d 9f3f ac48 b53f dde2 b03f

lstm2.weight_hh_l0 f4 [200, 50]
0.77071226 0.5501939 -0.25709325 0.4088733 -1.596412 1.5667554 4.5094466 -0.21328813
1.1848431 -0.80108565 2.908988 0.15198301 0.34596777 -0.7571377 -0.12611826 2.9470584
-1.2946 0.96087646 5.601635 -1.1220019 4.2713017 2.3936105 2.1538196 -4.9733853
-3.7641394 3.5652764 -2.0967648 -4.4323087 3.4190226 4.8285866 -2.2206645 -2.8052008
0.349012 -1.2821865 13.495474 1.7665143 -1.9422008 -2.2893279 1.968109 -0.68206257
4.2598495 0.010925547 -0.55427176 -4.7428746 3.0104957 -3.4864752 3.782367 2.00285
4.529148 -0.62191814 -3.1649156 -0.54903615 5.603628 2.1649327 2.8415706 -1.4619436
7.552949 -0.46666706 -5.2096634 1.9043008 8.743874 8.004853 -1.0019578 -3.1949537
-1.0394417 -2.2793806 -4.621918 -3.262382 2.9089754 -2.8679926 -1.2519804 0.9539402
-0.4704972 -3.4720008 1.4811444 6.0235887 0.7354369 -9.399202 1.7166449 2.6182106
0.09503397 -3.2480779 -1.6545242 5.976966 2.1044667 -4.711061 7.256658 -0.79340076
-1.6134969 -2.171252 -3.8953555 -1.8035017 -0.047813505 -2.2284594 0.73666394 -3.550784
1.2808763 -2.0291488 5.3217926 2.1704931 -1.3679706 0.73541415 2.771685 -2.966257
1.835022 -2.4203682 1.2004282 -0.39888275 -1.6053361 1.3359054 1.4564546 -0.3846658
2.052138 1.1917725 2.0920074 -1.3315077 -0.26238757 3.4304228 -0.14394283 -1.9551429
-0.57411444 2.9005778 1.7481513 -0.4371958 -0.32461065 0.56608474 -1.8162602 -0.840426
0.33980682 -1.1612022 1.074429 -1.2586719 1.3358617 -4.4060187 -0.11713446 -1.9020692
1.4536644 -5.8248506 -3.0419326 3.0136623 2.7906418 0.053159848 0.9383276 2.0082445
1.6441693 -1.5799986 0.4046839 2.9119232 2.2436607 -1.6316503 5.942668 -2.2911568
-0.40736082 -1.2626393 2.788919 -0.006411022 1.8248433 -4.569197 -2.2906053 4.119784
2.3199768 3.9878027 3.6532536 -2.4258957 1.4125725 -1.7205538 2.735536 -1.1816449
2.866264 -5.7389874 0.57818097 1.4622413 -0.0073146196 0.6654333 -3.541036 -7.831368
2.2563522 -1.68454 1.6415114 3.0201468 -2.3818116 -1.1219361 -1.049488 0.70663613
2.7496684 3.419137 -3.1315236 2.2580194 -3.0817442 3.676716 3.6257358 -2.0405076
-0.63731277 -3.826418 -0.12327235 1.514879 -2.1639078 3.965842 1.811468 2.895079
1.0846583 -3.36455 2.1032543 -1.5073565 1.7043657 2.7650247 0.34310126 3.2055042
0.25057727 2.1978195 -4.0624614 -0.40557313 3.9812768 -0.3888325 0.44110897 -0.41834742
-2.0269506 0.10354611 0.27908957 2.8077924 1.2534304 2.1046736 1.459921 -0.31260115
-0.06876569 1.6997399 -0.84688866 -2.6997843 -2.871741 -0.4182396 0.08564206 -0.9062659
-0.14765151 1.1094326 1.511293 2.1727476 -5.058997 3.1015306 -1.2882348 -0.7109863
-0.46958175 0.6813445 -0.83858687 0.60923064 -3.6443212 1.0028224 -1.5214897 1.3603075
-2.8142772 1.7435002 1.7828206 -2.28226 -3.2300413 -4.0957947 0.034108885 1.0741603
00000000: 664d 453f 82d9 0c3f baa1 83be d757 d13e
00000010: 3a57 ccbf 718b c83f 634d 9040 3468 5abe
00000020: f0a8 973f f313 4dbf dc2c 3a40 6fa1 1b3e
00000030: b022 b13e c7d3 41bf 2525 01be 9b9c 3c40
00000040: 74b5 a5bf 00fc 753f 9840 b340 c29d 8fbf
00000050: 81ae 8840 ea30 1940 2ed8 0940 f925 9fc0
00000060: a9e7 70c0 7d2d 6440 6531 06c0 79d5 8dc0
00000070: 44d1 5a40 c883 9a40 5e1f 0ec0 6988 33c0
00000080: b3b1 b23e b01e a4bf 76ed 5741 241d e23f
00000090: 099a f8bf 5984 12c0 ffea fb3f a79b 2ebf
000000a0: b050 8840 1101 333c c1e4 0dbf a1c5 97c0
000000b0: f6ab 4040 6922 5fc0 4d12 7240 b22e 0040
000000c0: c8ee 9040 0736 1fbf fa8d 4ac0 a28d 0cbf
000000d0: ec50 b340 428e 0a40 4bdc 3540 f820 bbbf
000000e0: c2b1 f140 fcee eebe 90b5 a6c0 21c0 f33f
000000f0: e8e6 0b41 e113 0041 2740 80bf 1f7a 4cc0
00000100: 6d0c 85bf 5fe1 11c0 c1e6 93c0 deca 50c0
00000110: a72c 3a40 318d 37c0 e540 a0bf 6d35 743f
00000120: 02e5 f0be 4335 5ec0 2496 bd3f 3dc1 c040
00000130: 9845 3c3f 2263 16c1 05bb db3f c390 2740
00000140: 2ca1 c23d 82e0 4fc0 73c7 d3bf 4e43 bf40
00000150: 95af 0640 03c1 96c0 8b36 e840 501c 4bbf
00000160: 1187 cebf cbf5 0ac0 814d 79c0 25d9 e6bf
00000170: 18d8 43bd 149f 0ec0 0296 3c3f 0c40 63c0
00000180: c1f3 a33f 93dd 01c0 204c aa40 5ce9 0a40
00000190: a919 afbf 1a44 3c3f 4963 3140 28d7 3dc0
000001a0: 00e2 ea3f 50e7 1ac0 a2a7 993f 5c3a ccbe
000001b0: a77b cdbf f3fe aa3f 1b6d ba3f eaf2 c4be
000001c0: 3b56 0340 008c 983f 73e3 0540 d86e aabf
000001d0: aa57 86be 0c8c 5b40 c065 13be 1f42 fabf
000001e0: 2af9 12bf 11a3 3940 6cc3 df3f 21d8 dfbe
000001f0: 5e33 a6be eeea 103f 377b e8bf 2926 57bf
00000200: 29fb ad3e 46a2 94bf e486 893f 291c a1bf
00000210: 84fd aa3f 1bfe 8cc0 31e4 efbd 0177 f3bf
00000220: ad11 ba3f 2d65 bac0 06af 42c0 d8df 4040
00000230: e099 3240 24be 593d 3d36 703f 1487 0040
00000240: 2474 d23f 653d cabf ba32 cf3e f35c 3a40
00000250: 2398 0f40 ebd9 d0bf 562a be40 50a2 12c0
00000260: 9991 d0be 2a9e a1bf a67d 3240 8d13 d2bb
00000270: 7794 e93f dd36 92c0 4799 12c0 45d5 8340
00000280: 807a 1440 2938 7f40 e8ce 6940 e041 1bc0
00000290: 2dcf b43f 1b3b dcbf 0613 2f40 2440 97bf
000002a0: df70 3740 c9a5 b7c0 ab03 143f b92a bb3f
000002b0: 7aaf efbb d659 2a3f 55a0 62c0 919a fac0
000002c0: 1368 1040 029f d7bf 0c1d d23f 164a 4140
000002d0: 9a6f 18c0 9a9b 8fbf 9f55 86bf 1be6 343f
000002e0: 91fa 2f40 24d3 5a40 e26a 48c0 6483 1040
000002f0: 4c3b 45c0 514f 6b40 0e0c 6840 ad97 02c0
00000300: ee26 23bf 08e4 74c0 3776 fcbd 8ee7 c13f
00000310: 777d 0ac0 5bd0 7d40 2fde e73f f948 3940
00000320: 15d6 8a3f ca54 57c0 b89b 0640 0ff1 c0bf
00000330: a828 da3f 2af6 3040 f8aa af3e fb26 4d40
00000340: aa4b 803e 13a9 0c40 afff 81c0 48a7 cfbe
00000350: 3dcd 7e40 0e15 c7be 09d9 e13e a231 d6be
00000360: 8fb9 01c0 fc0f d43d d4e4 8e3e dfb2 3340
00000370: 6870 a03f f9b2 0640 b1de ba3f 420d a0be
00000380: 07d5 8cbd 1491 d93f b2cd 58bf 44c9 2cc0
00000390: 9bca 37c0 8023 d6be 1b65 af3d 0b01 68bf
000003a0: f531 17be e301 8e3f 0d72 c13f 4c0e 0b40
000003b0: 4ee3 a1c0 7a7f 4640 e1e4 a4bf 3303 36bf
000003c0: 056d f0be 986c 2e3f a1ad 56bf 8af6 1b3f
000003d0: 8f3c 69c0 7c5c 803f 2dc0 c2bf 8e1e ae3f
000003e0: 1e1d 34c0 042b df3f 7733 e43f 8c10 12c0
000003f0: ffb8 4ec0 c010 83c0 c2b5 0b3d 167e 893f

lstm2.bias_ih_l0 f4 [200]
0.025652673 -1.5151937 1.7158281 0.8354624 -2.695341 -6.335302 5.2256927 -1.5694357
-0.09433775 -1.1464118 -3.1162076 -4.2784753 -0.33642146 -7.686844 0.5259828 1.5373125
1.4961672 -0.59382874 0.92115325 -0.8238335 -2.660631 -2.49428 -10.0133505 0.96891147
-1.4265262 0.22221161 1.1863276 -0.33947718 2.5478094 0.18815652 -5.722075 3.9119208
1.0992122 -2.7414868 4.5806437 -3.265213 0.25764117 -3.3021493 1.1664068 -4.0054655
-2.167867 -2.5446887 -3.2266827 6.5274434 0.0041217916 3.0392995 2.8067658 -3.4627123
1.7470762 -1.9430223 2.6366642 -2.0263166 3.1411 0.16698274 -2.053196 3.6219428
3.0015693 -0.92688406 -0.28685254 -1.1023384 2.7498329 -1.9464611 -1.8468399 -1.3345424
3.988984 0.37961635 -0.38157472 0.8897153 -0.24503782 0.59807575 0.3539771 4.307279
-6.6509857 -0.19616644 -1.0226238 1.9273112 -1.6190064 0.68696964 -0.010073853 0.8794255
-2.9965162 -0.70877695 0.09041252 -0.14140159 -0.31061575 0.81850517 0.20800732 -2.9164903
-1.1024213 -3.366551 0.824101 -0.14725423 -3.6611085 0.8994835 -1.5679184 -1.6080633
2.0916588 2.8261697 1.5546446 -1.4001638 0.80037427 4.041274 2.192653 -6.2789745
0.6863005 4.642225 7.16523 -0.82145697 -2.7261908 -2.365274 3.9711466 4.3472905
-3.7517724 -2.4067414 -1.205665 -1.9476966 -3.636222 3.7352881 2.8899264 -1.7856297
4.026911 0.51416695 6.0264397 1.6915212 2.0893786 2.1752722 -2.8923066 -5.458111
-3.7656105 -2.538527 -2.7192988 -0.31887564 -0.5414958 3.414408 5.7950025 2.755018
-2.09575 -0.9716816 0.61366814 -0.65440094 1.4122905 0.09224445 -1.8864212 -4.169151
0.7879734 -6.2428474 -1.795772 -5.124803 6.692529 1.3467865 -0.4442604 -3.766309
-4.9528418 4.0334215 -6.0881963 -0.8442352 -5.9490247 -3.7380307 -4.4554324 -0.5266336
-7.451357 -6.6820374 -3.003185 -1.637249 -0.9023789 -3.9719865 -1.899493 3.6837087
-7.5811615 -6.7187734 -2.115036 -5.77531 -5.05405 3.4698899 -4.929141 -2.384067
-0.6177564 -3.4580357 2.778019 -6.590263 -2.8331118 -8.335107 1.8822211 -3.1432035
-6.5179114 3.8408902 -1.9544278 -0.51008624 -4.584516 -4.320686 -1.3294438 0.4829828
-3.14721 -6.0631814 -4.273676 -6.8615108 -7.2217207 7.3095737 -11.100725 -0.34372318
00000000: 8e25 d23c def1 c1bf 41a0 db3f dde0 553f
00000010: 7880 2cc0 cbba cac0 e038 a740 45e3 c8bf
00000020: 2634 c1bd 9fbd 92bf f26f 47c0 45e9 88c0
00000030: 6f3f acbe a0fa f5c0 cfa6 063f a8c6 c43f
00000040: 6882 bf3f 2905 18bf b3d0 6b3f c1e6 52bf
00000050: c747 2ac0 49a2 1fc0 af36 20c1 950a 783f
00000060: 6998 b6bf 718b 633e 95d9 973f f4cf adbe
00000070: 4f0f 2340 1aac 403e 3d1b b7c0 e95c 7a40
00000080: fcb2 8c3f 8574 2fc0 a294 9240 40f9 50c0
00000090: 8be9 833e 6a56 53c0 d14c 953f c62c 80c0
000000a0: 55be 0ac0 2edc 22c0 f881 4ec0 d1e0 d040
000000b0: 1810 873b e283 4240 0da2 3340 149d 5dc0
000000c0: 31a0 df3f f4b4 f8bf 1bbf 2840 2caf 01c0
000000d0: c807 4940 86fd 2a3e 9067 03c0 e9cd 6740
000000e0: b619 4040 4648 6dbf 56de 92be 6d19 8dbf
000000f0: 43fd 2f40 a325 f9bf 4065 ecbf 49d2 aabf
00000100: 844b 7f40 135d c23e c35d c3be 62c4 633f
00000110: 32eb 7abe 7e1b 193f 7d3c b53e 3bd5 8940
00000120: e0d4 d4c0 dbdf 48be 56e5 82bf 22b2 f63f
00000130: 9a3b cfbf 3edd 2f3f cd0c 25bc 0822 613f
00000140: ecc6 3fc0 6872 35bf 332a b93d 94cb 10be
00000150: 0709 9fbe 8e89 513f dfff 543e c7a7 3ac0
00000160: 241c 8dbf 9275 57c0 48f8 523f d0c9 16be
00000170: 9a4f 6ac0 8d44 663f 8db1 c8bf 05d5 cdbf
00000180: bddd 0540 f7df 3440 98fe c63f 9138 b3bf
00000190: 54e5 4c3f 1e52 8140 6d54 0c40 5ced c8c0
000001a0: 64b1 2f3f 1b8d 9440 9049 e540 014b 52bf
000001b0: e979 2ec0 a660 17c0 4427 7e40 011d 8b40
000001c0: 0a1d 70c0 0d08 1ac0 3b53 9abf 1f4e f9bf
000001d0: dcb7 68c0 f60e 6f40 8ef4 3840 848f e4bf
000001e0: 74dc 8040 72a0 033f 98d8 c040 c483 d83f
000001f0: 61b8 0540 a937 0b40 8d1b 39c0 d8a8 aec0
00000200: c3ff 70c0 3a77 22c0 fe08 2ec0 ab43 a3be
00000210: 789f 0abf a985 5a40 a970 b940 3752 3040
00000220: c520 06c0 20c0 78bf 5b19 1d3f d286 27bf
00000230: efc5 b43f a8ea bc3d 4076 f1bf af69 85c0
00000240: a0b8 493f 68c5 c7c0 dbdb e5bf 63fe a3c0
00000250: 3329 d640 8063 ac3f 1976 e3be 350b 71c0
00000260: ae7d 9ec0 ca11 8140 81d2 c2c0 cc1f 58bf
00000270: 695e bec0 e53b 6fc0 e792 8ec0 76d1 06bf
00000280: 8471 eec0 40d3 d5c0 2f34 40c0 6091 d1bf
00000290: 4e02 67bf 0735 7ec0 9622 f3bf e2c1 6b40
000002a0: e098 f2c0 3100 d7c0 c05c 07c0 57cf b8c0
000002b0: c7ba a1c0 ad12 5e40 86bb 9dc0 8e94 18c0
000002c0: 4925 1ebf 7550 5dc0 10cb 3140 6fe3 d2c0
000002d0: b451 35c0 995c 05c1 9fec f03f 3f2a 49c0
000002e0: bb92 d0c0 25d1 7540 b12a fabf 0395 02bf
000002f0: 5bb4 92c0 0f43 8ac0 372b aabf 8649 f73e
00000300: e36b 49c0 9505 c2c0 f4c1 88c0 7f91 dbc0
00000310: 5618 e7c0 07e8 e940 929c 31c1 7cfc afbe

lstm2.bias_hh_l0 f4 [200]
-0.086064905 -1.5569513 1.6499857 0.8152197 -2.8668473 -6.2289524 5.279071 -1.6493176
-0.13856477 -1.2679763 -3.136465 -4.2202497 -0.35723573 -7.7041507 0.8070933 1.6157087
1.4370251 -0.6865095 0.9601406 -1.0242331 -2.8608751 -2.6766205 -10.191682 0.977259
-1.6102779 0.071913145 1.2255224 -0.24385303 2.547186 0.34576467 -5.8344355 3.7464674
1.0012732 -2.696735 4.491844 -3.3940463 0.123929635 -3.3258758 0.9301329 -3.9901607
-2.1047356 -2.4849484 -3.2631567 6.753628 -0.2534421 3.0448604 2.799174 -3.4549575
1.7587166 -2.1862247 2.7844167 -2.0279264 3.296791 0.20253518 -2.0621934 3.3889384
3.2552776 -0.89798146 -0.4068082 -1.2084795 2.7459998 -1.9901125 -1.8481462 -1.5346266
3.7414649 0.24078722 -0.5250165 0.8074564 -0.31168374 0.48800164 0.36095443 4.3781867
-6.5676007 -0.31655973 -1.0077846 1.7957038 -1.6919255 0.519729 0.086460054 0.9751862
-2.9413936 -0.5813987 -0.03228548 -0.033298902 -0.34112084 0.7866641 0.3607354 -2.9652147
-1.2424208 -3.4350963 0.77948207 -0.1922328 -3.7894735 0.77863824 -1.6566355 -1.6121464
2.215921 2.8738818 1.4947221 -1.4161758 0.8759726 4.003341 2.013109 -6.3541765
0.70560837 4.5821447 7.146072 -0.70794433 -2.6601455 -2.3131273 3.9839826 4.336132
-3.7489154 -2.4333093 -1.2861344 -2.049521 -3.7461119 3.6835146 3.086701 -1.721772
4.043037 0.60500455 6.1138844 1.7151033 2.2231605 2.2174523 -2.9183335 -5.2224784
-3.6909323 -2.6782813 -2.7569327 -0.21935745 -0.39389056 3.2566206 5.911789 2.663402
-2.1180046 -1.1165166 0.49859008 -0.8559938 1.4760193 0.058276474 -1.9244491 -4.0450253
0.7405798 -6.3742094 -1.5488006 -5.2389164 6.8112273 1.1261387 -0.40561935 -3.6977797
-4.8607707 3.8530397 -6.3147655 -0.8354945 -5.923492 -3.9621356 -4.3890615 -0.5360653
-7.4522996 -6.522616 -2.9932423 -1.410846 -0.84542793 -3.96079 -1.9464222 3.6349654
-7.385938 -6.4819803 -2.1099331 -5.7944307 -4.98822 3.5395074 -4.8421464 -2.4357176
-0.629172 -3.2366278 2.7887056 -6.8479266 -2.7403653 -8.309583 1.7123711 -3.188415
-6.715893 3.8983119 -2.0123715 -0.51755327 -4.6554794 -4.3746033 -1.2227391 0.56608164
-3.1349866 -5.9239597 -4.4451056 -6.6575375 -6.971447 7.261288 -11.207357 -0.3102257
00000000: cc42 b0bd 2e4a c7bf bb32 d33f 3db2 503f
00000010: 6d7a 37c0 9453 c7c0 26ee a840 d71c d3bf
00000020: ece3 0dbe 0c4d a2bf d8bb 48c0 490c 87c0
00000030: 9ae7 b6be 6788 f6c0 ab9d 4e3f 8bcf ce3f
00000040: 70f0 b73f 16bf 2fbf c6cb 753f 121a 83bf
00000050: 9418 37c0 c04d 2bc0 2111 23c1 a52d 7a3f
00000060: 961d cebf 3347 933d ebdd 9c3f 9cb4 79be
00000070: 1805 2340 1108 b13e b2b3 bac0 1fc6 6f40
00000080: b829 803f 4e97 2cc0 30bd 8f40 0e38 59c0
00000090: d2ce fd3d 26db 54c0 311d 6e3f cb5e 7fc0
000000a0: fdb3 06c0 6509 1fc0 8fd7 50c0 b81d d840
000000b0: 2ac3 81be fede 4240 ab25 3340 061e 5dc0
000000c0: a01d e13f 1beb 0bc0 e233 3240 8cc9 01c0
000000d0: a0fe 5240 6265 4f3e fafa 03c0 5ee4 5840
000000e0: 7856 5040 1de2 65bf 2a49 d0be 75af 9abf
000000f0: 76be 2f40 02bc febf 0e90 ecbf a56e c4bf
00000100: 2974 6f40 ed90 763e 7b67 06bf 76b5 4e3f
00000110: 0395 9fbe 5adb f93e 05cf b83e 1b1a 8c40
00000120: c929 d2c0 1e14 a2be 16ff 80bf 9fd9 e53f
00000130: 0491 d8bf f60c 053f f811 b13d cea5 793f
00000140: cb3f 3cc0 8cd6 14bf c83d 04bd 6e64 08bd
00000150: 64a7 aebe d262 493f 4fb2 b83e 14c6 3dc0
00000160: a507 9fbf 9ed8 5bc0 238c 473f add8 44be
00000170: bc86 72c0 d654 473f a20c d4bf d05a cebf
00000180: a6d1 0d40 aeed 3740 0e53 bf3f 4045 b5bf
00000190: be3f 603f 5f1b 8040 c7d6 0040 6a55 cbc0
000001a0: c0a2 343f eea0 9240 9fac e440 d73b 35bf
000001b0: d33f 2ac0 470a 14c0 92f9 7e40 98c1 8a40
000001c0: 3bee 6fc0 57bb 1bc0 0da0 a4bf 5a2b 03c0
000001d0: 4cc0 6fc0 b4be 6b40 828c 4540 0663 dcbf
000001e0: 8f60 8140 94e1 1a3f f1a4 c340 8188 db3f
000001f0: 4348 0e40 bdea 0d40 fac5 3ac0 8b1e a7c0
00000200: 3c38 6cc0 f668 2bc0 9671 30c0 3d9f 60be
00000210: 06ac c9be 796c 5040 602d bd40 2e75 2a40
00000220: 638d 07c0 04ea 8ebf 3347 ff3e 6922 5bbf
00000230: 33ee bc3f 50b3 6e3d 5954 f6bf d970 81c0
00000240: a396 3d3f 86f9 cbc0 193f c6bf 34a5 a7c0
00000250: 93f5 d940 5025 903f 57ad cfbe 6ca8 6cc0
00000260: 6f8b 9bc0 3498 7640 8f12 cac0 f8e2 55bf
00000270: 3f8d bdc0 a193 7dc0 3173 8cc0 933b 09bf
00000280: 3d79 eec0 45b9 d0c0 4891 3fc0 9a96 b4bf
00000290: f76d 58bf 957d 7dc0 5d24 f9bf 46a3 6840
000002a0: 9b59 ecc0 626c cfc0 2509 07c0 fa6b b9c0
000002b0: 809f 9fc0 4a87 6240 ddf2 9ac0 cce2 1bc0
000002c0: 6b11 21bf e924 4fc0 277a 3240 3722 dbc0
000002d0: 2562 2fc0 0df4 04c1 fa2e db3f fe0e 4cc0
000002e0: 98e8 d6c0 f17d 7940 b2ca 00c0 5f7e 04bf
000002f0: b0f9 94c0 c0fc 8bc0 b782 9cbf baea 103f
00000300: 9fa3 48c0 1491 bdc0 4e3e 8ec0 8c0a d5c0
00000310: 1816 dfc0 795c e840 5651 33c1 e7d5 9ebe

fc2.weight f4 [2, 60]
0.00066827727 -0.41634277 0.29314592 -0.18419938 -0.2479308 -0.21661693 -0.3700361 -0.16447191
0.27584192 0.40734896 0.15970115 -0.22685747 0.17956077 -0.068757504 -4.7938623 -0.11875344
0.05903918 -0.31533194 2.1968572 0.16110897 0.5155489 -0.20630188 -0.07207784 0.15919536
-0.060429927 -0.31691876 0.043914955 0.1999971 0.07144737 0.41672975 -0.6880955 0.10161903
0.56346923 -0.560349 -0.16041459 -0.16632192 -0.19851267 -0.10560248 0.30186892 0.1174539
-0.21481627 -0.4902624 0.1474809 0.07577952 0.22960901 0.21643466 0.241676 -0.5747202
-0.42924976 0.27278575 -0.09313533 -0.13323584 3.7570555 0.011503709 -0.18951821 -0.3396859
-0.021568537 0.21340892 0.23566209 0.05665026 0.07197731 0.2506049 -0.28455037 0.22751531
0.092856206 0.21906991 0.369886 -0.01363014 -0.31056464 -0.31100777 -0.13181865 0.21019545
-0.08198054 -0.12927604 4.835158 0.12016893 -0.027640836 0.4987876 -2.2730258 -0.04433243
-0.55141366 0.22476166 0.044649214 -0.088890016 0.082050264 0.20571873 -0.17674258 0.011264286
-0.032852784 -0.55596864 0.68295884 0.020521594 -0.68832016 0.35847133 0.122267716 0.12893626
0.18246403 0.14478017 -0.08060935 -0.11895246 0.24055259 0.3371582 0.028141843 -0.1579639
-0.011208988 -0.11306912 -0.3602126 0.6138592 0.4422929 -0.17103587 0.112477705 0.13891643
-3.793283 0.18588676 0.050160803 0.3434361 0.02474648 -0.31118914 -0.21493147 -0.05217599
00000000: 542f 2f3a e12a d5be 3917 963e c39e 3cbe
00000010: 92e1 7dbe d4d0 5dbe 5f75 bdbe 536b 28be
00000020: 273b 8d3e 0b90 d03e b388 233e 534d 68be
00000030: c7de 373e bcd0 8cbd 5267 99c0 0135 f3bd
00000040: 11d3 713d 3073 a1be 4f99 0c40 c0f9 243e
00000050: 03fb 033f cd40 53be 8c9d 93bd 1c04 233e
00000060: 5f85 77bd 2d43 a2be 2be0 333d 0acc 4c3e
00000070: 0053 923d 9a5d d53e 0727 30bf a31d d03d
00000080: 853f 103f 0873 0fbf b943 24be 4b50 2abe
00000090: e846 4bbe 1d46 d8bd 908e 9a3e ac8b f03d
000000a0: ccf8 5bbe ac03 fbbe 3c05 173e 4b32 9b3d
000000b0: a01e 6b3e 0ca1 5d3e ea79 773e dd20 13bf
000000c0: a0c6 dbbe 93aa 8b3e bcbd bebd fa6e 08be
000000d0: 9973 7040 0d7a 3c3c 1011 42be 4feb adbe
000000e0: 80b0 b0bc de87 5a3e 6751 713e 1a0a 683d
000000f0: d768 933d 494f 803e 96b0 91be c6f9 683e
00000100: 652b be3d dd53 603e b361 bd3e f350 5fbc
00000110: 5402 9fbe 693c 9fbe 78fb 06be 7a3d 573e
00000120: 6ae5 a7bd f060 04be 9db9 9a40 211b f63d
00000130: 096f e2bc 1761 ff3e 4179 11c0 ec95 35bd
00000140: 7229 0dbf ec27 663e 18e2 363d f80b b6bd
00000150: f809 a83d eea7 523e 02fc 34be d78d 383c
00000160: a490 06bd f653 0ebf 64d6 2e3f e71c a83c
00000170: c035 30bf 8e89 b73e 7f67 fa3d de07 043e
00000180: dad7 3a3e 4141 143e 8416 a5bd 599d f3bd
00000190: 6b53 763e 00a0 ac3e b989 e63c 4ac1 21be
000001a0: e7a5 37bc c890 e7bd c96d b8be e025 1d3f
000001b0: 3774 e23e 0724 2fbe b65a e63d 1c40 0e3e
000001c0: 26c5 72c0 1959 3e3e 6a75 4d3d dbd6 af3e
000001d0: 21b9 ca3c 2f54 9fbe ff16 5cbe 7eb6 55bd

fc2.bias f4 [2]
0.08748241 0.09294203
00000000: fa29 b33d 6458 be3d
