laughter/models/model_dataset_500.pth (torch_old, 151430 bytes, 12 tensors)

lstm1.weight_ih_l0 f4 [40, 20]
0	0xbf9478ec	-1.1599402
1	0xbf251516	-0.644853
2	0xbf582a00	-0.84439087
3	0xbea5f83d	-0.32415953
4	0x3f1d88d7	0.61536926
5	0x3efae738	0.4900453
6	0x3e351b90	0.17686296
7	0xbfe17405	-1.7613531
8	0xbf494d1a	-0.7863327
9	0x3f933ede	1.150356
10	0x3fc70a39	1.5549995
11	0xbfba757e	-1.4567106
12	0xbe2f7705	-0.17135246
13	0x403e6397	2.9748285
14	0x3f1d61af	0.6147718
15	0xbfa97c0c	-1.3240981
16	0x4009bede	2.1522746
17	0x40029d03	2.0408332
18	0xbee62d1d	-0.44956294
19	0xc003a9e9	-2.0572455
20	0xbf4bc923	-0.79603785
21	0x3f8a08db	1.0783952
22	0x3fbb148c	1.4615645
23	0x3f8499cb	1.0359434
24	0xbed5742e	-0.416902
25	0x3fdb9da7	1.7157487
26	0xbf771c54	-0.965276
27	0xbed06682	-0.40703207
28	0xbf93b893	-1.1540703
29	0x3ee3b992	0.44477516
30	0x3e9a7051	0.30163816
31	0x402feec2	2.7489476
32	0xbf074f06	-0.52854955
33	0xbd78e97c	-0.060769543
34	0xbe96f0be	-0.29480547
35	0x3fe5ab08	1.794282
36	0xbf1cce78	-0.61252546
37	0xbf3f9760	-0.74840355
38	0x3eac7ea1	0.3369036
39	0xbf5437a6	-0.8289741
40	0x3f23cb76	0.6398233
41	0x3f4a9de2	0.7914716
42	0x3f180da9	0.59395844
43	0xbe554835	-0.20828326
44	0xbe7a7ecf	-0.24462436
45	0xc01dad65	-2.4637082
46	0x3f4fa24c	0.8110702
47	0xbf193c91	-0.5985804
48	0xbfa72153	-1.3057045
49	0x3f1211a5	0.57058173
50	0x4003ca69	2.0592291
51	0xbf1ab9e1	-0.6043988
52	0xbf9255b6	-1.1432407
53	0xbf4f4b62	-0.809744
54	0x4026364b	2.5970638
55	0x3e1b903a	0.15191737
56	0x40742047	3.81447
57	0x402e320c	2.7218046
58	0x3ef9c4db	0.48783
59	0x3f58594b	0.8451125
60	0x3f6d6045	0.9272502
61	0xbe633745	-0.22189052
62	0x3f474c0b	0.7785041
63	0x3f7ce2a2	0.98783314
64	0xbfc30039	-1.5234443
65	0xbe229f28	-0.15881026
66	0xbeac672f	-0.33672473
67	0xbfb61171	-1.4224073
68	0xbf2f434e	-0.68462074
69	0xbe4e044c	-0.20118827
70	0xbf18d2fc	-0.59696937
71	0x3fa95c62	1.3231318
72	0xbc8b2fde	-0.016990598
73	0x3f90ffce	1.1328065
74	0xbf95d731	-1.1706296
75	0xbe85d73d	-0.26140776
76	0x3e3adfd0	0.1824944
77	0xbfe4add6	-1.786555
78	0xc0007d5c	-2.0076513
79	0x3ff48255	1.9102274
80	0xbe8fdbca	-0.28097373
81	0x3f5ca545	0.8618968
82	0x3fb0bb67	1.3807191
83	0xbf3e6583	-0.74373645
84	0xbf305f77	-0.6889567
85	0x3f84720b	1.0347303
86	0x3fafc072	1.3730605
87	0x3fe35b77	1.7762288
88	0xbf586449	-0.84528023
89	0xbf0f2c99	-0.55927426
90	0x4090b1db	4.521711
91	0xbeee3adb	-0.46529278
92	0xc06cb3f7	-3.6984842
93	0x3f4b5b7b	0.79436463
94	0x3fad7375	1.355086
95	0xc001d0bc	-2.0283651
96	0x3e9eac65	0.30990902
97	0xbf3922f4	-0.7231896
98	0xbf6d4869	-0.92688614
99	0x3eb74477	0.35794422
100	0xbf847c33	-1.0350403
101	0x3fda4864	1.7053342
102	0x3dfcfd0c	0.12352952
103	0xbe0c9090	-0.13727021
104	0xbef94377	-0.48684284
105	0xbf8b631d	-1.0889622
106	0xbf8af131	-1.0854856
107	0xbda18072	-0.07885827
108	0xbf59ec6f	-0.85126394
109	0xbf38ded0	-0.72214985
110	0x3eb6ae3b	0.35679802
111	0xbfee5d45	-1.8622214
112	0x3f5b1187	0.8557362
113	0xbeddaea2	-0.43297297
114	0xbf94250f	-1.1573809
115	0x3f81b4c4	1.013329
116	0xbffaab68	-1.9583559
117	0x3f2c3489	0.6726766
118	0x3dfa2cd3	0.12215581
119	0xbfc7d3f7	-1.5611562
120	0xbecdf11d	-0.40223017
121	0x3f096dad	0.53682977
122	0xbe1c61b2	-0.15271643
123	0x3fae8411	1.3634053
124	0xc00e70ca	-2.225634
125	0x3fca66c6	1.5812614
126	0xbfb57682	-1.4176791
127	0xbef75369	-0.48305824
128	0x3b183837	0.0023226866
129	0xbf380f92	-0.7189876
130	0x3e7ede02	0.24889377
131	0x3f826073	1.0185684
132	0xbf6c4399	-0.92290646
133	0xbe5107a9	-0.20413078
134	0xbfaf7260	-1.370678
135	0x3f3f0534	0.74617314
136	0xbf853e7c	-1.0409694
137	0xbee8d903	-0.45478067
138	0x3edd17c1	0.43182185
139	0x3fe48b27	1.7854966
140	0xbf31bfec	-0.69433475
141	0xbff23517	-1.8922452
142	0x400ad1cd	2.1690552
143	0xbfcb8152	-1.589884
144	0x3fb4780d	1.4099137
145	0x3ffe5f40	1.9872818
146	0x3f0c7d04	0.5487826
147	0x3f42546a	0.75910056
148	0xbe82f2e6	-0.25575942
149	0x3fba4cab	1.4554647
150	0x3f3915d4	0.7229893
151	0x3e7473f6	0.2387236
152	0xc00f265f	-2.236717
153	0xbf2fc078	-0.6865306
154	0x40130106	2.2969375
155	0x3f64ed6e	0.8942479
156	0xbeb706bc	-0.35747325
157	0x3ed4365a	0.41447717
158	0x3f609720	0.877306
159	0x3fa51f4c	1.2900176
160	0x3fb0e4b1	1.3819791
161	0xbfcbbfb9	-1.5917884
162	0x3ecc0531	0.3984771
163	0xbf17b96f	-0.59267324
164	0x3eb277f7	0.3485715
165	0xbde808fd	-0.113298394
166	0xc005d52a	-2.0911355
167	0x3fd78a4a	1.6839077
168	0xbfb80833	-1.4377502
169	0xbfac4df5	-1.3461291
170	0xbfdbfd15	-1.718661
171	0x3e9f98f2	0.31171376
172	0xbf783f05	-0.9697116
173	0xbf97e5f8	-1.1867056
174	0x3f81cdc0	1.0140915
175	0xbf4f5fa9	-0.8100534
176	0xbffa673f	-1.9562758
177	0xbca0d2a9	-0.0196317
178	0xbfa5bbf9	-1.294799
179	0xbef401af	-0.47657534
180	0xbb9f35c0	-0.0048587024
181	0xbf1a2758	-0.60216284
182	0xbf8f3287	-1.1187295
183	0x3f873fd7	1.0566357
184	0xbf2e0f18	-0.6799178
185	0x3fb256bf	1.3932723
186	0x3ee07674	0.43840373
187	0x4053d5e2	3.3099294
188	0xbff53423	-1.9156536
189	0x3f9a6904	1.2063298
190	0x3fd37ccc	1.652246
191	0xc0393e84	-2.8944407
192	0xc010c029	-2.2617285
193	0xbf922d1a	-1.1420014
194	0x4022cce1	2.5437548
195	0x3f90a1db	1.1299394
196	0xc00d8d3e	-2.2117457
197	0x4006a89a	2.1040406
198	0xbf2d228b	-0.67630833
199	0x3fdc34cc	1.7203612
200	0xbdf3183e	-0.11869858
201	0x3ec2a47f	0.38016126
202	0xbf8812f9	-1.063079
203	0xc022a36f	-2.5412252
204	0x3ff70482	1.9298251
205	0xbf90b233	-1.1304382
206	0x3fb94d3b	1.4476694
207	0xbf0489d3	-0.51772803
208	0x3fa6509e	1.2993352
209	0xbe7ce166	-0.24695358
210	0x3f0de16f	0.5542211
211	0xbf2987eb	-0.6622302
212	0x3f3e56fb	0.7435147
213	0xbf8c2271	-1.0948011
214	0x3e8188b7	0.25299618
215	0xbe7008cc	-0.23440856
216	0x3f3ce7a1	0.7379094
217	0x3fb2dd64	1.3973813
218	0x3f80a409	1.005006
219	0x3ea8bfdf	0.32958886
220	0x3f89013c	1.0703502
221	0xbf115f5a	-0.5678612
222	0xbe04f1f9	-0.1298293
223	0x3e260190	0.16211534
224	0xbf8fa4da	-1.1222184
225	0xbf0f56bd	-0.5599173
226	0xbf989e4e	-1.1923311
227	0xc0040862	-2.0630116
228	0x3e916226	0.28395194
229	0xbfc7d9d4	-1.5613351
230	0x3e55eb36	0.20890507
231	0xbf8577c0	-1.042717
232	0x3f983b12	1.1893027
233	0xbff5c1e4	-1.9199796
234	0xbf9bbd2d	-1.2167107
235	0x3f30f0df	0.6911754
236	0xbee3c116	-0.4448325
237	0x3fbd22f6	1.4776294
238	0x3f9a544b	1.2056974
239	0x3d9f7741	0.07786418
240	0xbfa59024	-1.2934613
241	0x3f385c97	0.7201628
242	0x3f3c6f94	0.73607755
243	0x3f9a7b0c	1.2068801
244	0xc007ef7f	-2.1239927
245	0x3d07d3b4	0.03316088
246	0x3f7bea41	0.9840432
247	0xbfb001a6	-1.3750503
248	0x3f6d08a0	0.92591286
249	0xbf1bbb7c	-0.60832953
250	0x3f3d4243	0.7392923
251	0x3ec45b71	0.38351014
252	0xbf8e0e45	-1.1098105
253	0xc02e1339	-2.7199233
254	0x3f098de5	0.5373214
255	0x40118ebf	2.2743375

lstm1.weight_hh_l0 f4 [40, 10]
0	0xbf008e0d	-0.5021675
1	0x402c1a17	2.6890924
2	0xbfc00495	-1.5001398
3	0xbdaff641	-0.08591891
4	0x3fdea1f7	1.7393178
5	0xbfbf3d99	-1.4940673
6	0x3fabec36	1.3431461
7	0xbbbdf957	-0.005797546
8	0x3e3bce67	0.18340455
9	0xbfd6de2d	-1.6786553
10	0xbe0e3cb3	-0.13890342
11	0x3e6fc618	0.2341541
12	0x3f3283e6	0.6973251
13	0xbeac1a7f	-0.33613965
14	0x3e1801ec	0.14844483
15	0x3ef2c24c	0.47413862
16	0xbf2f235e	-0.6841334
17	0xbf800983	-1.0002903
18	0xbed69384	-0.4190942
19	0x3f0b47cf	0.54406446
20	0xbf1c77bd	-0.61120206
21	0xc0519412	-3.2746625
22	0x401a917f	2.4151304
23	0x3e31e50f	0.17372535
24	0xc0e216bf	-7.0652766
25	0x40851eb0	4.159996
26	0x397f35fc	0.00024338806
27	0xbfafb8b7	-1.3728245
28	0x3d6afe1e	0.05737125
29	0x3fa62af9	1.2981864
30	0x3f935edf	1.1513327
31	0xbf94b241	-1.1616899
32	0xbeb05e78	-0.34447074
33	0x3f77b0b9	0.9675403
34	0xc00cf771	-2.2026026
35	0xc030c23a	-2.7618546
36	0xbf1ebe43	-0.62009066
37	0x3f0641a6	0.5244392
38	0xbe054451	-0.13014342
39	0xbeed8c89	-0.46396282
40	0x3f4cda3f	0.8002052
41	0xc0cd945a	-6.4243593
42	0x400fd5bc	2.2474203
43	0x4016543b	2.348891
44	0xbb3a3689	-0.0028413853
45	0x40b1f669	5.5613294
46	0x3faf611d	1.3701512
47	0xc0e3547f	-7.1040645
48	0xbfd3b124	-1.6538434
49	0x3f45ec54	0.77313733
50	0xbf995035	-1.1977602
51	0xbf13280c	-0.5748298
52	0xbf3a1329	-0.72685486
53	0x3ea5569e	0.32292646
54	0xc05ae90c	-3.420474
55	0x3ff132f3	1.8843673
56	0xbf8593f4	-1.0435777
57	0x3e6173f1	0.22016884
58	0x3ea2d702	0.31804663
59	0x3d9f9d86	0.07793717
60	0xbf755cb5	-0.95844585
61	0xbf7d69ca	-0.98989546
62	0xbf18a607	-0.5962834
63	0xbf36fc4c	-0.71478724
64	0x3f278bb6	0.65447557
65	0x3fe92f2b	1.821752
66	0x3f96f39b	1.1793092
67	0xbfde0e09	-1.7348033
68	0x3e945ed3	0.28978595
69	0x3e33a687	0.17543994
70	0xbea6bb25	-0.32564655
71	0xbf16adad	-0.5885876
72	0x3fa3ae3d	1.2787548
73	0x3fc5a329	1.5440418
74	0xbffe9e9b	-1.9892153
75	0x409ffc93	4.999582
76	0x3f9bdf1d	1.2177464
77	0xc0119946	-2.27498
78	0xc02cf0b1	-2.7021906
79	0x3fc39209	1.5278941
80	0xbf092f43	-0.5358774
81	0xbf6317ac	-0.88707995
82	0xbecc591f	-0.39911744
83	0x3f7b1a4b	0.98086995
84	0x3f1319d3	0.5746128
85	0x3f905f4f	1.1279086
86	0x3f95206f	1.1650523
87	0xbf237cd7	-0.63862365
88	0x402d2506	2.7053847
89	0x3f8aacdc	1.0834002
90	0xbf618ea9	-0.8810831
91	0xc00eab8b	-2.2292202
92	0xbf9a8904	-1.2073064
93	0x400baa85	2.1822827
94	0xbfcb4f0d	-1.5883499
95	0x40e60468	7.188038
96	0x3fdf519d	1.7446781
97	0xc0b45e46	-5.636508
98	0xc0085e2e	-2.1307483
99	0x40895c69	4.2925305
100	0xbf4b6c50	-0.79462147
101	0x4027bea2	2.6210103
102	0xbff94a43	-1.9475788
103	0xbea8a12c	-0.32935464
104	0x3ed20a5c	0.4102353
105	0xc00034f9	-2.0032332
106	0x401aa389	2.4162314
107	0x3ffedcba	1.991111
108	0x4012f2c1	2.2960665
109	0xc020c9e7	-2.5123231
110	0xbfc72870	-1.5559216
111	0xbe988fff	-0.2979736
112	0x3f80e3f5	1.0069567
113	0x3ed2ac22	0.41146952
114	0xc00529f9	-2.0806868
115	0x3e911422	0.28335673
116	0x3f1b2930	0.6060972
117	0x3f39631d	0.7241686
118	0x3e7660c0	0.24060345
119	0x3d792d2a	0.060834087
120	0xbf4bb14c	-0.7956741
121	0xc0c4fb6f	-6.1556926
122	0x3f874dab	1.0570577
123	0xbf7c128c	-0.984658
124	0xc0cb9c8d	-6.36286
125	0x3ff40702	1.9064639
126	0xbfbe36fc	-1.486053
127	0xbe4a2f62	-0.19744638
128	0xbf2f07c5	-0.6837123
129	0x400bcb69	2.1842902
130	0xbf000eb9	-0.50022465
131	0x3f851676	1.039748
132	0xc00bd688	-2.184969
133	0x3c2febc3	0.010737362
134	0x3eb3a51a	0.350869
135	0x3e8bb0ed	0.2728342
136	0x3fa85c2e	1.3153131
137	0x3f91b308	1.1382761
138	0x3cd30dc8	0.025763407
139	0xbf9c5a3d	-1.2215039
140	0x3fcb1aa1	1.5867501
141	0xc0f15c2d	-7.542502
142	0x405ea71c	3.4789495
143	0x3f182412	0.5943004
144	0xc08839f3	-4.257074
145	0x403b6888	2.928255
146	0xc0513c3b	-3.2693012
147	0xc0068f1f	-2.1024854
148	0xc03e66fd	-2.975036
149	0x40819446	4.04935
150	0x3edb0aa8	0.42781568
151	0xc0021ad2	-2.032887
152	0xbf391db4	-0.7231095
153	0x3f8445cc	1.03338
154	0xbf2efc87	-0.68354076
155	0x40b80d56	5.751628
156	0x3e89e719	0.26934126
157	0xc0caf429	-6.3423047
158	0x3e365119	0.17804374
159	0xbfcd209b	-1.6025575
160	0x3f39a0a5	0.7251075
161	0xbfe510cd	-1.7895752
162	0x40156762	2.334435
163	0xbee8f33a	-0.45498067
164	0xc0113b00	-2.269226
165	0x3fb3f093	1.4057792
166	0xc020d95d	-2.5132668
167	0xbfe8dee7	-1.8193024
168	0x3e9a47d9	0.3013294
169	0x40387391	2.8820536
170	0xbff42a4e	-1.907541
171	0xc09c98d9	-4.893658
172	0x3f25c30d	0.6475075
173	0x3ebbf16e	0.36707634
174	0xc040d559	-3.0130217
175	0x404cca0b	3.1998317
176	0xc0004093	-2.0039413
177	0xc043d51b	-3.059882
178	0xc01ccc71	-2.449978
179	0x4026d497	2.6067255
180	0x3f832631	1.024603
181	0xc08eb10e	-4.459113
182	0xbe2c0b60	-0.16801214
183	0x3f314bff	0.69256586
184	0xbf1bc450	-0.60846424
185	0x40381155	2.8760579
186	0xbf09ce3f	-0.5383033
187	0xc09adc11	-4.8393636
188	0x3f468649	0.7754865
189	0xbebb0cba	-0.36533147
190	0x3e5e19bf	0.21689509
191	0xc08c21b2	-4.379113
192	0x3fc8c3c9	1.5684749
193	0x3d90e84c	0.07075557
194	0xc0d6cd3d	-6.7125535
195	0x40d38abd	6.610686
196	0xbf33778e	-0.701043
197	0xc0588d70	-3.3836327
198	0x3f23facf	0.6405458
199	0x402a90db	2.6650913
200	0x3fc2707f	1.5190581
201	0xc03cc66a	-2.9496102
202	0x3f7bcbb9	0.9835773
203	0x3f965472	1.1744521
204	0x3d3736f8	0.044730157
205	0x3f2f841a	0.68560946
206	0xbfa6f0ce	-1.3042238
207	0xc013035b	-2.2970798
208	0xbf3831e3	-0.7195112
209	0x3fbad755	1.4596964
210	0x3bb4bf75	0.0055159875
211	0x3ebf6c3d	0.37387267
212	0xbf048d42	-0.5177804
213	0x3fb43700	1.4079285
214	0x3eb5f52c	0.35538614
215	0x3f180e13	0.59396476
216	0x3f1fd048	0.62427187
217	0x3ee86d8f	0.45396087
218	0x3fffe078	1.9990377
219	0xbecb0849	-0.3965476
220	0xbe907aca	-0.2821868
221	0xc0c03c44	-6.0073566
222	0x4078d421	3.8879473
223	0x3f04bdca	0.51852095
224	0xc0a7b1db	-5.240461
225	0x4057feba	3.3749223
226	0xc03daf76	-2.9638343
227	0xc03b6d7e	-2.9285579
228	0xbfc17c6a	-1.5116093
229	0x40931305	4.5960717
230	0x3f26cc86	0.6515583
231	0xc046ad2b	-3.1043193
232	0x3e808ad1	0.2510591
233	0x3e2cff4f	0.16894267
234	0xbfef8c8c	-1.8714767
235	0xbf214971	-0.6300269
236	0xbf246fa0	-0.64232826
237	0xbfd46f89	-1.6596538
238	0xbf558e49	-0.83420235
239	0x3fc89bb5	1.5672518
240	0xbef2e4d2	-0.474402
241	0x3f813223	1.0093426
242	0xbf9bce2c	-1.2172294
243	0x3e93eb74	0.28890574
244	0x3fb5b24e	1.4195039
245	0xbe591525	-0.21199472
246	0x3fd8a6b2	1.6925871
247	0x3f8c6132	1.0967162
248	0x3f9cedb8	1.2260046
249	0xbfa58971	-1.2932569
250	0x3f47d675	0.7806161
251	0xbfd073e0	-1.6285362
252	0x402e5f95	2.7245839
253	0xbf9cccd8	-1.2250013
254	0xc0180d50	-2.3758125
255	0x3fa4985a	1.2858994

lstm1.bias_ih_l0 f4 [40]
0	0xbf467591	-0.7752314
1	0x3f630bae	0.88689697
2	0xbfbd3ce6	-1.478421
3	0xbd1912d5	-0.037371475
4	0xbf89ce6f	-1.0766124
5	0x3e431310	0.1905024
6	0x3fd9637c	1.6983485
7	0xbf04624c	-0.5171249
8	0x3ea4a18d	0.32154503
9	0x3f8458f7	1.033965
10	0xbf3ac774	-0.7296059
11	0xbee1587e	-0.44012827
12	0xbe68347e	-0.22676274
13	0xbf96e68b	-1.1789106
14	0x3f4d0f85	0.80101806
15	0x3e859050	0.26086664
16	0x404141b6	3.0196357
17	0xbf27685f	-0.6539363
18	0x3ef41b77	0.47677204
19	0x3db4fb95	0.08837048
20	0x3fa064d3	1.2530769
21	0xbda813f0	-0.08206928
22	0x3dd773cb	0.10520133
23	0x3d91e0c2	0.07122947
24	0xbfd7e052	-1.6865332
25	0x3f1aab8c	0.6041801
26	0xbf5c5dae	-0.86080444
27	0xbf61b7bf	-0.88171
28	0xbfb2a08f	-1.3955249
29	0x3fcc0f84	1.5942235
30	0xbd470db2	-0.048597045
31	0xbf859b37	-1.0437993
32	0x3dcd6f54	0.10031
33	0xbf93492e	-1.1506708
34	0x3e47abe8	0.19499171
35	0xbfe6ceac	-1.8031821
36	0xbf144637	-0.5791964
37	0xbeb23a92	-0.3481031
38	0x3ff42ee5	1.9076811
39	0x3fabd3d8	1.3424025

lstm1.bias_hh_l0 f4 [40]
0	0xbf0ef825	-0.5584739
1	0x3f99e5d6	1.2023265
2	0xbf757080	-0.95874786
3	0x3e1ab4ac	0.15107983
4	0xbf889855	-1.0671488
5	0x3ec10403	0.37698373
6	0x3fa27645	1.2692343
7	0xbea1c639	-0.31596544
8	0x3f06ae2d	0.5260952
9	0x3f5f56ec	0.8724201
10	0xbf4aaf33	-0.7917358
11	0xbf3b6238	-0.73196745
12	0xbe045b52	-0.12925461
13	0xbfa30aa7	-1.2737626
14	0x3fa365ba	1.276542
15	0xbcc0a2f5	-0.023515204
16	0x4034670c	2.8187895
17	0xbef60c8a	-0.48056442
18	0x3e4085d5	0.18801053
19	0x3e132ee8	0.14373362
20	0x3fa4c299	1.2871886
21	0xbf0662ee	-0.52494705
22	0x3eb0c110	0.34522295
23	0x3e6300e3	0.22168307
24	0xbfea50b6	-1.8305881
25	0x3ec02d84	0.37534726
26	0xbf042b48	-0.5162854
27	0xbf538d29	-0.8263727
28	0xbf91fa96	-1.1404598
29	0x3fd77215	1.683169
30	0xbed723a6	-0.42019385
31	0xbf828592	-1.0197012
32	0xbebdd1c3	-0.37074098
33	0xbf8720f1	-1.0556928
34	0xbeb8838c	-0.36037862
35	0xbfe396c8	-1.778039
36	0xbf855c83	-1.0418857
37	0xbe96f5a5	-0.29484287
38	0x3fb09638	1.3795843
39	0x3f9eaaa4	1.2395825

fc1.weight f4 [2, 10]
0	0xbe81fa18	-0.2538612
1	0xbf108a57	-0.5646109
2	0x3f7a910b	0.9787757
3	0x3fc95f17	1.5732144
4	0xbf5263e4	-0.8218367
5	0x3e5be2bf	0.21473216
6	0xbd7ba6f4	-0.061438516
7	0xbf5e05b0	-0.8672743
8	0xbe636829	-0.22207703
9	0x3f3a8578	0.7285991
10	0x3f01d2a1	0.5071202
11	0x3f01ff47	0.5078015
12	0xbf1ff2dd	-0.62479955
13	0xbfce51a2	-1.6118662
14	0x3ed490bc	0.41516674
15	0xbf388b19	-0.72087246
16	0x3efdf227	0.4959881
17	0x3f779511	0.9671183
18	0x3ef884b7	0.48538753
19	0xbe9c7953	-0.30561313

fc1.bias f4 [2]
0	0x3e7d38dd	0.24728723
1	0x3e1be46e	0.15223858

lstm2.weight_ih_l0 f4 [200, 128]
0	0xbe8805ae	-0.26566833
1	0xbeb500e8	-0.35352254
2	0x3ddb095e	0.10695146
3	0xbe874bdd	-0.26425067
4	0xbe92ffd7	-0.28710815
5	0x3ea87c06	0.32907122
6	0x3ddd87f5	0.10816947
7	0xbe445c3a	-0.19175807
8	0xbed616b2	-0.4181419
9	0xbfef809d	-1.8711125
10	0xbfa4bf1d	-1.2870823
11	0xbf182adf	-0.59440416
12	0xbee5effe	-0.44909662
13	0x3eb8b7c9	0.36077717
14	0xbf1ed7f7	-0.62048286
15	0xbf3051ef	-0.6887502
16	0xbde02b84	-0.109458
17	0xbf63548a	-0.8880087
18	0xbefa20f9	-0.4885328
19	0xbf1d44b9	-0.6143299
20	0xbe9235a0	-0.28556538
21	0x3eb1119c	0.34583747
22	0x3fb4bf5e	1.4120901
23	0x3fc35cf5	1.5262743
24	0x3f524b69	0.82146317
25	0x3fa06e43	1.2533649
26	0x3f78d395	0.9719785
27	0x3f9e55ad	1.2369896
28	0x3f5e012a	0.86720526
29	0x3f78010e	0.9687661
30	0x3eb0f5e5	0.34562603
31	0x3dc4b6b5	0.09605161
32	0x3c6432d7	0.013928137
33	0xbdff0a11	-0.12453092
34	0xbf53f7aa	-0.8279978
35	0xbe45d58f	-0.19319747
36	0xbeb7d4c4	-0.35904515
37	0xbead45be	-0.33842272
38	0xbea6e686	-0.3259775
39	0xbed2995f	-0.41132638
40	0xbee4e579	-0.44706324
41	0x3f81ba8c	1.0135055
42	0x3f3787a2	0.71691334
43	0x3f9725b9	1.1808387
44	0x3f36ebfc	0.71453834
45	0x3f45dec5	0.77293044
46	0x3fbc3f4c	1.4706817
47	0x3f625882	0.884163
48	0x3f9bd42d	1.2174126
49	0x3f7e51ad	0.9934338
50	0x3f3a1a94	0.72696805
51	0xbebe3778	-0.37151694
52	0x3e8dcab5	0.27693716
53	0xbe171c3f	-0.14756869
54	0xbf1843de	-0.5947856
55	0xbf66c9ae	-0.9015149
56	0x3e5579d2	0.20847252
57	0xbe9fb59a	-0.31193238
58	0xbd8d30c2	-0.068940654
59	0x3f57b347	0.8425793
60	0x3f6b7a7a	0.9198376
61	0x3f84a031	1.0361387
62	0x3f16a7f8	0.5885005
63	0x3fafb318	1.372653
64	0x3fb6d035	1.428229
65	0x3f826a96	1.0188777
66	0x3f760e65	0.96115714
67	0x3f7c1699	0.9847198
68	0x3f685a17	0.90762466
69	0x3e8bca20	0.27302647
70	0x3f4d7939	0.80263096
71	0x3f84dbde	1.0379598
72	0x3f9523e3	1.1651577
73	0x3f39f0ee	0.72633255
74	0x3e908cee	0.2823252
75	0x3fa0c86a	1.2561162
76	0x3fd216de	1.6413229
77	0x3feef413	1.8668236
78	0x3f9f7a7f	1.2459258
79	0x3f600d94	0.8752072
80	0x3f03ddd2	0.51510346
81	0x3f4bc7c9	0.7960172
82	0x3f9f6ef9	1.2455741
83	0x3fbc8d09	1.473054
84	0x3f81fb3a	1.0154793
85	0x3f267650	0.6502428
86	0x3fc24b82	1.5179293
87	0x3f7038b1	0.93836504
88	0x3f10ec1f	0.5661029
89	0x3e35fbe1	0.17771865
90	0xbde3d90a	-0.11125381
91	0xbf33ebc0	-0.702816
92	0xbf412493	-0.7544643
93	0xbf2b4e9f	-0.6691684
94	0xbecc8032	-0.39941555
95	0xbd0138c6	-0.031548284
96	0x3e15bf57	0.14623772
97	0xbf3e963e	-0.74448
98	0xbf3768f6	-0.7164453
99	0xbf23e5cb	-0.6402251
100	0xbecd4899	-0.4009445
101	0xb9baa79d	-0.00035601566
102	0x3fc4088d	1.531511
103	0x3fddf492	1.7340262
104	0x3fabb14d	1.3413483
105	0x3f1e043c	0.6172521
106	0x3f237e29	0.6386438
107	0x3e977a1e	0.29585356
108	0x3f3cff57	0.7382712
109	0x3e2492ee	0.16071674
110	0xbe10e6b7	-0.1415051
111	0xbdeaf1ad	-0.11471877
112	0xbe83d99a	-0.25751954
113	0xbd127dbe	-0.03576445
114	0xbd24d243	-0.040239584
115	0xbd76a590	-0.060216486
116	0x3f00671b	0.50157326
117	0x3ee1fbc1	0.44137385
118	0x3f1dcb2a	0.6163813
119	0x3f1a307b	0.60230225
120	0x3f2af0cf	0.66773695
121	0x3f4ba508	0.7954869
122	0x3f7bfe30	0.98434734
123	0x3fdcfee8	1.7265291
124	0x3fefa92f	1.8723506
125	0x3faaf050	1.3354588
126	0x3fe33979	1.7751914
127	0x3fac814f	1.3476962
128	0x3fefe45b	1.8741564
129	0x3fac41ee	1.345762
130	0x3f2e9252	0.6819202
131	0x400efb2b	2.23408
132	0x3fb689a9	1.426076
133	0x3fb4325b	1.4077867
134	0x3fb2e6a1	1.3976632
135	0x3fffc6ac	1.9982505
136	0x4040b581	3.0110781
137	0x401a58d8	2.4116726
138	0x3f401a2c	0.75039935
139	0x3f9be100	1.217804
140	0x3f3c98bd	0.7367056
141	0x3f4bceee	0.79612625
142	0x3fd7f459	1.6871444
143	0x3f8ffd0a	1.1249096
144	0x3ffac0c5	1.9590079
145	0x401bf96d	2.4370987
146	0x3fbbdf3d	1.4677502
147	0x3f4e930b	0.8069312
148	0x3f28de23	0.65963954
149	0x3f6b77db	0.9197976
150	0x3ec79073	0.38977394
151	0x3f920d30	1.1410275
152	0x3fefc6b2	1.8732512
153	0x3fb6d899	1.428485
154	0x3f88300e	1.0639665
155	0xbef65be0	-0.4811697
156	0xbe23665a	-0.15957013
157	0xbf1d79be	-0.6151389
158	0x3da5eb8f	0.0810157
159	0xbda2a46f	-0.079415195
160	0xbf5bd918	-0.85878134
161	0xbf8f2556	-1.1183269
162	0x3f140f1e	0.57835567
163	0x3fccd9f5	1.6004015
164	0x3e81f688	0.253834
165	0xbed939a9	-0.42426804
166	0xbebd19eb	-0.36933836
167	0xbd2330f1	-0.039841596
168	0x3df16596	0.11786954
169	0x3f05c403	0.52252215
170	0x3f8f4e66	1.11958
171	0x3f539335	0.82646495
172	0x3f37024a	0.7148787
173	0x3f60ff64	0.87889695
174	0x3f176326	0.59135664
175	0x3e9e75f5	0.3094937
176	0x3e143229	0.1447226
177	0xbe4b00fc	-0.19824594
178	0x3f28ba05	0.65908843
179	0xbe0d0490	-0.13771272
180	0xbdf798f5	-0.12089721
181	0x3e85d11f	0.2613611
182	0x3f4d67e8	0.80236673
183	0xbe9c0d67	-0.30478975
184	0xbe8613a2	-0.26186854
185	0x3f0f18e3	0.5589735
186	0xbec9a290	-0.39381838
187	0x3eb027ff	0.34405515
188	0xbe8ee87d	-0.2791175
189	0x3e8119b3	0.2521492
190	0x3f709359	0.93974835
191	0x3f745129	0.9543634
192	0x3e322ca1	0.17399837
193	0x3f7f7ad8	0.9979682
194	0x3f8e3300	1.1109314
195	0x3f963e63	1.1737789
196	0x3fc14bc1	1.5101243
197	0x3faa634f	1.3311557
198	0x3fd10788	1.6330423
199	0x3f884f30	1.0649166
200	0x3fbca485	1.4737707
201	0x3fc56186	1.5420387
202	0x3fee7670	1.8629894
203	0x3ffb00a4	1.960957
204	0x403e6f38	2.9755383
205	0x4009e24f	2.1544378
206	0x3ff16b78	1.8860922
207	0x3fced42e	1.6158502
208	0x3ff042a6	1.877034
209	0x3f8bd1ca	1.0923398
210	0x3f0bd742	0.5462533
211	0xbeb5b740	-0.3549137
212	0xbe61f3ab	-0.22065608
213	0xbed9049b	-0.42386326
214	0xbe88c379	-0.26711634
215	0x3eacb5a3	0.33732328
216	0xbefb2df0	-0.49058485
217	0xbfca3c24	-1.5799603
218	0xbf51f4ef	-0.82014364
219	0xbe325ee4	-0.1741901
220	0x3cbfee11	0.023428949
221	0xbe3dbde4	-0.18529469
222	0x3f2c121d	0.6721514
223	0x3f3c854a	0.7364088
224	0x3ede2d58	0.4339397
225	0x3e9f9808	0.31170678
226	0x3ee308b1	0.4434257
227	0xbd6d778c	-0.057975337
228	0xbca74f3b	-0.020423522
229	0xbf42f9d7	-0.76162475
230	0xbf46493f	-0.77455515
231	0xbebcaed4	-0.36852133
232	0xbe4f46dd	-0.20241876
233	0x3f27aa6b	0.6549441
234	0x3f9af7db	1.210689
235	0x3f77db85	0.96819335
236	0x3f565a8f	0.8373193
237	0x3f9b54ca	1.213525
238	0x3fddfaa9	1.734212
239	0x3fffad5d	1.9974781
240	0x3fc23893	1.5173515
241	0x3f6bcdb1	0.92110735
242	0x3f5f5d59	0.8725181
243	0x3f69c505	0.9131625
244	0x3f79fc46	0.97650564
245	0x3f9c3f17	1.2206753
246	0x3f1a99df	0.6039104
247	0x3f2c8f84	0.6740649
248	0x3f4fca12	0.8116771
249	0x3f7626ec	0.9615314
250	0x3f618192	0.88088334
251	0x3f6a78e8	0.9159074
252	0x3f8258f6	1.0183399
253	0x3fc89ceb	1.5672888
254	0x3fb6d734	1.4284425
255	0x3f948497	1.1602963

lstm2.weight_hh_l0 f4 [200, 50]
0	0xbf929836	-1.1452701
1	0xbfefd408	-1.8736582
2	0xbf1fa60b	-0.62362736
3	0x3f8b8d6c	1.0902534
4	0x3f443f7d	0.76659375
5	0xbf63d1d7	-0.88992065
6	0x3fd069bf	1.6282271
7	0x3fc10670	1.508009
8	0xbfb781e9	-1.433652
9	0x3ff3a930	1.9036007
10	0x3fff3828	1.9939013
11	0xc0356f6f	-2.8349264
12	0xbe930a66	-0.2871887
13	0xbeb6a6f2	-0.35674244
14	0xbfba2c48	-1.4544764
15	0x3fa36b01	1.276703
16	0x3ecbf9f5	0.3983914
17	0x3dddcd98	0.108302295
18	0x3edeb6c4	0.43498814
19	0x3f9edf33	1.2411865
20	0x3f5423ab	0.82866925
21	0x40169133	2.3526123
22	0x3ee63832	0.4496475
23	0xbfcdf467	-1.6090211
24	0xbf56c9d7	-0.83901733
25	0xbebe9fe3	-0.3723136
26	0xbeb72951	-0.3577371
27	0x3f72fe89	0.9491964
28	0x3fb80a52	1.437815
29	0x402578b7	2.5854928
30	0xbf10ac53	-0.56512946
31	0xbf535fcc	-0.8256805
32	0x3e58d7b4	0.21176034
33	0x3f3b3158	0.7312217
34	0x3fa1fce9	1.2655307
35	0xbf906f7e	-1.1284025
36	0xbfc26c0b	-1.5189222
37	0xbf4568b7	-0.7711291
38	0x3faaf496	1.3355892
39	0x3f5c5b71	0.8607703
40	0xc0161a23	-2.3453453
41	0xbe8c4f71	-0.2740436
42	0x3de25a01	0.11052323
43	0xbe91e095	-0.28491655
44	0x3f470586	0.77742803
45	0x407b5360	3.9269638
46	0xbd8359fe	-0.06413649
47	0xbf88f0de	-1.0698507
48	0x3df6788f	0.120347135
49	0xbed0b895	-0.40765825
50	0x3e67025d	0.22559495
51	0xbec6426c	-0.3872255
52	0xbf8c5b7d	-1.096542
53	0xbf4f4b71	-0.8097449
54	0xbf90d112	-1.1313803
55	0xbe84bf33	-0.25927123
56	0xc004e308	-2.076357
57	0xc0200895	-2.5005238
58	0xbfd057cf	-1.6276797
59	0x3ca8a61a	0.020587016
60	0xbfe09e0d	-1.7548233
61	0x3fa714d8	1.3053236
62	0x3dfa8e96	0.12234227
63	0x40093bd4	2.1442766
64	0xbf26d9df	-0.65176195
65	0xc08e3820	-4.444351
66	0x40118bdb	2.274161
67	0x3f952e96	1.1654842
68	0xbfdf8500	-1.7462463
69	0xbd920d36	-0.07131426
70	0xbfb9c058	-1.4511824
71	0xbe3e9271	-0.1861055
72	0xc04f0165	-3.23446
73	0xc0157e25	-2.3358243
74	0xbf9e2d2e	-1.2357538
75	0x3d0b698a	0.034036197
76	0xbfcb3976	-1.5876911
77	0xbf2feab0	-0.6871748
78	0x3fee41d1	1.8613836
79	0x3f1c6515	0.6109174
80	0x4024bf8e	2.5741916
81	0x3f9708d9	1.1799575
82	0xbdd31aa3	-0.10307815
83	0xbf1a22e4	-0.6020949
84	0xbf97ac48	-1.1849451
85	0xc05bcb17	-3.4342706
86	0x405c142c	3.4387312
87	0xbec55839	-0.3854387
88	0xbf68948c	-0.90851665
89	0x40309fb5	2.7597477
90	0x3fcc4a20	1.5960121
91	0x40670909	3.6099265
92	0x3ebc14d5	0.36734644
93	0x40151a45	2.3297284
94	0xbf6188e4	-0.88099504
95	0xbf7ea5de	-0.99471843
96	0x3f351928	0.7074151
97	0x3d570491	0.05249459
98	0xbfa2473d	-1.267799
99	0x3f094f93	0.53637046
100	0x3fe5bff6	1.7949207
101	0xbfa21e8a	-1.266557
102	0x401d087e	2.4536433
103	0xbf21a66f	-0.6314458
104	0xbf50a8a7	-0.81507343
105	0x3eb3af79	0.35094813
106	0x3f607396	0.8767637
107	0xbf843ae3	-1.0330471
108	0xbfee3946	-1.8611228
109	0xbf961317	-1.1724576
110	0xbf2ada3c	-0.6673925
111	0xbf9b5b48	-1.2137232
112	0x3eb48e28	0.35264707
113	0xbdb62851	-0.088944085
114	0x3f957210	1.1675434
115	0x3e7d3d29	0.24730362
116	0x3e208603	0.15676121
117	0x3ef5a47c	0.47977054
118	0xbf534ac7	-0.82535976
119	0x3e8c96d8	0.27458835
120	0xbb96b702	-0.004599453
121	0x3f075fd5	0.52880603
122	0xbfc5971a	-1.5436738
123	0xbe55a81a	-0.20864907
124	0xbe041a61	-0.12900688
125	0x3f824df7	1.0180043
126	0x405aa031	3.4160273
127	0xbe786c15	-0.2425998
128	0xbe03442a	-0.12818971
129	0xbfb6b161	-1.4272882
130	0x3d5fd15e	0.054643027
131	0xbfcecdde	-1.6156576
132	0x3f13f796	0.5779966
133	0x3df4f170	0.11960113
134	0xbfd6a30a	-1.6768506
135	0x3f667b5e	0.90031993
136	0xbf031013	-0.511964
137	0xc021efd7	-2.5302637
138	0x3e297b6a	0.16550985
139	0xbf1e9361	-0.6194363
140	0xbfebab02	-1.8411562
141	0x3f9f6590	1.245287
142	0xbf4d55a8	-0.80208826
143	0x3ddbccf9	0.10732455
144	0xbfa744c4	-1.3067861
145	0xbde1f43c	-0.11032912
146	0xbf56356e	-0.8367528
147	0x3fce9bd4	1.6141305
148	0xbf211056	-0.6291555
149	0x3f56fe23	0.8398153
150	0x3e8a5d08	0.27024102
151	0xbf813e65	-1.0097166
152	0xc0477b0e	-3.1168857
153	0x405a2614	3.408574
154	0x3ee0f067	0.43933412
155	0x3f157ad6	0.5839056
156	0x400a5ee8	2.1620426
157	0xc07ab50b	-3.9173
158	0xbfade842	-1.3586504
159	0xbfe7fffa	-1.8124993
160	0xbf934b1c	-1.1507297
161	0x40168b41	2.3522494
162	0xbfc1fdd0	-1.5155582
163	0xbf873ae2	-1.0564845
164	0xbf35c09c	-0.70997024
165	0xc024b824	-2.573739
166	0xbecc116d	-0.39857045
167	0xbea5b6e0	-0.32366085
168	0xbff1a230	-1.8877621
169	0xbea51cc7	-0.32248518
170	0x3f97f803	1.1872562
171	0xbd7ee020	-0.06222546
172	0xbf82ff55	-1.0234171
173	0xbddfc4b5	-0.10926191
174	0x3f301886	0.6878742
175	0xbfc95c59	-1.5731307
176	0xbf8d86b2	-1.1056731
177	0xbf1bcfaa	-0.60863745
178	0x401ccbd6	2.4499412
179	0xbe948b13	-0.29012355
180	0xc013a517	-2.3069513
181	0x3f82494a	1.0178616
182	0xbf3cb6ed	-0.7371662
183	0xc00bc5bb	-2.1839435
184	0xbfd016b7	-1.6256932
185	0xbff09cfd	-1.8797909
186	0x3ee2a863	0.44269094
187	0x3e415d82	0.18883327
188	0xbe69e1a2	-0.22839978
189	0x4038437b	2.8791187
190	0x408e4582	4.445985
191	0x3f85e549	1.0460597
192	0x3f59485e	0.8487605
193	0x3ee7ee56	0.45299023
194	0xbf829b10	-1.0203571
195	0xbfbfed76	-1.4994342
196	0x3ef21e0a	0.47288543
197	0xbfd8fb9e	-1.6951787
198	0xbe1301bb	-0.14356129
199	0x4027a51a	2.619452
200	0x3f710862	0.94153416
201	0x3d94a69f	0.07258343
202	0x3fb7fda6	1.4374282
203	0x3f8903c4	1.0704274
204	0x40471b98	3.1110592
205	0xbed22219	-0.4104164
206	0x3f4c671a	0.7984482
207	0xbf900a39	-1.125312
208	0xc018164f	-2.3763616
209	0xbe6bffde	-0.23046824
210	0xbf0734fa	-0.5281521
211	0x3f1cf642	0.6131326
212	0xbee62252	-0.4494806
213	0xbeb3dec1	-0.35130885
214	0x3fe1d5a3	1.7643322
215	0xbea31f7d	-0.3185996
216	0x401bb9d7	2.4332178
217	0x3ff53163	1.9155697
218	0xbfcc14b3	-1.5943817
219	0xbf7ca233	-0.98684996
220	0x3f17e2c2	0.5933038
221	0xbffc8806	-1.9729011
222	0xbf1cf766	-0.61315
223	0xbf335a14	-0.70059323
224	0x3e96e4c0	0.29471397
225	0x3f890ea9	1.0707599
226	0xbdf7eb68	-0.12105447
227	0xc04e0313	-3.2189376
228	0x3ef9497f	0.48688886
229	0x3d15e8a1	0.036598805
230	0x406643e9	3.597895
231	0x402e91f1	2.7276576
232	0x3efc47c4	0.49273503
233	0xbf9f4380	-1.2442474
234	0x3dac1986	0.08403306
235	0xbeac06d9	-0.33598974
236	0x3fa32cac	1.2748008
237	0xc065bf31	-3.5897944
238	0xbfdc18c4	-1.7195058
239	0x3e65f558	0.22456872
240	0x3fbbe259	1.4678451
241	0x3f9d64f4	1.2296433
242	0xbf56b438	-0.8386874
243	0xbfb8e7cc	-1.4445739
244	0x4005d00a	2.0908227
245	0xbebf765c	-0.3739499
246	0x3f0a1561	0.5393887
247	0x3fe06079	1.7529441
248	0x3fea2ea4	1.8295484
249	0x3ff14309	1.8848583
250	0x3ffb7e01	1.9647828
251	0xbe799276	-0.24372277
252	0xbf2efe1a	-0.6835648
253	0x3f349646	0.705418
254	0xbea02648	-0.31279206
255	0x4015a781	2.3383486

lstm2.bias_ih_l0 f4 [200]
0	0xbf93c426	-1.1544235
1	0xbe58d93b	-0.21176617
2	0x3f08b022	0.5339376
3	0xbf9c4cf7	-1.2210988
4	0xbf527895	-0.82215244
5	0x3f548690	0.83017826
6	0x3edd2668	0.43193364
7	0x401e3747	2.4721239
8	0x3e53e36b	0.20692222
9	0xbf96d3da	-1.1783402
10	0x3f37aeae	0.71750915
11	0xbf224d2b	-0.63399
12	0x3e800e04	0.25010693
13	0x401eeb6c	2.483119
14	0x400d6d9f	2.2098157
15	0x3e0fdf54	0.14050037
16	0x3e2ccfad	0.16876097
17	0x3fb42b47	1.4075707
18	0x3f91960d	1.1373917
19	0x3fecfe25	1.8515059
20	0xc01a16aa	-2.4076333
21	0xbf980527	-1.1876572
22	0xbf79af5f	-0.9753322
23	0x3f2c7b89	0.67376
24	0x3f5f8b87	0.87322277
25	0x3d886bb2	0.06661166
26	0xbb85be1f	-0.004081502
27	0xbfb6453e	-1.4239881
28	0xc0052a59	-2.0807097
29	0xbe159e39	-0.14611138
30	0xbf2e3f14	-0.68065
31	0x3f9ae899	1.2102233
32	0x3f06e1a3	0.52688044
33	0x3f580c82	0.84394085
34	0xbf445248	-0.7668805
35	0xbf308269	-0.6894899
36	0x3ee85fbd	0.45385543
37	0x3fa4f92f	1.2888545
38	0xbe99cc8a	-0.30038863
39	0x3fec0b66	1.8440979
40	0xbe91d333	-0.28481445
41	0xbf4a836f	-0.791068
42	0xbf9fd989	-1.2488261
43	0x3d162cb3	0.036663722
44	0x3f717f53	0.94334906
45	0x3f98e9b7	1.1946324
46	0xbe16db12	-0.14732006
47	0x3f9be43b	1.2179025
48	0xbed104ab	-0.40823874
49	0x3f6e4f32	0.9308959
50	0xbf0b1de0	-0.5434246
51	0xbf4f99a1	-0.81093794
52	0xc014181a	-2.313971
53	0x3ee3ee51	0.44517758
54	0x3ed5cc82	0.4175759
55	0x40055896	2.0835319
56	0x3ed26053	0.41089115
57	0x3ecc4fce	0.39904636
58	0xbd17cccd	-0.037060548
59	0x3c9e755e	0.019343074
60	0xc01aca96	-2.4186149
61	0xbeb49e42	-0.3527699
62	0xbe4f39d2	-0.202369
63	0x3ec8f028	0.39245725
64	0x403086f5	2.7582371
65	0x3e24878a	0.16067329
66	0xbf9c622d	-1.2217461
67	0xbeedf375	-0.46474805
68	0xbd1753ae	-0.036945038
69	0xbe9a696c	-0.30158556
70	0x3e5a3589	0.21309485
71	0xbeb1a046	-0.3469259
72	0x3f89bfe5	1.0761687
73	0xbfb72355	-1.4307657
74	0x3f05b343	0.52226657
75	0xbe87e52d	-0.26542035
76	0x3e20f3b9	0.15717973
77	0xbf096651	-0.5367175
78	0x3eed49ab	0.46345267
79	0xbdb8ea3f	-0.09029054
80	0x3eefa787	0.468075
81	0xbf689d36	-0.90864885
82	0xbe95b4d5	-0.29239526
83	0xbd8ff1a4	-0.07028511
84	0xbfd7e8f3	-1.6867965
85	0x3f97e302	1.1866152
86	0xbf3476e0	-0.7049389
87	0xbe257086	-0.16156206
88	0xbf032955	-0.5123494
89	0x3edfe328	0.43727994
90	0x3fa8aacc	1.3177123
91	0xbed3c34f	-0.41359946
92	0x3feb0e29	1.8363696
93	0x3f68afbe	0.9089316
94	0xbbaf1969	-0.0053436053
95	0xbf02372c	-0.50865436
96	0xbfaa450a	-1.3302319
97	0x3f20f4f7	0.62873787
98	0x3f2c2a94	0.6725247
99	0x3e3b36c6	0.18282613
100	0xbebf9ff3	-0.3742672
101	0x4005ba7d	2.0895073
102	0xbf355cf0	-0.70844936
103	0xbf767aa4	-0.96280885
104	0xc007fbb1	-2.124737
105	0xbca98635	-0.020693878
106	0x3fa1f043	1.2651447
107	0xc009f149	-2.1553519
108	0xbde59380	-0.11209774
109	0x3e78a637	0.24282156
110	0x3d535697	0.05159625
111	0x4028114f	2.6260564
112	0xbf5a41fa	-0.8525692
113	0xbdc9a96f	-0.0984677
114	0xbfdbe7de	-1.7180135
115	0xbe7164db	-0.2357363
116	0xbefe80b1	-0.4970756
117	0x3fb1cbd3	1.3890327
118	0x3f049921	0.51796156
119	0x3fdc1ac8	1.7195673
120	0x3f461d9c	0.7738893
121	0xbfd8720e	-1.6909807
122	0xbfafcad1	-1.373377
123	0xbfae0b08	-1.3597116
124	0xbbaf38a0	-0.0053473264
125	0xbf9f5a00	-1.2449341
126	0x3fa0050b	1.2501539
127	0xbf1934fa	-0.5984646
128	0x3faa8f7f	1.3325042
129	0xbe039b9c	-0.12852329
130	0x3ec81ef6	0.3908612
131	0x4019f333	2.4054687
132	0xbe4dc483	-0.20094495
133	0xbfa73a3c	-1.3064647
134	0xbed3eb70	-0.41390562
135	0xbe061b5b	-0.13096373
136	0x3f93301f	1.149906
137	0x3e972eaa	0.2952779
138	0xbfd6abf3	-1.6771225
139	0xbfa064c9	-1.2530757
140	0xbd224043	-0.039612066
141	0x400807a9	2.1254675
142	0x3fa59c5e	1.2938344
143	0x40350015	2.82813
144	0x3fa9523f	1.3228225
145	0x3e8f0d83	0.27939996
146	0xbf3ae3ab	-0.73003644
147	0xbe7b4c6f	-0.24540876
148	0xbfa87096	-1.3159359
149	0x3c8499d0	0.016186625
150	0xbf3126da	-0.6919991
151	0xbfe947de	-1.8225057
152	0xbfa875e9	-1.3160983
153	0xbf56f69e	-0.8397006
154	0xbfa7b2e7	-1.3101472
155	0xbf1efdf0	-0.6210623
156	0xbfb7b909	-1.4353343
157	0xbf2a446b	-0.6651065
158	0x3eb323fb	0.34988388
159	0xbf2cb0bc	-0.67457175
160	0xbf3ab72b	-0.7293574
161	0xc004eb80	-2.0768738
162	0xbf648c46	-0.8927654
163	0xbffb55fd	-1.9635617
164	0xbf079a3c	-0.5296972
165	0x3e32b689	0.17452444
166	0xbfd562a3	-1.6670727
167	0xc0213ed9	-2.519461
168	0xbfac5cb7	-1.3465794
169	0x3f96c8ac	1.177999
170	0xbee16621	-0.4402323
171	0xbf23e803	-0.64025897
172	0xbfac42b8	-1.3457861
173	0x3ebe2d25	0.37143818
174	0xc0176e2b	-2.366099
175	0xbf8ab1d9	-1.0835525
176	0x3f31f43c	0.695133
177	0x400465d7	2.0687158
178	0xbf993f22	-1.1972392
179	0x3f9dda03	1.2332157
180	0x3ea64061	0.32470992
181	0xbf2e4309	-0.6807104
182	0x4009aad7	2.1510522
183	0x3ec004bf	0.3750362
184	0x3feab2d6	1.8335826
185	0xbdce660d	-0.100780584
186	0x3eaa5a02	0.33271796
187	0xbf6f9b01	-0.9359589
188	0xc01ab8fe	-2.417541
189	0x40089b57	2.1344812
190	0x4043e4aa	3.0608315
191	0xbf947533	-1.1598266
192	0xbfdccdc1	-1.7250291
193	0x3f597c92	0.84955704
194	0x3ed13c0b	0.40866122
195	0xbfdaffbf	-1.7109298
196	0xbf80cc08	-1.0062265
197	0xbffc2d60	-1.9701347
198	0xbf6bc73e	-0.92100894
199	0x3f326eb5	0.69700176

lstm2.bias_hh_l0 f4 [200]
0	0xbf8d47b2	-1.1037505
1	0xbebbf1c8	-0.36707902
2	0x3f2c1698	0.67221975
3	0xbfa964e8	-1.3233919
4	0xbf6f1d43	-0.93404025
5	0x3f52e714	0.8238385
6	0x3ef2c60c	0.47416723
7	0x40122b7a	2.2839036
8	0x3e27d7ee	0.16390964
9	0xbf97e251	-1.1865941
10	0x3f1cae5d	0.6120356
11	0xbf425e36	-0.75925004
12	0x3ecf4711	0.40483907
13	0x401944bc	2.3948202
14	0x4014da59	2.325827
15	0x3d419382	0.047259815
16	0x3eb30948	0.3496802
17	0x3faa7624	1.3317304
18	0x3f9663d5	1.1749216
19	0x3ff6f1ac	1.9292502
20	0xc01e0c1d	-2.4694893
21	0xbfa3644b	-1.2764982
22	0xbf4aaabe	-0.7916678
23	0x3eed7bf6	0.46383637
24	0x3f85e9c7	1.0461968
25	0xbd0873af	-0.03331345
26	0xbd27a225	-0.040926117
27	0xbfbb79dd	-1.4646565
28	0xc00dba94	-2.2145128
29	0x3d042577	0.03226229
30	0xbf67c908	-0.90541124
31	0x3fa0417a	1.2519982
32	0x3f155794	0.5833676
33	0x3f699cde	0.91254985
34	0xbf68e268	-0.9097047
35	0xbf37f14c	-0.71852565
36	0x3f0a4899	0.54017025
37	0x3f8d3f4f	1.1034945
38	0xbd7e8fbf	-0.062148806
39	0x3fe8fd33	1.820227
40	0xbea8eb85	-0.32992187
41	0xbf6faa36	-0.93619096
42	0xbfa9360c	-1.3219619
43	0xbd8d5427	-0.069008164
44	0x3f428208	0.7597966
45	0x3fa0675d	1.2531544
46	0xbe444276	-0.19165978
47	0x3fa2457e	1.2677457
48	0xbeea043e	-0.45706362
49	0x3f38687d	0.72034436
50	0xbf11a96e	-0.56899154
51	0xbf54816a	-0.8300997
52	0xc00ece61	-2.2313464
53	0x3f13af54	0.57689404
54	0x3eb5ef69	0.35534218
55	0x40129219	2.290167
56	0x3ef78c79	0.4834936
57	0x3ec624d8	0.38699985
58	0x3e4fd912	0.2029765
59	0x3e25b18e	0.16181013
60	0xc01f448b	-2.4885585
61	0xbe0c5281	-0.13703348
62	0xbe8a240c	-0.26980627
63	0x3f0bf989	0.54677635
64	0x403713d1	2.8605845
65	0x3e9580b4	0.29199755
66	0xbf90172b	-1.125707
67	0xbf23bd17	-0.63960403
68	0xbe1405e9	-0.1445538
69	0xbeb261bd	-0.34840193
70	0x3e9524c7	0.2912962
71	0xbe4cdb57	-0.20005547
72	0x3f82c786	1.021714
73	0xbfa1f87b	-1.2653955
74	0x3ecfcc7d	0.405857
75	0xbe9eb3e5	-0.30996624
76	0x3e38f3f4	0.1806181
77	0xbf113756	-0.5672506
78	0x3e828b4e	0.25496906
79	0xbde8e464	-0.11371687
80	0x3f28d771	0.6595374
81	0xbf847baf	-1.0350245
82	0xbebde8a9	-0.37091568
83	0xbe37dfad	-0.1795642
84	0xbfcda186	-1.6064918
85	0x3f9740a6	1.1816604
86	0xbf64f66c	-0.8943851
87	0xbe9aaacb	-0.3020843
88	0xbee4ecc0	-0.44711876
89	0x3f0a3db3	0.54000396
90	0x3fa170d2	1.2612555
91	0xbf07ea71	-0.53092104
92	0x3fdf531a	1.7447236
93	0x3f275686	0.653664
94	0xbb817baa	-0.0039515095
95	0xbf0d0f38	-0.55101347
96	0xbfabe7ea	-1.343015
97	0x3edc92b3	0.43080673
98	0x3f35f6d2	0.7107974
99	0x3e9b31bb	0.3031138
100	0xbeaf3dc9	-0.34226826
101	0x40119af9	2.2750838
102	0xbf0d0967	-0.5509247
103	0xbf88b32a	-1.0679677
104	0xc0102a67	-2.252588
105	0xbe41b5f7	-0.1891707
106	0x3f960ec5	1.1723257
107	0xbffe6740	-1.9875259
108	0xbe2c3804	-0.16818243
109	0x3e4f71ca	0.20258251
110	0x3e4452c9	0.19172205
111	0x401a708a	2.4131188
112	0xbf21bf0a	-0.6318213
113	0xbd91e501	-0.07123757
114	0xbfda7273	-1.7066177
115	0xbebcb666	-0.3685791
116	0xbeec2a34	-0.46125948
117	0x3f9a37d5	1.2048289
118	0x3f067cb3	0.52534026
119	0x3fcd8dfc	1.6058955
120	0x3f16d876	0.58924043
121	0xbfd9702c	-1.6987357
122	0xbf92f874	-1.1482072
123	0xbfa3dbda	-1.2801468
124	0xbe090307	-0.13380061
125	0xbfb17d60	-1.3866386
126	0x3f8412a7	1.0318192
127	0xbf36ca8e	-0.71402824
128	0x3fbb4eb6	1.4633396
129	0xbe350c1c	-0.176804
130	0x3eb52dbb	0.35386452
131	0x401a1b43	2.407914
132	0xbe1f0bfe	-0.15531918
133	0xbfaacc2b	-1.3343557
134	0xbf26dba6	-0.65178907
135	0xbe3f35a0	-0.186728
136	0x3f97eb4e	1.1868684
137	0x3e02c0b0	0.12768817
138	0xbfd3bf0d	-1.6542679
139	0xbfa86b7e	-1.3157804
140	0xbe02db68	-0.1277901
141	0x400664d7	2.0999048
142	0x3fbb47d7	1.4631299
143	0x4027755b	2.6165378
144	0x3fa3530c	1.2759719
145	0x3eb83e7d	0.35985175
146	0xbf48e0c1	-0.7846795
147	0xbe9da1f8	-0.30787635
148	0xbf95acfe	-1.1693418
149	0x3e03edd5	0.12883694
150	0xbf5c1e8d	-0.85984117
151	0xc002b587	-2.0423295
152	0xbfb972ce	-1.4488161
153	0xbf6885ad	-0.90828973
154	0xbfb87a70	-1.4412365
155	0xbf17a2de	-0.5923289
156	0xbfcfa93f	-1.6223525
157	0xbf60f03d	-0.87866575
158	0x3ebe663e	0.3718738
159	0xbf162ef6	-0.58665407
160	0xbf5c89e8	-0.8614793
161	0xc00201f6	-2.0313697
162	0xbf82aa00	-1.020813
163	0xc005d95d	-2.0913918
164	0xbf07712e	-0.52907073
165	0x3ec7ae73	0.39000282
166	0xbfc94226	-1.5723312
167	0xc026f241	-2.608536
168	0xbfa57ede	-1.2929342
169	0x3fa74081	1.306656
170	0xbea704c1	-0.32620814
171	0xbf2f90b9	-0.68580204
172	0xbf93c0d4	-1.1543221
173	0x3e6f3bf6	0.23362717
174	0xc01d6fff	-2.4599607
175	0xbfa06613	-1.253115
176	0x3f35b0b5	0.7097276
177	0x3ff95f1c	1.948215
178	0xbf9f7661	-1.2458001
179	0x3facd166	1.3501403
180	0x3e643a03	0.22287755
181	0xbf35b34a	-0.709767
182	0x4004b4fd	2.0735466
183	0x3e917a9a	0.2841385
184	0x3ff818c5	1.9382559
185	0xbe5fcc63	-0.21855311
186	0x3eea5864	0.45770562
187	0xbf39d1ef	-0.7258596
188	0xc021253f	-2.5178983
189	0x40038a81	2.0553286
190	0x4036034f	2.843952
191	0xbfae6850	-1.3625584
192	0xbfde70b9	-1.737815
193	0x3f89b483	1.0758213
194	0x3eda4b2f	0.42635486
195	0xbfe08eeb	-1.7543615
196	0xbf946e74	-1.1596208
197	0xc005f658	-2.0931606
198	0xbf46ea5d	-0.7770136
199	0x3f2c6a3f	0.6734962

fc2.weight f4 [2, 60]
0	0xbe8ce85e	-0.27521032
1	0xbe44e5b0	-0.19228244
2	0x3f0985c4	0.53719735
3	0x3fb3f871	1.4060193
4	0xbeee4fea	-0.46545345
5	0x3ee571cd	0.44813386
6	0xbdd69237	-0.10477107
7	0xbf2b8a18	-0.6700759
8	0xbd782d54	-0.060590103
9	0x3ebf7ca7	0.3739979
10	0x3ff989fa	1.9495232
11	0x3e9c2e98	0.30504298
12	0x3f1675e3	0.5877363
13	0x3ed09732	0.40740353
14	0xbe991a62	-0.2990294
15	0x3ea2fa93	0.31831798
16	0xbe735209	-0.23761763
17	0xbe7c8ccc	-0.24663085
18	0xbe449d1d	-0.19200559
19	0xbf13b2d7	-0.5769476
20	0xbf215459	-0.6301933
21	0x3f4f301d	0.8093279
22	0x3ee62dfd	0.4495696
23	0xbdf2a5aa	-0.11848004
24	0x3ea7dd5b	0.32786068
25	0xbeef993d	-0.467966
26	0x3caae307	0.020860208
27	0xc022a7b6	-2.5414863
28	0xbec70719	-0.38872603
29	0xbf2616c9	-0.6487852
30	0x3f17e029	0.59326416
31	0xbe57dc28	-0.21080077
32	0x3ed3bcb3	0.41354904
33	0xbd86f323	-0.065893434
34	0x3eb3e611	0.35136464
35	0xbd0169f7	-0.031595197
36	0x3eacb267	0.3372986
37	0xbe29a5a3	-0.16567092
38	0x3ede6a54	0.43440497
39	0xbe64c256	-0.22339758
40	0x3eb524a7	0.35379526
41	0x3f42bc36	0.7606844
42	0xbf452787	-0.7701344
43	0x3e3691ef	0.17829107
44	0x3f3d7ff0	0.7402334
45	0xbff0d005	-1.8813483
46	0xbf8786a1	-1.058796
47	0xbd192a42	-0.037393816
48	0xbeadd4ac	-0.33951318
49	0x3f983cc8	1.1893549
50	0x3ec8525c	0.39125335
51	0x3eff8a41	0.49910167
52	0x3d298f67	0.041396525
53	0xbf8555f1	-1.0416852
54	0xbfb3e9dc	-1.4055743
55	0xbdfb70b8	-0.12277359
56	0x4037c82e	2.871593
57	0x3e1fcac4	0.15604693
58	0x3e0b39de	0.13596293
59	0x3ee24e6e	0.44200462
60	0x3e5a7b96	0.21336207
61	0x3e4179f5	0.18894179
62	0xbf0ed280	-0.5578995
63	0xbfa19d4d	-1.2626129
64	0x3ef7b1be	0.48377794
65	0xbee4bddf	-0.4467611
66	0x3dbf4b0f	0.09340488
67	0x3f246953	0.6422321
68	0xbddc91d0	-0.10769999
69	0xbec96ae0	-0.39339352
70	0xc009d0de	-2.1533732
71	0xbec996e7	-0.39372942
72	0xbee880c9	-0.45410755
73	0xbeb70c3b	-0.3575152
74	0x3e24f1bf	0.16107844
75	0xbea038cf	-0.31293342
76	0x3e3d8c2e	0.18510506
77	0x3e448c9e	0.19194266
78	0x3e967a8f	0.2939038
79	0x3f27a3fd	0.654846
80	0x3ed7fd99	0.42185667
81	0xbf58710b	-0.8454749
82	0xbee48f7c	-0.4464072
83	0x3dec3fef	0.11535632
84	0xbebeda18	-0.37275767
85	0x3f02e1b6	0.5112566
86	0x3d21c07d	0.03949021
87	0x4021f30c	2.5304594
88	0x3ec981c8	0.39356828
89	0x3f0cd247	0.5500836
90	0xbf246924	-0.6422293
91	0x3eeb887b	0.46002564
92	0xbed8d678	-0.42351127
93	0x3ca5016b	0.020142278
94	0xbee47e14	-0.4462744
95	0xbe190578	-0.14943492
96	0xbe60a798	-0.21938932
97	0x3e77f73a	0.24215403
98	0xbef31f93	-0.47485027
99	0x3ea67fbe	0.32519335
100	0xbeada508	-0.3391497
101	0xbf5bb756	-0.85826623
102	0x3f37db79	0.71819264
103	0xbe8309d8	-0.25593448
104	0xbf24d190	-0.64382267
105	0x3ff20f6a	1.8910954
106	0x3f725fdf	0.9467754
107	0x3e33bd85	0.17552765
108	0x3eeae0a9	0.45874527
109	0xbf7f8280	-0.998085
110	0xbefb526d	-0.49086323
111	0xbf1f109e	-0.6213473
112	0x3d6927ed	0.05692284
113	0x3f67f183	0.9060289
114	0x3fad0dad	1.3519799
115	0x3e2cb141	0.16864492
116	0xc046424d	-3.0977967
117	0xbe3eb84b	-0.1862499
118	0xbd19fdce	-0.037595563
119	0xbeda6e7f	-0.42662427

fc2.bias f4 [2]
0	0x3e1861da	0.14881077
1	0xbe20c9ef	-0.15702032
