laughter/models/model_dataset_50.pth (torch_old, 151430 bytes, 12 tensors)

lstm1.weight_ih_l0 f4 [40, 20]
0.2788061 0.3889288 -0.35449132 0.11831345 0.17259629 -0.28321055 -0.20507331 -0.058634304
0.10978856 0.16159795 -0.100893594 -0.22502512 -0.30625755 0.078784905 -0.04462617 0.299015
0.041589722 0.06960617 -0.33498016 -0.011992697 0.0986281 0.32665297 0.40797508 -0.24297604
0.017572008 0.24918921 -0.45833993 -0.039745368 0.97747344 0.2795924 0.2583695 -0.14510675
0.64443314 -0.14451751 -0.46120954 0.38671517 -0.50966513 -0.21251191 -0.6253486 -0.019843016
0.001746513 0.5779918 -0.1261837 0.35443076 -0.33625144 0.35692257 -0.28242564 -0.28654337
0.08734199 0.32607207 0.43383896 -0.029474195 -0.40446892 -0.08745924 -0.32172766 0.07327871
-0.62197393 0.12775871 0.2462177 -0.26522806 0.34673625 -0.13832109 0.6744704 0.3347902
0.49632442 -0.6146993 0.3593053 0.6977648 -0.45418337 -0.64860445 0.5653129 0.7119186
0.328356 -1.0664288 0.27078888 0.6614327 -0.90239227 -0.23853604 -0.38778764 -0.3107148
0.14211357 -0.49956474 -0.7130022 -0.2835162 -0.2874455 1.3891693 -0.06519543 0.5686225
-0.5185934 0.839702 -1.0329244 0.5092844 -0.85691285 -0.6821157 0.1686894 -0.14005883
0.36647072 -0.7462351 0.39093375 -0.5995886 -0.19324033 0.060441043 -0.022069244 0.5303275
-0.59369695 0.58721685 -0.18985114 -0.041983303 -0.5670753 -0.38362926 -0.25572166 -0.3450198
-0.021268537 0.23033673 -0.27921736 -0.036166973 -0.22945197 -0.085195325 -0.37753382 0.17300871
-0.40120828 0.25108987 0.10420693 -0.43659806 0.40751314 1.2540543 0.08233243 -0.6087937
0.85020155 0.05058235 0.6209805 -0.85608083 -0.9404711 -1.2897804 -0.04518596 -0.52671
-1.2270672 0.7476363 -0.19106902 0.50229865 0.06190241 0.42591235 0.2780574 0.45872787
-0.22754297 0.043081485 -0.14157775 -0.13747999 -0.3054526 0.08751997 0.2513639 0.042033892
0.1486449 -0.14424266 0.017222304 -0.080740176 -0.1136781 -0.031727348 -0.46327865 0.22943257
-0.039716065 0.36487454 -0.31223196 0.31373823 -0.28650168 0.24627124 -0.23781832 0.15416792
0.23358572 0.12842572 -0.11106582 -0.022457533 -0.2628452 0.13088007 0.10249297 -0.11124652
-0.015494072 0.37716633 0.01907727 -0.20141777 0.32620645 0.06522237 -0.100398615 -0.027071642
-0.23014265 -0.5249064 0.3071126 -1.6915389 -0.16530876 -0.50060064 0.7098691 0.37162715
-0.14471693 0.32427797 1.0085274 0.48871586 0.38881823 0.78042114 0.20757219 0.20427704
-0.18920115 -0.453335 0.17912786 0.50974953 -0.46211767 0.57155895 -0.30001733 -0.030471373
-0.29441842 0.19114067 0.010647856 0.29453808 0.028572418 -0.18774159 0.25112677 0.20751314
-0.089457996 0.15898919 -0.3715642 -0.10857219 0.014620489 -0.033410583 0.060477115 0.82229704
-0.8403468 0.68342626 -0.7342132 -0.47652248 -0.6247907 -0.22015096 -0.2834213 0.23394229
-1.351411 -0.5787689 -0.08166344 0.52136105 -0.18664739 0.49619022 0.07742572 -0.26442468
-0.17366315 0.040965173 0.2133303 0.35204455 0.22371604 0.023987778 -0.5220474 0.71468157
-0.023000421 0.016770203 -0.39929157 -0.005215164 0.28450835 -0.26662523 -0.8202391 0.17994341
00000000: acbf 8e3e ad21 c73e e37f b5be 524e f23d
00000010: 15bd 303e f900 91be bdfe 51be 862a 70bd
00000020: d3d8 e03d ef79 253e 4da1 cebd fc6c 66be
00000030: cacd 9cbe fb59 a13d eec9 36bd 7e18 993e
00000040: fc59 2a3d ae8d 8e3d 8582 abbe 047d 44bc
00000050: 87fd c93d 0f3f a73e 1ce2 d03e b6ce 78be
00000060: 2cf3 8f3c 752b 7f3e 88ab eabe 0acc 22bd
00000070: b33b 7a3f bc26 8f3e 0249 843e dd96 14be
00000080: 92f9 243f 66fc 13be a823 ecbe 88ff c53e
00000090: 6a79 02bf b99c 59be d916 20bf d28d a2bc
000000a0: 40eb e43a 45f7 133f 4d36 01be f377 b53e
000000b0: 2629 acbe 8ebe b63e 189a 90be d0b5 92be
000000c0: 5be0 b23d ebf2 a63e 2420 de3e de73 f1bc
000000d0: 8d16 cfbe d41d b3bd 7db9 a4be 2613 963d
000000e0: af39 1fbf 2ed3 023e 7e20 7c3e f9cb 87be
000000f0: 6a87 b13e 0ba4 0dbe 18aa 2c3f 9f69 ab3e
00000100: 3c1e fe3e ef5c 1dbf ddf6 b73e b7a0 323f
00000110: b98a e8be f10a 26bf 59b8 103f 4c40 363f
00000120: 471e a83e bd80 88bf d7a4 8a3e a753 293f
00000130: 2e03 67bf cb42 74be 1a8c c6be 0316 9fbe
00000140: 3886 113e f3c6 ffbe 5087 36bf 0929 91be
00000150: 0e2c 93be 4dd0 b13f 2e85 85bd 3f91 113f
00000160: 89c2 04bf b6f6 563f de36 84bf 7660 023f
00000170: a45e 5bbf 229f 2ebf eabc 2c3e 956b 0fbe
00000180: 0da2 bb3e 4309 3fbf 7828 c83e a37e 19bf
00000190: cbe0 45be 0791 773d 8fca b4bc 8bc3 073f
000001a0: 86fc 17bf d853 163f 5668 42be aff6 2bbd
000001b0: d92b 11bf 0e6b c4be f3ed 82be 6fa6 b0be
000001c0: 5b3b aebc 64dd 6b3e 94f5 8ebe d223 14bd
000001d0: 75f5 6abe e37a aebd 1d4c c1be 3229 313e
000001e0: 2c6b cdbe da8e 803e 716a d53d c889 dfbe
000001f0: 90a5 d03e da84 a03f e89d a83d e7d9 1bbf
00000200: cfa6 593f 702f 4f3d 94f8 1e3f 1d28 5bbf
00000210: b7c2 70bf 8617 a5bf ea14 39bd 77d6 06bf
00000220: 8a10 9dbf 1865 3f3f 99a7 43be a596 003f
00000230: 628d 7d3d 2f11 da3e 8a5d 8e3e 61de ea3e
00000240: 0601 69be 3676 303d c2f9 10be 8ec7 0cbe
00000250: 4864 9cbe ac3d b33d c5b2 803e bb2b 2c3d
00000260: 5e36 183e 59b4 13be ca15 8d3c 1b5b a5bd
00000270: 10d0 e8bd 89f4 01bd dc32 edbe 5ff0 6a3e
00000280: 50ad 22bd d6d0 ba3e dedc 9fbe 4ca2 a03e
00000290: 59b0 92be 872e 7c3e a586 73be 32de 1d3e
000002a0: 1831 6f3e 0882 033e 7a76 e3bd dcf8 b7bc
000002b0: a593 86be 6d05 063e d6e7 d13d 37d5 e3bd
000002c0: d9da 7dbc f21b c13e ef47 9c3c 7640 4ebe
000002d0: 8804 a73e 4e93 853d ca9d cdbd 59c5 ddbc
000002e0: 84aa 6bbe 4460 06bf dd3d 9d3e 5984 d8bf
000002f0: b346 29be 5d27 00bf fbb9 353f ea45 be3e
00000300: ad30 14be c307 a63e 6d17 813f f738 fa3e
00000310: 2f13 c73e aec9 473f ce8d 543e 002e 513e
00000320: f2bd 41be 861b e8be 4b6d 373e f27e 023f
00000330: b09a ecbe b051 123f df9b 99be 1a9f f9bc
00000340: 03be 96be 61ba 433e 5874 2e3c b2cd 963e
00000350: b410 ea3c 553f 40be b093 803e 537e 543e
00000360: c135 b7bd 10ce 223e aa3d bebe 195b debd
00000370: c78a 6f3c 89d9 08bd dab6 773d 0f82 523f
00000380: f820 57bf 06f5 2e3f 65f5 3bbf c1fa f3be
00000390: 49f2 1fbf 416f 61be 991c 91be 918e 6f3e
000003a0: 09fb acbf 332a 14bf 293f a7bd eb77 053f
000003b0: 7e20 3fbe a50c fe3e 6091 9e3d ac62 87be
000003c0: c1d4 31be 19cb 273d 4273 5a3e 2f3f b43e
000003d0: d115 653e 0482 c43c e6a4 05bf 5ff5 363f
000003e0: 616b bcbc aa61 893c f26f ccbe f7e3 aabb
000003f0: 14ab 913e 1a83 88be 31fb 51bf 1643 383e

lstm1.weight_hh_l0 f4 [40, 10]
0.46136752 0.16691534 -0.42717746 -0.087683335 -0.2951173 -0.39194724 0.6662041 -0.20951936
0.07948428 -0.10847379 0.5867807 0.5605413 0.4960082 0.014816692 -0.19809535 -0.3691778
-1.39998 0.24768591 0.396056 0.6428072 -0.01779497 0.22849928 0.03888367 -0.15823276
0.44344458 0.47502026 -0.57666796 -0.07378194 -0.21057943 -0.28456953 1.165462 0.8782967
-0.8769872 0.1283001 0.927809 -0.25482723 -1.4629292 0.016132245 0.99508744 0.32437742
0.9459793 -2.4655437 -0.9252009 -0.6317744 1.7150451 -1.7393247 1.8116194 -0.49016362
-1.3288811 -3.2907758 0.13814916 -0.038930308 0.3423002 -0.4270514 0.16885443 0.48122555
-1.3757861 -0.41704223 0.578015 0.8928343 -0.04295733 0.14194112 1.8042617 -0.28801334
-1.8113786 0.18018709 -1.03701 0.6317902 0.55573386 0.72235626 0.40422618 -0.10628622
0.52581215 0.028579053 0.041130316 0.46206498 -2.2828798 -0.1942755 0.016740471 0.1446145
0.03665667 -0.11267129 0.3774188 -0.44193277 -0.05915525 0.28393748 0.3120881 -0.04836647
-0.014939182 0.09258863 0.947653 1.7952006 -0.2339238 0.7502887 0.27886453 0.10850161
-3.6124687 0.39327094 2.1663795 0.16536309 0.55703473 0.56894493 1.1540303 0.36534134
-0.18895757 1.2858723 -2.3465393 -0.12477207 1.0858222 1.1448238 0.8881549 0.9296632
-0.23746325 -1.3777119 0.41356933 0.41410646 -2.4404278 -0.68258566 1.4679016 1.5911363
1.8082476 0.76989985 0.40096548 -0.29416037 0.25490427 0.497904 -2.591907 -0.41977102
0.70689315 0.24492633 0.77764493 0.44524693 -0.011965196 0.19395801 0.08397637 0.3452704
-1.6421555 -0.16546887 0.37617338 0.7953099 -0.026027666 -3.360053 -0.026121771 0.0133118825
-0.43843278 -1.3558487 2.088043 -0.15321709 -0.23856212 -2.1932771 1.2067976 4.9001894
2.1440883 0.07685729 -1.5536081 0.8831696 -1.6963345 -0.7093583 0.6568848 3.0203855
1.2249273 0.7991309 0.25525302 -0.3404017 -0.3217374 0.096240684 -0.6140928 -0.07248533
0.91146946 1.198366 0.21149921 0.15707819 0.33532548 0.07047081 -0.443666 1.8558552
-1.612827 -1.0613196 1.1873021 1.904416 0.09558738 0.3806847 0.25319004 -0.64668655
0.024895944 0.16790561 -0.57224584 -0.18501009 0.12786017 0.6817688 0.8707253 2.678632
0.056457605 -0.54972094 0.14235869 0.8877887 -2.3403993 -0.8355682 1.9868666 0.82940227
-0.0061966665 0.2582383 0.5030783 -0.30423447 0.27726424 0.1263555 -0.1168358 -0.18492709
0.19035374 0.19137149 0.27464148 0.11846276 0.6298782 -0.29948276 0.61150956 0.6409824
-0.25193873 -0.5012001 0.19620523 0.17838477 0.36506072 0.014553968 -0.0069275354 -0.4468177
0.29399744 0.7517305 -0.18301634 -0.51512086 0.49619028 0.36769274 -0.1565735 -0.4056836
1.2118378 0.7378622 -0.6666692 0.67491525 0.11807936 -0.48841104 0.05353395 0.5508942
-0.1706747 0.08252529 -0.9704171 -0.41383556 -0.31432894 -0.59798485 0.91891825 -0.5180761
-0.83732414 -1.0400792 0.54613405 0.5709128 0.7569251 -0.6535815 -0.03869449 0.80302393
00000000: 5d38 ec3e dbeb 2a3e 01b7 dabe 5293 b3bd
00000010: 9d19 97be 4fad c8be 5a8c 2a3f 3e8c 56be
00000020: a7c8 a23d 8227 debd 4337 163f a27f 0f3f
00000030: c9f4 fd3e b6c1 723c 82d9 4abe df04 bdbe
00000040: 8b32 b3bf 60a1 7d3e dac7 ca3e 038f 243f
00000050: c2c6 91bc b7fb 693e 7c44 1f3d c507 22be
00000060: 2b0b e33e db35 f33e 83a0 13bf fc1a 97bd
00000070: 22a2 57be 19b3 91be dc2d 953f 0dd8 603f
00000080: 3c82 60bf 1a61 033e e484 6d3f b778 82be
00000090: 4441 bbbf c527 843c 0dbe 7e3f cc14 a63e
000000a0: b32b 723f 78cb 1dc0 f7d9 6cbf f8bb 21bf
000000b0: 9986 db3f 31a2 debf 25e3 e73f baf6 fabe
000000c0: c718 aabf 129c 52c0 f976 0d3e 6375 1fbd
000000d0: f941 af3e 7ba6 dabe 2de8 2c3e 3263 f63e
000000e0: c219 b0bf 8f86 d5be cbf8 133f ca90 643f
000000f0: 06f4 2fbd 0359 113e 0cf2 e63f 7c76 93be
00000100: 41db e7bf f782 383e bebc 84bf 01bd 213f
00000110: 9344 0e3f 57ec 383f bcf6 ce3e 97ac d9bd
00000120: a09b 063f 9e1e ea3c 4378 283d c893 ec3e
00000130: b41a 12c0 28f0 46be 5023 893c d315 143e
00000140: 4e25 163d 35c0 e6bd 093d c13e 0345 e2be
00000150: c74c 72bd 4160 913e 03ca 9f3e eb1b 46bd
00000160: 79c3 74bc 1c9f bd3d 6399 723f 22c9 e53f
00000170: b889 6fbe ec12 403f 55c7 8e3e 1836 de3d
00000180: b032 67c0 cf5a c93e f6a5 0a40 f154 293e
00000190: d499 0e3f 60a6 113f 44b7 933f 050e bb3e
000001a0: 187e 41be 7797 a43f b32d 16c0 8088 ffbd
000001b0: 39fc 8a3f 9689 923f 1f5e 633f 68fe 6d3f
000001c0: 9129 73be dd58 b0bf 5cbf d33e c305 d43e
000001d0: f82f 1cc0 efbd 2ebf 33e4 bb3f 5baa cb3f
000001e0: a874 e73f 2818 453f 594b cd3e 309c 96be
000001f0: d082 823e 46ed fe3e cee1 25c0 3aec d6be
00000200: f3f6 343f f8cd 7a3e bd13 473f 68f7 e33e
00000210: ab09 44bc ee9c 463e cefb ab3d 48c7 b03e
00000220: 2732 d2bf ac70 29be cc99 c03e 6e99 4b3f
00000230: f937 d5bc 1c0b 57c0 53fd d5bc 151a 5a3c
00000240: 437a e0be 738c adbf 7fa2 0540 f1e4 1cbe
00000250: a149 74be a75e 0cc0 5878 9a3f 5ace 9c40
00000260: be38 0940 5b67 9d3d a1dc c6bf 6717 623f
00000270: 7d21 d9bf 8198 35bf 9a29 283f ff4d 4140
00000280: 6bca 9c3f d893 4c3f 86b0 823e 2249 aebe
00000290: c4ba a4be d619 c53d 3035 1dbf 3073 94bd
000002a0: 1056 693f 0f64 993f 4093 583e 1bd9 203e
000002b0: c8af ab3e 0053 903d 3128 e3be aa8c ed3f
000002c0: 1d71 cebf 52d9 87bf 84f9 973f e7c3 f33f
000002d0: 51c3 c33d 1be9 c23e 20a2 813e 408d 25bf
000002e0: 94f2 cb3c 73ef 2b3e b47e 12bf 4973 3dbe
000002f0: c7ed 023e 6688 2e3f dae7 5e3f b56e 2b40
00000300: 1740 673d 83ba 0cbf 7ac6 113e 1f46 633f
00000310: 1ac9 15c0 cce7 55bf a551 fe3f b553 543f
00000320: 680d cbbb cf37 843e bdc9 003f 9fc4 9bbe
00000330: 94f5 8d3e 5663 013e 9c47 efbd 875d 3dbe
00000340: 17ec 423e e3f6 433e cf9d 8c3e 9a9c f23d
00000350: b33f 213f ce55 99be e48b 1c3f 6c17 243f
00000360: 1dfe 80be a64e 00bf 06ea 483e 7faa 363e
00000370: 3de9 ba3e c473 6e3c 6100 e3bb 4ac5 e4be
00000380: d586 963e 6971 403f a368 3bbe f6de 03bf
00000390: a70c fe3e 3942 bc3e ce54 20be c3b5 cfbe
000003a0: 801d 9b3f 8ae4 3c3f d5aa 2abf 3fc7 2c3f
000003b0: 97d3 f13d 0311 fabe 6a46 5b3d 6707 0d3f
000003c0: 59c5 2ebe 0503 a93d 416d 78bf 41e2 d3be
000003d0: b9ef a0be 8915 19bf 3a3e 6b3f a3a0 04bf
000003e0: e05a 56bf 5121 85bf 71cf 0b3f 5727 123f
000003f0: d8c5 413f 1e51 27bf 1d7e 1ebd fa92 4d3f

lstm1.bias_ih_l0 f4 [40]
-0.04974184 0.36558166 0.10049914 -0.159667 0.0637423 0.5472514 0.050306145 0.19195417
0.3285477 -0.4523358 0.18316689 0.64819753 0.24067593 0.49560052 0.13211432 0.17244627
0.30768535 0.6274092 0.22880289 0.6617775 0.24340086 0.13801363 0.4006043 0.3649301
0.19523385 0.6064434 -0.24567729 -0.08669904 -0.015038925 0.13112637 0.006691275 -0.1565823
0.16883047 0.08358497 0.2575519 0.4691146 0.8612427 0.4863659 0.30491534 0.24028881
00000000: 1abe 4bbd 852d bb3e 7ed2 cd3d bf7f 23be
00000010: 538b 823d ab18 0c3f d10d 4e3d a28f 443e
00000020: 6737 a83e 8f98 e7be 1a90 3b3e 46f0 253f
00000030: c073 763e 5abf fd3e fa48 073e c195 303e
00000040: ef88 9d3e e49d 203f 4e4b 6a3e 406a 293f
00000050: 133e 793e 7253 0d3e 021c cd3e 1ed8 ba3e
00000060: 62eb 473e e03f 1b3f d492 7bbe 448f b1bd
00000070: d365 76bc fe45 063e 7c42 db3b 1c57 20be
00000080: e5e1 2c3e 992e ab3d d8dd 833e ca2f f03e
00000090: 677a 5c3f f404 f93e dd1d 9c3e 450e 763e

lstm1.bias_hh_l0 f4 [40]
-0.20730267 0.29009914 0.12137441 -0.15698001 0.60011065 0.5395103 -0.26388216 0.44362047
0.25894746 -0.6603297 0.4071615 0.70069945 0.16787249 0.02898869 0.060732648 0.12773407
0.24332729 0.3400152 0.28390527 0.48283362 0.25575396 0.38087755 0.3181693 0.570327
0.31339034 0.6724029 -0.37745437 -0.08174181 0.0465863 0.12591292 0.20603001 -0.24333188
-0.21399952 0.59698266 0.5389141 0.533779 0.7963337 0.40368336 0.1960427 -0.08254092
00000000: 2747 54be e087 943e 2693 f83d 5ebf 20be
00000010: daa0 193f 591d 0a3f 901b 87be 3922 e33e
00000020: c394 843e 5e0b 29bf 7977 d03e 0a61 333f
00000030: c4e6 2b3e b079 ed3c ccc2 783d b8cc 023e
00000040: ca2a 793e 7916 ae3e 085c 913e f835 f73e
00000050: 2ff2 823e 6202 c33e 16e7 a23e f300 123f
00000060: b374 a03e 9922 2c3f b341 c1be 4068 a7bd
00000070: 47d1 3e3d 51ef 003e 88f9 523e fe2b 79be
00000080: b122 5bbe dbd3 183f 46f6 093f bea5 083f
00000090: 86dc 4b3f 96af ce3e 6bbf 483e 370b a9bd

fc1.weight f4 [2, 10]
0.07687908 0.20901291 0.8260634 0.26154163 -1.1581988 0.89817053 -1.4033716 -0.40056404
0.29094908 1.7362095 -0.27569497 0.07122472 -0.24532442 0.17251518 1.3114785 -0.5962458
1.5035437 0.3194734 -0.5910272 -1.8070097
00000000: c772 9d3d 7b07 563e e478 533f c9e8 853e
00000010: dc3f 94bf 81ee 653f aea1 b3bf bb16 cdbe
00000020: 47f7 943e 1d3c de3f e427 8dbe 44de 913d
00000030: 5336 7bbe d2a7 303e 87de a73f 91a3 18bf
00000040: 1f74 c03f 0492 a33e 8f4d 17bf 184c e7bf

fc1.bias f4 [2]
-0.06594783 0.04461367
00000000: a80f 87bd d3bc 363d

lstm2.weight_ih_l0 f4 [200, 128]
-0.05484479 0.1429498 -0.005593573 0.107581675 0.27987766 0.079477124 0.15799749 0.14477104
0.23466401 0.22936761 0.022406392 -0.036406174 0.20721005 0.11631141 -0.058346573 0.26565313
0.04095743 0.10057724 0.18831086 -0.00721863 0.08520376 0.15681766 0.12161328 0.022022126
0.007890564 0.06544125 0.07996362 0.15714638 -0.05276292 0.10748118 0.05068824 0.06347184
-0.18016607 -0.051965237 0.0054809335 -0.07895423 0.021725407 -0.24384716 -0.20880999 -0.06891214
-0.25186247 -0.2518745 -0.15385923 -0.010153935 -0.04166185 -0.021806695 -0.05303429 -0.22093683
-0.20771848 -0.1060078 -0.14920284 -0.052260246 -0.22520353 -0.27724242 -0.25927496 -0.29174823
-0.24542452 -0.2835825 -0.22197445 -0.32423675 -0.055122152 -0.052097283 -0.03118236 -0.09448814
0.010764864 -0.04162938 -0.12985335 0.037335336 -0.12932603 -0.004734022 0.10798701 -0.13780658
-0.078744486 0.069142655 0.031105747 -0.04667577 0.027578216 -0.26114938 -0.20514472 -0.14513433
0.01515348 0.037140116 -0.06299973 0.07079283 0.050369043 -0.083359785 -0.09212445 0.028463554
-0.046846345 -0.062329844 -0.14598846 -0.13066576 -0.026172902 -0.07366515 -0.020548739 0.07773393
-0.055876575 0.016079722 0.15069968 0.065672636 -0.077465594 0.071926 0.007981577 0.18082769
0.096166156 0.21108267 0.031614926 0.06433522 -0.07237414 0.00894517 0.08581628 0.04204907
0.035419766 0.09298889 -0.040341984 -0.12944554 0.05510898 -0.15334047 0.051415097 0.047280714
-0.16177194 0.008838482 -0.1592641 -0.03378874 0.028909294 -0.10028489 -0.0405584 -0.24826044
-0.18875282 -0.2964166 -0.16967428 -0.05780648 0.14018731 -0.04625338 0.036812004 0.022346333
0.08475499 -0.082106054 -0.032622155 -0.12341111 -0.26760796 -0.26480266 -0.09775923 0.20296423
0.20334163 0.02748539 -0.12868008 -0.05901905 -0.042236075 0.024089655 0.025258979 0.0078039053
-0.015490693 0.048252575 0.06361725 0.15808669 0.22163762 0.16443263 -0.007564835 -0.14456734
-0.3020628 -0.11793376 -0.1531654 -0.3101575 -0.3114101 -0.22867982 -0.18622802 -0.015134383
-0.19348241 0.04565919 -0.07284813 -0.28970733 -0.13906007 -0.15141903 -0.1789311 -0.176708
-0.28875616 -0.03590146 0.050080933 0.08397922 0.037940968 -0.012310862 0.020857178 0.013282555
-0.02628535 -0.061878175 -0.17869523 -0.39084744 -0.2671913 -0.18975456 -0.23184381 -0.234197
-0.17410876 -0.0054424065 0.010478945 0.20617393 0.09251691 -0.10311014 0.005761463 -0.046732683
-0.06599812 0.07868049 -0.16378638 0.24684146 0.20612845 0.25638825 -0.014128915 0.31617314
-0.0051274393 0.014356297 -0.056699265 -0.15415011 -0.17625226 -0.27452588 -0.25703418 0.16658008
0.16809618 0.04294091 0.10473172 0.086417675 -0.17176329 -0.58281213 -0.21299507 -0.22586133
0.08311421 0.066134475 0.064495 0.051877 -0.100579984 -0.18770264 0.10990997 0.1628761
0.19096132 0.41762936 0.14664356 -0.14084394 -0.30201867 -0.13599403 -0.37549448 -0.45007965
-0.45504317 -0.106493734 -0.108723715 -0.11717675 0.0382161 0.04021093 0.12246711 0.106594615
-0.103798576 -0.12602836 -0.1018197 -0.15260074 0.0029266712 -0.26301187 -0.1978026 -0.41086674
00000000: eea4 60bd 6f61 123e 4b4a b7bb c853 dc3d
00000010: 204c 8f3e e7c4 a23d 18ca 213e dc3e 143e
00000020: c34b 703e 58df 6a3e 9c8d b73c a41e 15bd
00000030: df2e 543e ad34 ee3d d1fc 6ebd b003 883e
00000040: fac2 273d 71fb cd3d 90d4 403e 428a ecbb
00000050: 4f7f ae3d cf94 203e 6210 f93d bf67 b43c
00000060: 6d47 013c 1006 863d f7c3 a33d fbea 203e
00000070: ee1d 58bd 181f dc3d 799e 4f3d 86fd 813d
00000080: 747d 38be 80d9 54bd 6799 b33b c1b2 a1bd
00000090: 7bf9 b13c 12b3 79be 49d2 55be cf21 8dbd
000000a0: 1ef4 80be b2f5 80be 468d 1dbe b15c 26bc
000000b0: 9ea5 2abd f4a3 b2bc 7c3a 59bd 443d 62be
000000c0: 27b4 54be 9e1a d9bd a1c8 18be d70e 56bd
000000d0: c19b 66be b8f2 8dbe b0bf 84be 0660 95be
000000e0: 9150 7bbe ba31 91be 454d 63be 5c02 a6be
000000f0: c4c7 61bd f663 55bd 2672 ffbc ff82 c1bd
00000100: 1d5f 303c 9283 2abd 47f8 04be f0ec 183d
00000110: 0b6e 04be db1f 9bbb 4b28 dd3d 2b1d 0dbe
00000120: ca44 a1bd aa9a 8d3d 7bd1 fe3c 182f 3fbd
00000130: b6eb e13c 5fb5 85be 7511 52be 189e 14be
00000140: 4d46 783c 3c20 183d 0106 81bd d5fb 903d
00000150: c54f 4e3d 89b8 aabd beab bcbd 662c e93c
00000160: f4e1 3fbd 944d 7fbd 007e 15be 3fcd 05be
00000170: 8e68 d6bc c1dd 96bd d455 a8bc f732 9f3d
00000180: d6de 64bd 9fb9 833c 0451 1a3e 607f 863d
00000190: 48a6 9ebd f04d 933d 29c5 023c e52a 393e
000001a0: c3f2 c43d 0e26 583e a77e 013d 2fc2 833d
000001b0: e538 94bd c38e 123c 72c0 af3d a53b 2c3d
000001c0: 5114 113d f670 be3d a33d 25bd 5f8d 04be
000001d0: f4b9 613d 4905 1dbe a398 523d 6ca9 413d
000001e0: 8ba7 25be 48cf 103c 2116 23be 1066 0abd
000001f0: 2fd3 ec3c 2a62 cdbd 9120 26bd fc37 7ebe
00000200: 6b48 41be ebc3 97be 18bf 2dbe 7dc6 6cbd
00000210: 438d 0f3e 2f74 3dbd 2fc8 163d a80f b73c
00000220: 0694 ad3d 3827 a8bd cf9e 05bd f7be fcbd
00000230: e903 89be 3794 87be fe35 c8bd dbd5 4f3e
00000240: ca38 503e 0a29 e13c b6c4 03be f6bd 71bd
00000250: bcff 2cbd ab57 c53c ebeb ce3c e7b7 ff3b
00000260: adcc 7dbc 7ea4 453d c349 823d 7ae1 213e
00000270: f9f4 623e 0761 283e 6fe2 f7bb 7609 14be
00000280: faa7 9abe 4187 f1bd 64d7 1cbe f7cc 9ebe
00000290: 2571 9fbe 0b2b 6abe 8fb2 3ebe 34f6 77bc
000002a0: 4120 46be 2105 3b3d 6631 95bd 8554 94be
000002b0: c365 0ebe 970d 1bbe b739 37be f1f2 34be
000002c0: d9d7 93be 690d 13bd aa21 4d3d 4cfd ab3d
000002d0: fd67 1b3d 7fb3 49bc acdc aa3c 139f 593c
000002e0: 6054 d7bc f873 7dbd e2fb 36be 281d c8be
000002f0: 4ccd 88be 054f 42be 7768 6dbe 57d1 6fbe
00000300: 9149 32be 3756 b2bb e2af 2b3c 421f 533e
00000310: 8179 bd3d 692b d3bd a8ca bc3b c56a 3fbd
00000320: 062a 87bd 3d23 a13d 9eb7 27be 02c4 7c3e
00000330: 5613 533e 5245 833e f77c 67bc 72e1 a13e
00000340: 1404 a8bb ad36 6b3c 7d3d 68bd 87d9 1dbe
00000350: 797b 34be a88e 8cbe fc99 83be f893 2a3e
00000360: 6821 2c3e cfe2 2f3d 967d d63d c0fb b03d
00000370: b7e2 2fbe 2d33 15bf 611b 5abe 3148 67be
00000380: c837 aa3d 8371 873d f415 843d fa7c 543d
00000390: e1fc cdbd 1f35 40be 7a18 e13d fec8 263e
000003a0: 5d8b 433e 84d3 d53e bb29 163e 6539 10be
000003b0: 31a2 9abe 0542 0bbe d040 c0be d770 e6be
000003c0: 6bfb e8be 6319 dabd 8aaa debd 5dfa efbd
000003d0: 7c88 1c3d 37b4 243d 09d0 fa3d 474e da3d
000003e0: 5994 d4bd 940d 01be d986 d0bd 5e43 1cbe
000003f0: 65cd 3f3b 7ea9 86be c48c 4abe 205d d2be

lstm2.weight_hh_l0 f4 [200, 50]
0.2726765 -0.21059693 -0.20946023 0.03657303 0.04228748 0.11874974 0.023669904 -0.18879399
-0.14070264 0.040893704 -0.1020635 0.10078684 0.048930146 -0.065006524 -0.20485261 -0.09157287
-0.012326736 0.03485362 -0.056526694 -0.1218666 0.07319601 -0.08186867 -0.027286112 0.18778443
0.022697497 -0.02593717 0.030843956 0.1072872 0.14723343 0.18789794 -0.052300647 -0.14033681
-0.14253773 0.1534744 0.01712348 -0.04489177 -0.01785976 0.03213358 -0.084799916 0.17175059
0.058372885 -0.018592035 -0.051419243 0.18716386 0.013759823 0.08895579 0.0072000953 0.37360257
0.052300118 -0.043373898 0.59884197 -0.3255144 -0.9494547 1.0477675 -0.33082527 0.0714144
-0.21577647 -0.31855413 -0.13233045 0.27634734 0.18089302 0.10889921 0.11495896 -0.9631194
-0.20551197 -0.32504314 -0.19074506 0.20910665 0.031606786 -1.445913 -0.24895838 -0.49585888
-0.17846172 0.28494608 0.2347604 -0.58736396 0.5619047 -0.5405802 -0.06870809 0.37008283
0.012052625 0.8236414 -0.1395791 0.10677169 0.19196102 -0.19576165 0.25596622 0.20543039
-0.07959678 0.7047354 0.52798736 -0.24045321 0.7742499 0.17220777 0.4945884 -0.010767143
-0.25308183 0.7953551 -0.038084507 0.06645646 1.0696086 -1.5496556 -0.4256347 0.43867797
0.30296183 -0.69218415 -0.5050862 -0.82693064 -0.4533063 0.07963664 -0.7679372 -2.2398074
-0.53929675 -2.2709374 -0.09040671 -0.017433442 0.6673251 0.41474855 -0.32915193 -1.2258846
-0.7420082 -0.50132596 -0.1587618 1.1535168 -0.6357103 -0.30773368 0.26201487 -0.6985573
-0.4565015 1.6697141 0.12458255 -0.90827245 0.75564826 1.033592 2.3432424 0.3896697
0.5530532 -0.07003851 0.4506062 1.2051036 0.4220672 -0.09373269 0.99545383 -0.61373395
2.5511923 -1.8299121 -0.51924795 0.6390037 -0.031279325 0.4929085 0.6053978 -0.12110073
0.34618303 0.27078986 0.30595085 0.3377314 -0.43762696 0.031135647 -0.3803423 0.49178097
-0.073700115 0.014695877 -0.38953844 0.7200713 0.31191164 0.10522378 0.31541818 0.41529688
-0.42167193 0.2987632 -0.36383274 -0.49862626 -0.93752295 -0.035078254 -0.34876 -0.07167602
0.44700208 0.098439485 -0.19279183 -0.020096518 -0.08962831 0.28057593 0.42264715 0.27185756
0.79914075 0.17228803 0.6798828 -0.4261153 0.44290563 -0.4022433 0.5890446 -0.45086706
-0.2160483 -0.27971858 0.48808685 -0.0058916872 -0.70408213 -0.26068553 -0.8243617 0.33647305
-0.49138921 -0.015245727 -0.07771146 0.08790303 -0.06251553 -0.33570737 -0.24907476 0.026025515
0.7796508 -0.074770845 -0.5528506 -0.13993661 -0.24031025 -0.19402951 0.16980113 -0.08656232
0.35298973 0.0042712116 0.32986018 -0.5446679 -0.012165717 -0.38895056 0.28855127 0.5894254
-0.18025911 0.06288646 -0.04910385 -0.34066647 -0.2777187 0.19000307 -0.13648418 -0.16449502
0.30692074 -0.16258869 0.15425888 0.03365832 0.37772325 0.09904383 0.28730896 -0.12058695
0.5715091 0.07579517 0.1008078 -0.06503793 0.17122543 0.05158351 -0.06214687 0.8122985
-0.16145642 0.38106704 0.46822217 -0.3679259 -0.53988856 -0.25577828 -0.071471624 0.18410666
00000000: 419c 8b3e b9a6 57be be7c 56be 9acd 153d
00000010: a335 2d3d 1033 f33d 63e7 c13c 3653 41be
00000020: 5a14 10be 2880 273d ab06 d1bd 5569 ce3d
00000030: fa6a 483d 2422 85bd e2c4 51be 8f8a bbbd
00000040: 14f6 49bc abc2 0e3d 8988 67bd 3295 f9bd
00000050: cae7 953d c3aa a7bd 2087 dfbc 904a 403e
00000060: 1af0 b93c 307a d4bc 77ac fc3c 64b9 db3d
00000070: 5cc4 163e 5168 403e 3439 56bd 74b4 0fbe
00000080: 69f5 11be 6528 1d3e 8a46 8c3c 6fe0 37bd
00000090: a24e 92bc 809e 033d 94ab adbd 63df 2f3e
000000a0: 6818 6f3d 534e 98bc fc9c 52bd e2a7 3f3e
000000b0: e170 613c 742e b63d c7ee eb3b d648 bf3e
000000c0: a638 563d d4a8 31bd b54d 193f d3a9 a6be
000000d0: 770f 73bf 3f1d 863f ee61 a9be b741 923d
000000e0: 82f4 5cbe 8719 a3be a281 07be 667d 8d3e
000000f0: 053c 393e 8d06 df3d 9a6f eb3d fe8e 76bf
00000100: bb71 52be 0e6c a6be ac52 43be 0e20 563e
00000110: 1e76 013d ad13 b9bf f2ee 7ebe 37e1 fdbe
00000120: abbe 36be 74e4 913e 0865 703e 7c5d 16bf
00000130: fdd8 0f3f 7763 0abf d4b6 8cbd 7f7b bd3e
00000140: 6078 453c 2ada 523f d3ed 0ebe 1eab da3d
00000150: 6e91 443e be75 48be 010e 833e 585c 523e
00000160: a303 a3bd 8a69 343f 2e2a 073f 5e39 76be
00000170: 3e35 463f 3c57 303e b13a fd3e ac68 30bc
00000180: f193 81be 649c 4b3f 80fe 1bbd 531a 883d
00000190: efe8 883f 1d5b c6bf cbec d9be 669a e03e
000001a0: d01d 9b3e fb32 31bf 544d 01bf bab1 53bf
000001b0: c317 e8be 8918 a33d 8897 44bf 0159 0fc0
000001c0: 5a0f 0abf 0a57 11c0 2727 b9bd 94d0 8ebc
000001d0: d1d5 2a3f ec59 d43e 9a86 a8be c9e9 9cbf
000001e0: 40f4 3dbf e656 00bf 7492 22be 70a6 933f
000001f0: e9bd 22bf 458f 9dbe d026 863e a7d4 32bf
00000200: 91ba e9be 31b9 d53f 2325 ff3d 8b84 68bf
00000210: 2a72 413f be4c 843f aff7 1540 c982 c73e
00000220: e594 0d3f 5a70 8fbd dbb5 e63e d640 9a3f
00000230: 3119 d83e edf6 bfbd 10d6 7e3f ab1d 1dbf
00000240: bc46 2340 8f3a eabf 6fed 04bf bf95 233f
00000250: c01e 00bd 815e fc3e 5afb 1a3f a903 f8bd
00000260: e73e b13e f8a4 8a3e 97a5 9c3e 21eb ac3e
00000270: a410 e0be 2f10 ff3c 3abc c2be b7ca fb3e
00000280: 16f0 96bd fac6 703c 9571 c7be 9856 383f
00000290: e2b2 9f3e 917f d73d 7e7e a13e cba1 d43e
000002a0: 62e5 d7be 7df7 983e 4948 babe f14b ffbe
000002b0: 8101 70bf 37ae 0fbd ac90 b2be e1ca 92bd
000002c0: 75dd e43e a49a c93d 396b 45be 74a1 a4bc
000002d0: 0c8f b7bd a6a7 8f3e 3565 d83e ea30 8b3e
000002e0: 7d94 4c3f 466c 303e cd0c 2e3f c92b dabe
000002f0: 87c4 e23e d5f2 cdbe a0cb 163f 0cd8 e6be
00000300: c43b 5dbe 4637 8fbe 85e6 f93e 0e0f c1bb
00000310: ba3e 34bf 9378 85be 5e09 53bf 3246 ac3e
00000320: 5e97 fbbe 37c9 79bc 3027 9fbd 8106 b43d
00000330: 2408 80bd d6e1 abbe 740d 7fbe 7633 d53c
00000340: 3297 473f 7521 99bd 9e87 0dbf 8b4b 0fbe
00000350: e413 76be acaf 46be 59e0 2d3e 9647 b1bd
00000360: 12bb b43e 85f5 8b3b 6fe3 a83e 5b6f 0bbf
00000370: b752 47bc 8724 c7be febc 933e 95e4 163f
00000380: d895 38be 9eca 803d 1e21 49bd d66b aebe
00000390: 2531 8ebe 2a90 423e 82c2 0bbe 6271 28be
000003a0: b724 9d3e a67d 26be 0af6 1d3e 4edd 093d
000003b0: f164 c13e 7ed7 ca3d 291a 933e 4af6 f6bd
000003c0: 6c4e 123f 803a 9b3d 5274 ce3d 9b32 85bd
000003d0: b855 2f3e 3b49 533d b78d 7ebd cbf2 4f3f
000003e0: d554 25be 381b c33e d1ba ef3e c960 bcbe
000003f0: 2336 0abf 5ff5 82be b75f 92bd 7586 3c3e

lstm2.bias_ih_l0 f4 [200]
0.22009921 0.24058065 0.29609144 0.29011315 -0.14599855 -0.09756653 -0.07003095 0.06499916
-0.034106642 -0.0784432 0.07265622 -0.23498437 0.19871804 0.08624871 0.45182624 -0.19351625
0.15770265 0.19766912 0.11784049 0.15860547 -0.08594857 0.099260375 0.38119346 -0.15698162
-0.011084755 0.19171828 0.08245926 -0.3581229 0.49947768 -0.35813677 0.10223555 0.46518198
0.009232419 -0.19090569 0.596624 -0.06574354 -0.1473157 0.25037515 0.009636552 -0.017260386
0.08157588 -0.009655029 0.28985304 0.058864195 0.17066702 0.11773955 0.20715141 0.40828976
0.120395534 0.06786028 0.2547315 0.012150406 -0.058661148 0.073491745 -0.07927028 0.021513296
0.2559768 -0.043467466 -0.50460047 0.17233594 0.06866864 -0.106236994 0.1541425 -0.37576026
0.34271836 -0.020939501 0.020910408 0.49283463 0.04586433 -0.052024893 0.48895904 0.09374998
0.17769472 0.0066067963 0.13095728 0.68445414 -0.06595209 -0.024149237 -0.14896747 -0.018155789
0.28576052 0.13392165 0.24941692 0.08784074 -0.20937622 0.42027634 0.23730162 0.1935133
-0.2651048 -0.03348743 0.3497543 0.19415426 -0.11399888 0.15435661 0.064039454 -0.30365473
0.022850247 -0.01750484 0.52116394 -0.023273712 0.1691878 -0.12338991 -0.5524228 -0.13680175
-0.017693175 0.15743501 -0.075824656 -0.24292183 -0.092481166 0.017143575 0.0776398 -0.29647973
0.13574405 -0.37090883 -0.05642344 -0.1576389 -0.15661854 0.2268047 -0.30692574 -0.49225834
-0.19847246 -0.25471756 0.19611132 0.25576282 0.067654155 -0.045063183 -0.012690911 -0.0611479
0.014854983 0.082968675 0.0052966806 -0.09948821 0.012267809 0.16545896 0.30489963 -0.16201122
0.1566688 -0.17018194 -0.08304444 0.26398087 0.0838006 -0.19884251 -0.24910249 -0.029226366
0.15557295 0.12683733 -0.033103466 0.3580084 0.17818648 -0.034307163 -0.51185507 0.18788007
0.25876704 0.39381564 0.07131383 -0.0785109 0.1153432 -0.19643258 0.21847357 0.15877874
0.2635644 0.3026504 0.03436318 0.25765437 0.21860133 -0.052627087 0.05679748 -0.13965763
-0.4382361 0.28102204 -0.07167936 0.21321882 0.2722163 -0.16750006 -0.024701383 0.082423836
0.10721713 0.553314 -0.07116749 0.18844931 -0.1821333 1.2523509 -0.14921212 -0.23278597
0.49974442 0.8942696 -0.2000462 -0.15057613 0.13855946 0.21545357 0.1579663 -0.12370565
0.8462557 -0.1618276 -0.054816075 -0.4723008 -0.49725842 0.21520036 -0.092019096 0.025873959
00000000: b061 613e c65a 763e 4c99 973e b689 943e
00000010: a580 15be f6d0 c7bd 636c 8fbd 481e 853d
00000020: 68b3 0bbd d4a6 a0bd c9cc 943d be9f 70be
00000030: be7c 4b3e 2aa3 b03d c555 e73e 2029 46be
00000040: ce7c 213e c669 4a3e 5b56 f13d 7969 223e
00000050: ce05 b0bd 0649 cb3d ca2b c33e cabf 20be
00000060: d59c 35bc cc51 443e 67e0 a83d e25b b7be
00000070: 8abb ff3e b45d b7be df60 d13d 552c ee3e
00000080: 9243 173c c87c 43be 5abc 183f 8da4 86bd
00000090: edd9 16be 2c31 803e a1e2 1d3c a765 8dbc
000000a0: 4111 a73d 2030 1ebc 9e67 943e 951b 713d
000000b0: 56c3 2e3e 6f21 f13d 801f 543e 5b0b d13e
000000c0: ef91 f63d 55fa 8a3d 2b6c 823e 7f12 473c
000000d0: ac46 70bd d782 963d 7558 a2bd a73c b03c
000000e0: 640f 833e f10a 32bd 7f2d 01bf d578 303e
000000f0: 25a2 8c3d c892 d9bd 88d7 1d3e a663 c0be
00000100: c878 af3e 5189 abbc 4e4c ab3c d254 fc3e
00000110: 3cdc 3b3d 0e18 55bd d758 fa3e fdff bf3d
00000120: 9bf5 353e d37d d83b aa19 063e 6338 2f3f
00000130: e411 87bd 9fd4 c5bc ee8a 18be 73bb 94bc
00000140: 344f 923e c222 093e 2667 7f3e d9e5 b33d
00000150: b866 56be 762e d73e 32ff 723e 5a28 463e
00000160: d1bb 87be 1e2a 09bd ff12 b33e 60d0 463e
00000170: 3f78 e9bd a90f 1e3e 1e27 833d a278 9bbe
00000180: 7130 bb3c 4f66 8fbc 006b 053f 83a8 bebc
00000190: 913f 2d3e d9b3 fcbd 956b 0dbf c215 0cbe
000001a0: 47f1 90bc a536 213e f549 9bbd 80c0 78be
000001b0: c466 bdbd af70 8c3c 9e01 9f3d 31cc 97be
000001c0: 7d00 0b3e c3e7 bdbe 441c 67bd 186c 21be
000001d0: 9c60 20be 7e3f 683e 5f25 9dbe 4909 fcbe
000001e0: 5d3c 4bbe 576a 82be 68d1 483e 58f3 823e
000001f0: 438e 8a3d 2c94 38bd 8aed 4fbc 3876 7abd
00000200: 5162 733c 7beb a93d c78f ad3b 7ac0 cbbd
00000210: ecfe 483c 136e 293e ce1b 9c3e 45e6 25be
00000220: c96d 203e 2d44 2ebe 3413 aabd 8028 873e
00000230: a69f ab3d 5f9d 4bbe b914 7fbe 226c efbc
00000240: 844e 1f3e a5e1 013e 8097 07bd e14c b73e
00000250: 8476 363e ab85 0cbd ef08 03bf a263 403e
00000260: 1d7d 843e 34a2 c93e fc0c 923d 53ca a0bd
00000270: 0e39 ec3d 9f25 49be 89b7 5f3e e596 223e
00000280: eaf1 863e fef4 9a3e 68c0 0c3d 46eb 833e
00000290: 07d9 5f3e 808f 57bd 79a4 683d 6902 0fbe
000002a0: 7b60 e0be 1fe2 8f3e a1cc 92bd 0956 5a3e
000002b0: ef5f 8b3e 2385 2bbe 8e5a cabc d4cd a83d
000002c0: a894 db3d fca5 0d3f 43c0 91bd dbf8 403e
000002d0: 2781 3abe 094d a03f 10cb 18be 725f 6ebe
000002e0: 80de ff3e daee 643f e9d8 4cbe a130 1abe
000002f0: 88e2 0d3e dc9f 5c3e ebc1 213e 6359 fdbd
00000300: 37a4 583f 22b6 25be d286 60bd 69d1 f1be
00000310: a898 febe 7c5d 5c3e 8274 bcbd a0f5 d33c

lstm2.bias_hh_l0 f4 [200]
0.36582094 0.20432915 0.38741738 0.4242628 -0.230511 -0.0016385977 0.115544446 0.10344273
-0.103829205 -0.027530042 -0.005827436 -0.24312009 0.19691402 0.28639475 0.4198376 -0.21728185
0.26521587 0.20940559 0.072320715 -0.030990906 -0.24055634 0.09859751 0.46269262 0.012211199
0.18334638 0.1613012 0.2937508 -0.26729777 0.7026574 -0.57519084 0.25186923 0.438175
0.0839318 -0.18273929 0.76858735 0.10239175 0.029863797 0.14998499 -0.036451817 -0.064157605
0.2503319 0.0159835 0.40874565 0.040297337 0.2846019 0.10875666 0.15412878 0.47727758
0.25961432 0.10412923 0.09495037 0.22125444 -0.07590267 0.052190933 -0.15962142 -0.01670522
0.4337616 0.05916041 -0.44037637 0.30249792 -0.022964375 0.0126183955 0.21165319 -0.26833883
0.3485943 -0.0034366902 0.019040545 0.572334 0.07714126 -0.22139011 0.6278995 0.13664258
0.2107411 -0.0084110405 0.24722305 0.59376436 -0.09004401 0.061615687 -0.38098752 -0.07798579
0.17509037 -0.004056639 0.15851574 0.0145081775 -0.4284121 0.33346066 0.22304577 0.19308434
-0.111274876 0.13096847 0.1732454 0.18161927 -0.22526082 -0.069314025 0.113723636 -0.28085917
-0.057649415 -0.16271925 0.63760597 -0.08901132 0.25619358 -0.09626935 -0.53507155 -0.06953287
-0.073516294 -0.044990603 -0.23371091 -0.2352826 -0.13734846 0.063212834 0.21845908 -0.27127162
0.1411147 -0.4996262 -0.0621313 -0.11622453 -0.20022349 0.21797575 -0.13262276 -0.33888862
-0.27271515 -0.033852562 0.090991326 0.20870906 0.22228834 -0.27916148 -0.00071550295 -0.1283225
-0.10241269 0.20829147 0.08974286 -0.051587332 -0.19107303 0.09781321 0.26187387 -0.26672608
0.047094688 -0.17842516 -0.16198996 0.17482004 0.15214378 -0.29128718 -0.24902152 0.16545753
0.100971505 0.09035309 0.09055465 0.36822993 0.31117514 -0.068059824 -0.36472887 0.12704815
0.30308244 0.5638637 -0.045025557 -0.18673341 0.13879897 -0.14224298 0.32791814 0.21973039
0.18406692 0.1697778 -0.03476553 0.28727317 0.2646341 -0.039068874 0.039076123 -0.22375661
-0.397713 0.19535854 -0.021801267 0.039307725 0.25497165 -0.08652171 -0.054075684 -0.053974614
0.100107126 0.3902198 -0.011549292 0.11757798 -0.23541577 1.336232 -0.16383244 -0.10908454
0.3236518 0.7222653 -0.31519058 -0.17194785 0.12480322 0.38880992 -0.037447322 -0.0844956
1.0858595 0.065531984 0.05616391 -0.395438 -0.3854517 0.24014714 -0.06364617 -0.07318851
00000000: e24c bb3e a93b 513e 925b c63e f938 d93e
00000010: 130b 6cbe 37c6 d6ba 91a2 ec3d c8d9 d33d
00000020: 68a4 d4bd af86 e1bc 14f4 bebb 79f4 78be
00000030: d4a3 493e 55a2 923e f4f4 d63e 227f 5ebe
00000040: 60ca 873e 6b6e 563e e21c 943d a4e0 fdbc
00000050: 6754 76be 7eed c93d 0ce6 ec3e 7b11 483c
00000060: 27bf 3b3e 242c 253e 8166 963e 41db 88be
00000070: 5be1 333f b53f 13bf 01f5 803e 7958 e03e
00000080: 70e4 ab3d 0220 3bbe 24c2 443f c4b2 d13d
00000090: eca4 f43c aa95 193e 804e 15bd 1065 83bd
000000a0: 812b 803e d4ef 823c 1c47 d13e d20e 253d
000000b0: 57b7 913e d0bb de3d efd3 1d3e ba5d f43e
000000c0: 2bec 843e b541 d53d 5775 c23d 8690 623e
000000d0: dc72 9bbd 29c6 553d cc73 23be 63d9 88bc
000000e0: 0016 de3e 3052 723d 0379 e1be 02e1 9a3e
000000f0: c91f bcbc 63bd 4e3c 9dbb 583e b563 89be
00000100: f47a b23e 183a 61bb ebfa 9b3c 7b84 123f
00000110: 3dfc 9d3d 17b4 62be 06be 203f 08ec 0b3e
00000120: 84cc 573e 76ce 09bc 0a28 7d3e f100 183f
00000130: fe68 b8bd bb60 7c3d cc10 c3be 04b7 9fbd
00000140: e44a 333e 8eed 84bb f351 223e b5b3 6d3c
00000150: d558 dbbe 5bbb aa3e 1c66 643e e7b7 453e
00000160: 15e4 e3bd 991c 063e 3e67 313e 67fa 393e
00000170: c6aa 66be 83f4 8dbd f0e7 e83d c6cc 8fbe
00000180: cb21 6cbd e09f 26be 253a 233f 914b b6bd
00000190: ce2b 833e dd28 c5bd 73fa 08bf 4067 8ebd
000001a0: b68f 96bd 1148 38bd ea51 6fbe eced 70be
000001b0: 13a5 0cbe bb75 813d bdb3 5f3e 1de4 8abe
000001c0: 5f80 103e 01cf ffbe 647d 7ebd 2007 eebd
000001d0: 6307 4dbe 0935 5f3e 43ce 07be cf82 adbe
000001e0: 52a1 8bbe fca8 0abd a959 ba3d d4b7 553e
000001f0: 8e9f 633e 41ee 8ebe 9790 3bba f966 03be
00000200: bfbd d1bd 5c4a 553e 1bcb b73d 3d4d 53bd
00000210: a6a8 43be 4b52 c83d 5514 863e 5290 88be
00000220: 5ce6 403d 16b5 36be b2e0 25be 0604 333e
00000230: 94cb 1b3e 9823 95be 7fff 7ebe b36d 293e
00000240: 26ca ce3d 0a0b b93d b774 b93d a288 bc3e
00000250: 5952 9f3e f362 8bbd bebd babe e918 023e
00000260: 9f2d 9b3e 5f59 103f b86c 38bd 0b37 3fbe
00000270: 5121 0e3e 25a8 11be e3e4 a73e 0101 613e
00000280: 0a7c 3c3e 3bda 2d3e 4d66 0ebd 7815 933e
00000290: 1f7e 873e af06 20bd 490e 203d 7420 65be
000002a0: 0aa1 cbbe 120c 483e 9298 b2bc 2301 213d
000002b0: a58b 823e 4b32 b1bd 777e 5dbd 7c14 5dbd
000002c0: f704 cd3d e4ca c73e 3e39 3dbc b9cc f03d
000002d0: d510 71be a609 ab3f b1c3 27be b767 dfbd
000002e0: b0b5 a53e 61e6 383f a960 a1be 1913 30be
000002f0: d598 ff3d 1812 c73e 5d62 19bd 070c adbd
00000300: 72fd 8a3f a235 863d 210c 663d d976 cabe
00000310: ed59 c5be 22e9 753e ec58 82bd dce3 95bd

fc2.weight f4 [2, 60]
-0.031144083 0.10722875 0.24720421 0.2576091 -0.8008957 0.38260302 -0.93250245 0.024196101
0.257778 1.2063015 0.12620403 -0.24840829 -0.4403389 0.36305663 -0.4196701 -0.1852261
0.103656106 -0.22966023 -0.220986 -0.096072145 -0.89788246 -1.1759398 -0.08197078 -0.58660877
-0.14040609 0.1247083 -0.09498604 0.15355818 -0.0876438 -0.25207046 -0.16766629 -0.14698252
-1.6388557 -0.3401881 0.004610697 -0.05385659 0.0369141 -0.7323382 0.09066728 0.20145947
0.10704119 -0.71954215 -0.032149676 -0.24043556 0.27655393 0.66561687 0.18699653 -0.14532325
-0.006015326 0.36346018 0.2859819 -0.034136433 0.3792931 0.11139849 0.33204892 -0.09692681
-0.2760435 0.7887728 0.23118465 -0.06701837 -0.16533862 -0.11597776 -0.23103847 -0.25024137
0.61252403 -0.4032671 0.76069134 -0.15154338 -0.27952063 -1.2829477 -0.22431019 0.10170756
0.5289039 -0.29045564 0.3840931 0.19213605 0.06025944 0.22956535 0.335058 0.06877474
0.7336165 1.0858374 -0.06369837 0.42301998 0.1507875 -0.059888974 0.053721327 -0.19877732
-0.03342803 0.27398852 0.04788935 0.12729321 1.4154576 0.265557 -0.10512838 -0.03454663
-0.082439594 0.76498264 -0.033390503 -0.24713928 -0.11617677 0.55895466 0.097328104 0.31590357
-0.2865504 -0.7416573 -0.2024427 0.027253017 0.057989884 -0.2630679 -0.24670099 -0.104898736
-0.5387851 -0.05540498 -0.28246564 -0.07200662 0.27132756 -0.8303939 -0.40409386 0.02452458
00000000: e021 ffbc bf9a db3d 1a23 7d3e 57e5 833e
00000010: 8007 4dbf 8be4 c33e 7bb8 6ebf e736 c63c
00000020: 7afb 833e 1668 9a3f a13b 013e be5e 7ebe
00000030: 1a74 e1be 8fe2 b93e 00df d6be e9ab 3dbe
00000040: a749 d43d 0d2c 6bbe 274a 62be 79c1 c4bd
00000050: a0db 65bf 3285 96bf 4ce0 a7bd fe2b 16bf
00000060: 9dc6 0fbe 1167 ff3d 0a88 c2bd 5b3e 1d3e
00000070: 987e b3bd 610f 81be b6b0 2bbe 9682 16be
00000080: 06c6 d1bf 222d aebe 5415 973b ba98 5cbd
00000090: 3d33 173d 847a 3bbf c4af b93d 644b 4e3e
000000a0: 6938 db3d ea33 38bf 61af 03bd bd34 76be
000000b0: 7a98 8d3e de65 2a3f 057c 3f3e 9ecf 14be
000000c0: 361c c5bb 7417 ba3e 386c 923e a5d2 0bbd
000000d0: b532 c23e e424 e43d 5102 aa3e 9081 c6bd
000000e0: 9355 8dbe 04ed 493f abbb 6c3e ed40 89bd
000000f0: 874e 29be bf85 edbd 5995 6cbe a31f 80be
00000100: 60ce 1c3f 0679 cebe abbc 423f 302e 1bbe
00000110: 541d 8fbe a137 a4bf 92b1 65be 0e4c d03d
00000120: 3f66 073f 9ab6 94be daa7 c43e 50bf 443e
00000130: 9ad2 763d 2e13 6b3e b98c ab3e c5d9 8c3d
00000140: 4ace 3b3f b8fc 8a3f 4a74 82bd 1396 d83e
00000150: 0a68 1a3e 244e 75bd e50a 5c3d 488c 4bbe
00000160: d4eb 08bd 3948 8c3e a027 443d 2759 023e
00000170: b72d b53f 16f7 873e 8c4d d7bd c480 0dbd
00000180: 17d6 a8bd e7d5 433f 7bc4 08bd 1412 7dbe
00000190: 16ee edbd a717 0f3f f553 c73d 1dbe a13e
000001a0: bcb6 92be 41dd 3dbf 244d 4fbe b841 df3c
000001b0: cd86 6d3d d6b0 86be 2f9f 7cbe 26d5 d6bd
000001c0: d2ed 09bf 55f0 62bd 569f 90be 3578 93bd
000001d0: 72eb 8a3e b294 54bf 64e5 cebe c6e7 c83c

fc2.bias f4 [2]
-0.1546346 0.13936646
00000000: 8858 1ebe 15b6 0e3e
