speaker_id/models/model_mfcc.pth (torch_old, 75247 bytes, 6 tensors)

lstm.weight_ih_l0 f4 [200, 13]
000000 f8 91 50 3d b0 0b de 3e ca 3d 05 3f 6b bd 11 be
       0.050920457 0.43368292 0.5204741 -0.14232413
000010 12 1a 8e bc 53 18 21 bf 67 b8 8b be 66 24 0a be
       -0.017346416 -0.6292774 -0.27289125 -0.13490447
000020 05 38 97 3d 09 a5 a5 3e ac 78 86 3e 1d 88 6e be
       0.07383732 0.32352474 0.2626394 -0.2329411
000030 af e6 ac be b9 c2 00 be e0 8b 25 3e fb 82 1b 3e
       -0.33769748 -0.12574281 0.1616664 0.15186684
000040 b6 15 b9 3d e0 e5 08 3e 03 ee 2a bf 51 69 3d bf
       0.09037344 0.1336894 -0.6676943 -0.73988825
000050 12 75 d4 bd c5 6d 3c 3e 6d fa be be 47 8f 1f 3b
       -0.10373892 0.18401249 -0.37300435 0.0024346875
000060 cc 12 ec be 2f 03 01 bd a6 6e bf be 2c 59 fe 3e
       -0.4610809 -0.031497177 -0.37389106 0.49677408
000070 b5 4a 2b be 72 cb fe 3c 3e b6 40 3d 62 72 1f bf
       -0.16727717 0.03110287 0.0470488 -0.6228391
000080 72 ee 34 3f e2 56 fa bd 3d 4c 8b be 75 f1 3d bc
       0.7067634 -0.12223603 -0.27206603 -0.011593212
000090 b9 15 59 3e bf 79 38 be 31 75 fd be 42 e6 5d 3e
       0.21199693 -0.18015192 -0.49503472 0.21669868
0000a0 65 fb 55 3d 24 74 82 3f c0 f8 27 bf 57 75 bb 3e
       0.0522417 1.0191693 -0.6561394 0.3661296
0000b0 fc 9d c1 3e eb b5 aa be 06 64 05 bf 8d 0e 97 be
       0.37815845 -0.33341917 -0.5210575 -0.2950329
0000c0 b6 32 a8 3e f3 e1 db be 28 13 48 3e 7d ca 84 bf
       0.3285119 -0.42945823 0.19538558 -1.0374295
0000d0 28 b5 ad be f7 35 ea 3c f4 63 71 be 1f bd 84 3e
       -0.33927274 0.028590186 -0.23573285 0.25925538
0000e0 0a 8f 40 3f 8c 94 86 3e a9 40 fb be d8 4b c4 3e
       0.7521826 0.26285207 -0.4907277 0.38339114
0000f0 a2 aa 1e 3d e0 93 ec be d2 fd 99 be 28 3c 58 3d
       0.038736947 -0.4620657 -0.30076462 0.052791744
000100 9f 83 3c be d5 a3 e6 be 03 3f 15 bf f9 18 a2 3f
       -0.18409584 -0.4504687 -0.58299273 1.2663871
000110 7b ab de 3e 76 a9 2f bf db e2 11 3f c6 70 6b bf
       0.43490204 -0.6861795 0.5698678 -0.91968954
000120 bc 20 36 bf 21 44 39 bd 3e da a4 be 60 71 19 be
       -0.711437 -0.04523099 -0.32197756 -0.14984655
000130 5d 74 38 bf a1 a2 66 be c6 af c5 3b 95 9a 06 bf
       -0.72052556 -0.22522976 0.0060329167 -0.52579623
000140 bd a5 71 3d 7d bf c8 3f 4e cc 96 be bd b0 93 3e
       0.05899595 1.5683438 -0.29452747 0.28845778
000150 26 e1 1d bf 47 cd 09 bf da 2d 53 be 18 47 af bd
       -0.61671674 -0.53828853 -0.2062296 -0.08558482
000160 24 69 1f 3d ea f7 02 3d 8f 9a ac be 61 98 17 bf
       0.03891863 0.03197471 -0.3371167 -0.59216887
000170 5a 7b 2e bf e1 58 00 3f 12 05 24 be 58 33 c0 3c
       -0.6815697 0.5013562 -0.16017559 0.023461983
000180 a3 5b 73 be 74 b2 10 c0 97 a6 8d bd 1d e5 96 3d
       -0.23765425 -2.260892 -0.0691654 0.07367919
000190 8c 13 8a bf 92 9b 89 3e 7a c8 20 bf 2b fb 24 3f
       -1.0787215 0.26876503 -0.628059 0.6444575
0001a0 33 cd bd be 0a 03 af 3e ab 14 2d 3f e7 b0 37 bf
       -0.37070617 0.34182006 0.6760966 -0.71754307
0001b0 31 44 12 bf 2f ed 5a bf 6a 39 50 3c a6 a4 51 be
       -0.571353 -0.85518163 0.012709001 -0.20472965
0001c0 4c 46 be 3e 1d cc 99 3d 64 a8 a5 3e d1 f4 b0 3e
       0.37163007 0.07509635 0.32355034 0.3456178
0001d0 3d 54 5b be f9 5e 15 bf 58 b3 9e be ca 4a 27 3f
       -0.21418853 -0.5834804 -0.30996203 0.65348494
0001e0 8b 4e c5 bd 73 b9 95 3e 5b ea aa be 33 2a 35 bf
       -0.096341215 0.2924305 -0.33381924 -0.70767516
0001f0 3c ad 35 3f 6a 93 bc be e1 c9 f3 3d 15 71 8a 3b
       0.7096746 -0.36831218 0.1190374 0.004224906
000200 4f d3 5c bd 40 c3 97 3e 65 6e f6 3d a9 af bb 3e
       -0.053912457 0.2964115 0.12032775 0.36657456
000210 63 2f 5d be a6 6d 86 be ce f2 06 3e dd 01 a0 3d
       -0.21600108 -0.2625553 0.1317856 0.078128554
000220 2e 64 41 be 9a a9 3d 3e 43 34 86 bc b0 f5 3b be
       -0.18885872 0.18521729 -0.016382342 -0.18355441
000230 71 9d bf bd 82 9a 89 3d 26 3f 43 bd ea d6 4b bf
       -0.093562014 0.06718923 -0.047667645 -0.7962481
000240 d2 56 0b 40 b1 b6 42 be 1b 9b 3a 3f 2b eb fa bc
       2.177174 -0.19015004 0.7289292 -0.030629715
000250 03 04 9d be 0c 13 1f bf 87 86 a6 3e 67 81 51 be
       -0.30667123 -0.6213844 0.3252451 -0.2045952
000260 f2 4c 82 be 4a 36 98 be 14 a6 60 be ba 9a 3a be
       -0.2544933 -0.2972892 -0.21938354 -0.18223086
000270 3e c3 bc 3d 6e d8 3e 3f d5 7d 95 3f 56 2b c2 bf
       0.09216927 0.74548995 1.1679026 -1.5169475
000280 f2 36 3f 3e b7 0e 8a 3f 85 3a 42 3f cc c4 2a be
       0.18673304 1.0785741 0.75870544 -0.16676635
000290 d7 2a d1 bc 5c e1 64 3d 21 50 60 be c6 93 e7 3c
       -0.025533123 0.055878982 -0.21905567 0.028268706
0002a0 46 47 3f be cf fd 30 3e 8f 35 b6 be 7b 1b b3 bc
       -0.18679532 0.1728432 -0.35587737 -0.02186369
0002b0 c4 03 fb 3d ef 51 91 be cc 79 b5 be 1e d4 0c bf
       0.122565776 -0.28382823 -0.35444486 -0.55011165
0002c0 5d 2d 98 be ef f5 81 3e 4f 2c 4e 3c 8f 7e b9 3e
       -0.2972211 0.25382945 0.012583806 0.3622937
0002d0 2b 43 57 be 74 ab a3 be fd 6f ad be b8 ba 87 be
       -0.21021716 -0.31966746 -0.33874503 -0.26509643
0002e0 64 ce a9 3f 64 c8 15 3f 70 1b 30 3f 82 85 16 3f
       1.326611 0.58508897 0.68791866 0.58797467
0002f0 d0 46 51 be e2 aa a6 be dd e7 52 3e 89 2b 00 bf
       -0.20437169 -0.32552248 0.20596261 -0.5006643
000300 53 96 25 be 2d 61 87 3d 3a 9f 25 be 33 0a 0e bf
       -0.16170625 0.06610332 -0.16174021 -0.5548431
000310 d8 85 f2 3e 04 38 8f 3f 95 5e c8 be 3b 99 da 3e
       0.4736774 1.118897 -0.3913466 0.4269503
000320 6b 1a 75 bf 6b bf 3c bf 21 69 bd bf 68 0b 3e bf
       -0.95743436 -0.7372958 -1.4797708 -0.74236155
000330 8e 54 ae be a2 83 97 3e 47 f7 26 be ca ec b6 3e
       -0.34048885 0.29592615 -0.16305266 0.3572753
000340 aa 63 10 be 2b c8 79 be 73 45 26 3f de 94 7c 3f
       -0.14100519 -0.24392764 0.6494972 0.98664653
000350 8c 92 d6 3e cf 8e 03 3d 42 e7 93 3e c3 70 19 bd
       0.4190868 0.032118615 0.28887373 -0.037461054
000360 cb 58 09 bf b9 4a 4e 3f b7 1c 0b 3f 0c 34 38 3e
       -0.5365111 0.8058277 0.5434069 0.17988604
000370 07 2a 01 bf 99 09 3c be 95 a2 6d 3e 29 de 73 3f
       -0.50454754 -0.18363036 0.23206551 0.95260864
000380 7f 45 0e bf 3e fe b2 be 01 f6 04 bf 45 97 d3 be
       -0.5557479 -0.34959596 -0.5193787 -0.41326347
000390 8c 6a 3b bf 37 d4 39 be 33 d6 28 be 33 7e 00 3e
       -0.7320945 -0.1814736 -0.1648796 0.12548141
0003a0 dd a8 71 3e 3a ca d4 3d ac cd f4 bb 18 89 84 3e
       0.23599572 0.10390134 -0.007470807 0.25885844
0003b0 df 6a de be 36 28 2e 3d a9 a7 a1 be d0 f7 7f 3e
       -0.4344091 0.042518817 -0.31573227 0.24996877
0003c0 7c 8e 95 3d 4d b1 02 bf 11 35 6f bd eb 18 a4 be
       0.07302567 -0.5105179 -0.058400217 -0.3205026
0003d0 ea d6 89 be 94 fa ee be 0f 2f 48 3e 86 ff 4f be
       -0.2692178 -0.4667555 0.19549201 -0.20312318
0003e0 7f 4e ed be 89 bc e0 3e 72 e4 a5 3e 78 c0 c9 3e
       -0.4634895 0.4389384 0.32400852 0.39404655
0003f0 fe 94 d2 3c 56 48 08 be 0b 67 1e 3d 8a 84 3f bf
       0.02570581 -0.13308844 0.03867249 -0.74811614

lstm.weight_hh_l0 f4 [200, 50]
000000 25 b1 01 3f 8e 77 e1 be 9c 4d 58 be d5 5c b6 bd
       0.50660926 -0.44036525 -0.21123356 -0.08904425
000010 3e d4 85 3e 01 a5 2a bc b7 f0 44 3c 68 59 35 bf
       0.2613849 -0.010415317 0.0120202815 -0.7083955
000020 a1 86 85 be 72 59 97 3e 6b 7c 0b 3e 9b 01 e2 3d
       -0.26079276 0.2956043 0.1362168 0.110354625
000030 eb a5 2e 3e 84 b1 5f 3e c9 97 ab be 57 d2 8d bc
       0.1705548 0.2184506 -0.3351424 -0.017312212
000040 b2 b3 29 be 86 62 77 be c1 9c 4f 3e 2a 03 d1 3e
       -0.16572455 -0.24158677 0.2027464 0.40822726
000050 3d d0 83 3e a6 10 44 3d 20 9e cc be ac 1d 83 be
       0.2574481 0.04786744 -0.3996439 -0.25608575
000060 39 9c a3 bd 9e 06 87 3e a5 27 64 be a4 3f 28 bf
       -0.079887815 0.26372236 -0.22280748 -0.6572211
000070 7d 82 b6 be 1d 6e 02 be ee 94 1e 3e 22 ed f2 3e
       -0.3564643 -0.12737317 0.154865 0.47446543
000080 13 4f d2 be 42 b0 9e bd c3 dd 21 be 07 ce 62 3d
       -0.41075954 -0.07748462 -0.15807252 0.055372264
000090 5f 3b 24 3e 79 1f bc bd d3 41 2b bf a2 35 8f be
       0.16038273 -0.091856904 -0.66897315 -0.27970606
0000a0 88 3e b2 be 0c 70 77 be 2e db 5a 3e 03 1f cb 3c
       -0.34813333 -0.24163836 0.21372673 0.024795061
0000b0 1a ee 09 3f 32 a1 ad 3e b7 ae 9e be af 84 80 3e
       0.5387894 0.33912045 -0.30992672 0.2510123
0000c0 0a 5a 91 3d 5d 29 7a 3e 67 7f f5 be ed 12 e8 3e
       0.07097252 0.24429841 -0.47948763 0.4532694
0000d0 02 6f bf be ee 98 ae 3d 3f 95 e1 3d 1f a6 06 3e
       -0.3738938 0.08525263 0.110147946 0.13149308
0000e0 b0 0a 02 3e 8f 8c ef 3d e8 97 87 bd ed 09 8a 3c
       0.1269939 0.11696731 -0.06620771 0.016850436
0000f0 b3 07 c9 3d a0 d6 8e bc fc 32 56 3e 33 b3 56 3e
       0.09815922 -0.017436326 0.20917886 0.20966797
000100 3b ed 73 3e 33 80 fa 3e 0b 48 97 bd fc 14 8d 3e
       0.23820965 0.48925933 -0.07386788 0.27555072
000110 ae df dc 3e 79 01 f7 bd 38 9f fe bc 66 31 e1 3e
       0.43139404 -0.12060828 -0.03108178 0.43983
000120 68 b4 55 be 0d 07 e0 be 46 cc c9 3e 9c 5e 16 be
       -0.20869601 -0.4375538 0.3941366 -0.14684528
000130 85 e7 97 be 3d bb 8b be 62 02 74 be aa 6d 13 3e
       -0.29668823 -0.2729129 -0.23829034 0.14397302
000140 3a 14 e4 3c 65 c0 30 bd d8 e9 24 be b3 53 09 3f
       0.027841676 -0.04315223 -0.1610483 0.5364334
000150 a0 96 22 3e 54 d2 de 3d 78 84 a1 bd fd b7 d2 3c
       0.15877771 0.10879961 -0.078865945 0.025722498
000160 82 87 95 be 0a a0 37 be 3d b0 67 be 39 81 d2 3d
       -0.29204947 -0.17932144 -0.22625823 0.102785535
000170 29 3f 10 3f 72 d1 c3 3e b9 a7 a4 bd 19 a9 a9 3d
       0.56346375 0.38245732 -0.08039803 0.08284206
000180 cd 09 8c bd 71 57 a1 3d e0 35 6a be bb 6f 07 3d
       -0.06837807 0.07878006 -0.22872114 0.03306554
000190 16 0c 86 3e 76 3d a2 bd c2 d0 d9 3e da 40 3c be
       0.26181096 -0.07921879 0.42542082 -0.18384114
0001a0 e3 61 87 be d3 ff e0 3d d7 a8 27 3e c1 25 3a be
       -0.2644187 0.109862946 0.16373001 -0.18178464
0001b0 29 3a 50 3d d4 ec 9d be 08 4e 34 3e f6 97 d9 3d
       0.050836716 -0.30844748 0.17607892 0.106246874
0001c0 92 c8 12 be 92 76 e6 3e c1 2a 0d 3e 30 9f 2b 3e
       -0.14334324 0.45012337 0.1378584 0.16759944
0001d0 39 c4 94 3e 71 9d bd 3e be 2a 58 3e 13 70 59 bd
       0.29055956 0.3703418 0.21110055 -0.053085398
0001e0 54 dc f2 3d 2c 24 bf bd 3f a6 fc 3c e2 12 54 bf
       0.118584305 -0.09333071 0.030840991 -0.8284131
0001f0 f9 bc 4e 3e ac af 0e bd 05 72 50 be fb ff 11 be
       0.20189275 -0.034835503 -0.20355995 -0.14257805
000200 2f 1c db be 52 8b 27 3c 7f 65 4b 3e a8 d9 62 be
       -0.4279494 0.010226088 0.19862936 -0.22153342
000210 17 d8 74 be 90 16 e5 3d af d7 6d 3e db 69 52 be
       -0.23910557 0.11185944 0.23226808 -0.20548193
000220 b1 d7 28 be 0b 58 9c 3e 05 21 5f be 39 56 04 3e
       -0.1648853 0.3053592 -0.2178994 0.12923516
000230 21 46 50 bc 76 ca fa 3a ea d4 e5 3e 9d e7 e7 bd
       -0.0127120325 0.0019133824 0.44889003 -0.113234736
000240 68 34 a8 be cd 10 2b bd ca b1 58 3e fa e1 56 bc
       -0.32852483 -0.04176407 0.21161571 -0.0131154
000250 d5 e0 ce bd 36 54 01 3f a9 55 2b be ff 69 57 be
       -0.10101477 0.5051912 -0.16731896 -0.21036528
000260 da 23 09 bf be 43 77 3e 2d 41 be 3e d3 a6 e4 3e
       -0.5357033 0.24146935 0.371591 0.44658527
000270 9c 36 82 3e c7 27 94 bd 0b 3a 95 be 90 00 9e 3e
       0.2543229 -0.072341494 -0.29145846 0.30859804
000280 16 99 2a be f9 64 94 bc b8 5a 71 be 29 d2 de 3d
       -0.1665996 -0.018114554 -0.23569763 0.108799286
000290 df 17 dc 3e b2 90 db be 45 6f 0f bf 5b ee 9c 3d
       0.42986962 -0.4288383 -0.5602916 0.0766265
0002a0 3f 9e e0 3e 8f 01 85 3e 81 23 1e 3e eb d3 9e 3e
       0.43870732 0.25977752 0.15443231 0.31021056
0002b0 af b6 f5 bd 82 39 17 bf c6 c4 29 be a3 cd 1e bd
       -0.11997735 -0.59072125 -0.1657897 -0.03877033
0002c0 33 68 c7 be e7 ad 88 bd bf 96 b5 be 67 33 75 be
       -0.38946685 -0.06673794 -0.35466573 -0.2394539
0002d0 73 ea 9a 3e 77 98 bb be 15 c1 14 bf 69 12 a3 3e
       0.30256996 -0.3663976 -0.5810712 0.31849983
0002e0 62 fb f7 bc 32 f4 92 3e d0 53 54 3d 91 88 1b 3e
       -0.030271236 0.2870193 0.051837742 0.15188815
0002f0 5c 64 33 3d 95 71 98 3d 91 b9 da be 96 8c 37 be
       0.043796882 0.07443539 -0.427197 -0.17924723
000300 7e 47 10 3f 62 d6 d1 3e 5b 8c 0e 3e 22 44 31 3e
       0.5635909 0.40983874 0.13920729 0.17311147
000310 40 80 9c be 37 88 a7 3e f4 16 28 be 82 f9 1c 3e
       -0.30566597 0.3272111 -0.16415006 0.15329555
000320 fa 44 87 be 22 64 7b be 8d 04 6c 3d a0 b1 6f bc
       -0.26419812 -0.24549916 0.057621527 -0.014629751
000330 c5 38 51 3e 7f c8 14 be 1c af 4b 3c 6e d0 d4 bc
       0.20431812 -0.14529608 0.012431886 -0.025978293
000340 d0 59 2b 3e 5f cb 68 bb 17 2a 20 3e 07 1d 3a 3e
       0.1673348 -0.003552161 0.15641056 0.18175136
000350 ff ca 3e bd 84 12 c0 3e 2c d6 77 3c 99 29 16 be
       -0.04658031 0.37514126 0.015126746 -0.14664306
000360 ad 11 a6 be 38 c8 43 be 3f 37 80 3e 77 2f a5 bd
       -0.3243536 -0.19119346 0.2504215 -0.08065694
000370 ee d9 f9 3d 73 9a c5 3d 56 41 50 3d 56 20 8a be
       0.1219977 0.096485995 0.05084356 -0.26977795
000380 5e a3 a5 bd 6b 9d 28 3f 10 f3 41 bd 50 1d a3 bd
       -0.080878004 0.658652 -0.047350943 -0.07964575
000390 70 ab 7e be 7d ba 69 3c b2 b4 24 be 9f 15 af ba
       -0.24870086 0.014265654 -0.16084555 -0.0013357884
0003a0 cd 7c ba be e0 44 65 3d a7 92 64 3d 17 92 77 3b
       -0.3642334 0.055973887 0.05580392 0.0037776285
0003b0 04 d0 13 3d d5 a4 e1 3d d8 62 e7 bd 54 47 fa be
       0.03608705 0.11017767 -0.1129815 -0.48882544
0003c0 6b ef 8e be da 64 6e 3e 98 28 0a 3e 25 6d cb 3d
       -0.27917036 0.2328066 0.13492048 0.09932927
0003d0 64 62 85 3d 0a 8a 8a 3e 2c ae 88 3e b9 f6 70 3e
       0.06512907 0.2705844 0.26695383 0.23531617
0003e0 fd fe c0 3c a3 17 ab 3e 6f 9f 08 bf 8a 38 ee 3b
       0.023559088 0.3341647 -0.53368276 0.0072699236
0003f0 3c f8 15 be 40 08 51 be 19 31 9b 3e e4 93 34 3e
       -0.14645475 -0.20413303 0.30310896 0.17634541

lstm.bias_ih_l0 f4 [200]
000000 6d f0 2e bf c2 68 13 bf 5f 5a 9e bf df 98 0f bf
       -0.6833561 -0.5758172 -1.2371329 -0.5609264
000010 4e 20 15 bf 5e fd 23 bf 88 90 0b bf 62 44 28 bf
       -0.5825242 -0.6405848 -0.5451741 -0.65729344
000020 c2 4f a8 bf 85 c1 88 bf 44 81 59 bf 7a 5c a0 bf
       -1.314934 -1.0684057 -0.8496287 -1.2528222
000030 b7 11 30 bf 1e b4 fa bd 8b 2f 1f bf cb 7d 22 bf
       -0.6877703 -0.12241386 -0.6218192 -0.63473195
000040 2f c3 64 bf cd 53 99 bf 40 60 6f bf 48 4c 70 bf
       -0.89360327 -1.1978699 -0.9350624 -0.93866396
000050 29 be 8f bf 79 92 a6 be 6a 0d d6 bd 66 eb e6 be
       -1.1229907 -0.32533625 -0.10451777 -0.4510147
000060 32 27 0d bf ab f6 58 bf 94 26 f4 be c5 cc 74 bf
       -0.5513793 -0.84751385 -0.47685683 -0.95624954
000070 b8 a3 5d bf 57 f5 7d bf 02 76 2c bf 67 21 50 bf
       -0.8657794 -0.99202484 -0.67367566 -0.8130097
000080 38 fb 5a bf c1 a2 63 bf 3e 33 94 be 60 d1 27 bf
       -0.8553958 -0.8892022 -0.28945345 -0.65553856
000090 f3 5e ed be d8 48 65 bf de 54 9e bf d7 34 8b bc
       -0.46361503 -0.89564276 -1.236965 -0.01699297
0000a0 75 79 ff be 11 27 c2 be b2 c0 59 bf 02 98 8f bf
       -0.49897352 -0.3792043 -0.85059655 -1.1218264
0000b0 4b 66 8c bf af b5 6d bf 8b 1a a2 bf 1f eb 81 be
       -1.0968717 -0.9285535 -1.266435 -0.25374696
0000c0 f6 25 49 bf 25 40 36 bf e1 b8 4a 3f b6 7e 35 3f
       -0.7857355 -0.71191627 0.7918835 0.7089647
0000d0 5d 75 bc 3f 37 d1 8a 3e 2d c1 52 3f b8 12 12 3f
       1.4723316 0.27112743 0.8232601 0.5705981
0000e0 d3 40 24 3f bc a7 ab 3f b4 5a 74 3f 5f 4d 1d 3f
       0.64161414 1.3410563 0.954509 0.61446184
0000f0 67 93 6c 3f 54 16 c2 3f 58 26 3c 3f 94 31 17 3f
       0.9241242 1.5163064 0.7349601 0.59060025
000100 4b d3 5d 3d 31 a3 c0 3e 06 9f 7d 3e 27 a7 5b 3f
       0.054156583 0.37624505 0.24767694 0.8580193
000110 ff 1a 84 3f 7f 3d 3d 3f 4c e0 bb 3f dc 7a 0c 3f
       1.0320739 0.7392196 1.4677825 0.5487497
000120 90 81 7e 3f ac c9 ed 3e ce f0 5b 3f 78 1d b4 3f
       0.99416447 0.46442926 0.85914314 1.4071493
000130 d1 e5 7c 3f 84 05 4d 3f d4 0f e0 3f 3a b7 93 3f
       0.9878817 0.8008654 1.750483 1.1540291
000140 5c 1c db 3e 65 4a 5e 3f c9 45 74 3f 99 9f a4 3f
       0.42795074 0.8683227 0.95418984 1.2861205
000150 95 f0 a9 3d 2a 2a 31 3f 3f 47 01 3f 25 b7 2f 3f
       0.082978405 0.6920496 0.5049934 0.6863883
000160 55 9d 92 3f f2 a7 e0 3e 7b 7f 0d 3f 8d 38 7d 3f
       1.1454264 0.43878132 0.55272645 0.98914415
000170 a8 5f 6c 3f 83 75 b0 3f 03 b7 6d 3f a9 00 22 3f
       0.9233346 1.3785862 0.9285738 0.6328226
000180 23 e4 9b 3f 17 bc d7 3e 73 a0 4b 3f 45 2a 10 3f
       1.2178997 0.4213569 0.795417 0.563145
000190 09 4c a7 3c 65 da b5 3e 6b 97 1c 3e 1b 6c dc 3e
       0.020421999 0.35518184 0.15292136 0.43051228
0001a0 f9 5e d4 be f1 00 6b bf 0d 44 36 bf b0 5a b3 3e
       -0.41478708 -0.9179831 -0.7119759 0.35030127
0001b0 9f db 87 3e 57 cf ba be 17 59 8f bf 82 0c 88 3d
       0.26534745 -0.36486313 -1.1199063 0.06643011
0001c0 df ed 80 bf b5 c5 0d bf a5 18 2a 3f b3 8d a1 be
       -1.0072592 -0.553798 0.66443855 -0.3155342
0001d0 0c 9f b7 bd 85 ce a4 be a5 82 11 be dd f1 89 bf
       -0.08965883 -0.32188812 -0.14209993 -1.0776936
0001e0 7b d7 0f 3f 11 60 42 3f 18 96 2b 3f 73 da 80 40
       0.5618817 0.75927836 0.670259 4.026666
0001f0 c1 d6 04 be 89 8a 31 3f 14 1c 38 3e e0 e9 8a 3e
       -0.12972547 0.6935201 0.17979461 0.27131557
000200 12 94 45 be 0d 11 d8 3d 5c 13 1a 3e 7f e6 cc 3e
       -0.19294766 0.10550127 0.15046448 0.40019605
000210 cf 58 15 be 41 f4 f5 be 96 94 17 bf 59 41 53 3f
       -0.14584659 -0.48037913 -0.592111 0.8252159
000220 b4 f0 3c 3e 94 2a 4d bb b6 5a 07 bf c4 d1 87 3f
       0.18451196 -0.0031305896 -0.5287279 1.061089
000230 79 f7 53 3f 14 22 88 be f9 69 6a 3d 19 55 32 bf
       0.8279949 -0.265885 0.05722997 -0.696611
000240 7e cd d1 be 3a b6 d5 3d 76 4e c8 be 63 8e 1a be
       -0.4097709 0.104351476 -0.3912236 -0.15093379
000250 6b 0c 70 3f b4 e3 7a bf 06 36 d9 3e 7a 8d d0 3e
       0.9376895 -0.980037 0.4242403 0.40732938
000260 b0 f9 84 3f 26 49 c9 3e 22 8e 07 3f 22 20 08 3f
       1.0388699 0.3931362 0.5295125 0.5317403
000270 81 30 3e 3e b3 90 76 3f a5 fb 50 3f 96 09 fd 3e
       0.1857319 0.96314543 0.8163398 0.49421376
000280 f2 15 00 3f 76 1f 6b 3f a4 d3 39 3f 3d a3 d5 3e
       0.50033486 0.9184488 0.7258856 0.41726103
000290 e7 da 08 bd 31 40 f6 3e 97 a0 91 3e 53 f5 0e 3f
       -0.033411887 0.4809585 0.28442833 0.55843085
0002a0 30 9b e5 3e f6 a7 f1 3e 57 21 83 3f 75 dd 74 3f
       0.4484496 0.47198457 1.024455 0.95650417
0002b0 4a 60 25 3f e7 b8 c5 3e 7f f5 7d 3f f8 38 2a 3f
       0.6460005 0.38617632 0.9920272 0.6649318
0002c0 b1 7b 9e 3e 07 b8 f3 3e 82 ce a4 3f 51 49 4f 3f
       0.30953744 0.4760134 1.2875521 0.80971247
0002d0 07 04 25 3f b9 22 80 3f 4a bb 31 3f 2c 45 80 3f
       0.6445927 1.0010597 0.69426405 1.002111
0002e0 e9 37 91 3d 8d ab 53 3f 8c 4e a6 3e d9 c1 e5 3e
       0.07090742 0.8268364 0.32481802 0.44874457
0002f0 a7 6a 04 3f fe f5 13 3f c7 7e 24 3f 58 2f 22 3f
       0.5172524 0.5779723 0.64255947 0.6335349
000300 a7 57 31 3f a9 e6 6c 3f b8 dd 34 3f 13 cc 01 3f
       0.6927437 0.9253946 0.70650816 0.5070202
000310 d9 99 8b 3f 01 c8 c5 3e 1f 1f 5b 3f 67 e3 f7 3e
       1.0906326 0.38629153 0.8559436 0.48415682

lstm.bias_hh_l0 f4 [200]
000000 11 db 61 bf b9 e2 27 bf bd 88 a5 bf 1f 86 ae be
       -0.88224894 -0.65580326 -1.2932354 -0.340867
000010 c7 8e 0b bf ea b1 4a bf 26 1d d6 be f7 31 3b bf
       -0.54514736 -0.79177725 -0.41819113 -0.73123115
000020 71 6a a8 bf 6c a6 93 bf 20 ab 30 bf ac 4f c2 bf
       -1.3157483 -1.1535163 -0.69011116 -1.5180564
000030 e6 29 53 bf 51 6e ae be f4 f1 3b bf 7f 54 26 bf
       -0.82485807 -0.3406854 -0.73416066 -0.6497268
000040 e4 05 78 bf d7 db ae bf cd a9 46 bf e9 64 4b bf
       -0.9688399 -1.366084 -0.77602845 -0.7945085
000050 ff bc 96 bf ab 0c a3 be 2d f0 93 be cc 28 c4 be
       -1.1776427 -0.31845602 -0.28894177 -0.38312376
000060 b0 31 de be 76 c2 41 bf 41 45 d9 be f2 5a 7a bf
       -0.43397284 -0.7568735 -0.4243565 -0.9779502
000070 78 a6 55 bf 4b 71 92 bf 5f 5a 0f bf 8b 2b 64 bf
       -0.83457136 -1.1440824 -0.5599727 -0.8912894
000080 b0 5a 47 bf 54 b2 8d bf 64 e2 17 be 3c 38 3c bf
       -0.77872753 -1.1070046 -0.14832455 -0.73523307
000090 ba 9b 6e be 1b 86 6b bf 5f dc 9d bf f2 23 a8 3c
       -0.23301592 -0.92001504 -1.2332877 0.020524953
0000a0 d7 b0 a2 be 0d f4 f3 be ca 27 63 bf 09 63 6f bf
       -0.31775543 -0.47647133 -0.8873259 -0.9351049
0000b0 8f 5b 87 bf 52 01 95 bf 54 56 9e bf a5 3e 17 be
       -1.0574816 -1.1641028 -1.2370095 -0.1476999
0000c0 ab 8f 54 bf 08 db 51 bf f3 e3 39 3f ac 05 56 3f
       -0.8303172 -0.8197484 0.7261345 0.83602405
0000d0 59 cd b0 3f ca 94 03 3f 30 2c 6a 3f 54 fe 2e 3f
       1.3812667 0.5139891 0.91473675 0.68356824
0000e0 6b 2f 23 3f e1 10 98 3f 29 c7 38 3f 8d 9e 2b 3f
       0.6374423 1.1880151 0.72178894 0.67038804
0000f0 b9 3d 7d 3f f4 7d be 3f cb 35 60 3f 85 d9 dd 3e
       0.98922306 1.4882188 0.8758208 0.43330017
000100 eb 31 82 3e 55 5b d2 3e 13 90 af 3e a2 d0 63 3f
       0.2542871 0.41085306 0.34289607 0.88990223
000110 f5 8d 8e 3f 33 46 06 3f 15 16 c3 3f 76 c5 42 3f
       1.1137072 0.52450866 1.5241114 0.7608255
000120 f1 d6 41 3f e8 43 00 3f d5 5a 6a 3f 6a ef b6 3f
       0.757186 0.50103617 0.9154485 1.4291813
000130 31 71 4b 3f 41 b8 13 3f f3 fb f2 3f 67 67 8f 3f
       0.7946959 0.57703024 1.8983139 1.1203431
000140 dd 32 c1 3e 6d b2 5c 3f 89 fe 4f 3f 6b 21 94 3f
       0.37734118 0.86209756 0.81247765 1.1572698
000150 85 b1 56 bd 48 75 52 3f 4a b6 d6 3e 24 37 2b 3f
       -0.05241539 0.82210207 0.4193595 0.6688101
000160 cc cd 92 3f 1d 3c f1 3e 16 60 14 3f c7 a0 84 3f
       1.1469054 0.47116175 0.57959116 1.0361565
000170 0d 57 45 3f 14 91 b9 3f 64 d8 72 3f 74 68 32 3f
       0.77085954 1.4497399 0.94861436 0.6969063
000180 89 2a a9 3f 51 18 70 3e 25 7a 34 3f 8a e6 cb 3e
       1.3216106 0.23446776 0.7049888 0.39824325
000190 bb a3 76 3e 02 17 b2 3e 8c a1 33 3e 60 51 bf 3e
       0.24085896 0.3478318 0.17542094 0.37366772
0001a0 27 3f a9 be c0 18 85 bf c6 ba 77 bf 60 96 b4 3e
       -0.33055994 -1.0398178 -0.9676937 0.35270977
0001b0 1d ef 8a 3d 26 c9 15 bf 47 7c a7 bf 2d ce 40 3e
       0.067838885 -0.58510053 -1.3084801 0.1882865
0001c0 2d 45 90 bf e1 ba 04 bf 20 9e 20 3f fc bd 03 bf
       -1.1271111 -0.51847655 0.6274128 -0.5146177
0001d0 0a 91 8e be 6b 96 a6 be 35 4b 8f bd 26 3e 65 bf
       -0.2784503 -0.32536635 -0.069967665 -0.89547956
0001e0 f8 10 e4 3e ed b2 6c 3f bf 9c 06 3f 60 fc 86 40
       0.44544196 0.9246052 0.52582926 4.2183075
0001f0 f1 a8 9b bd e9 b8 2b 3f 46 cd b9 3e fe aa c0 3e
       -0.076005824 0.67079026 0.36289424 0.37630457
000200 fd 31 07 bd f7 e0 e0 3d 62 3f 92 3e 93 53 ac 3e
       -0.033006657 0.10980409 0.28563982 0.33657512
000210 20 14 22 3d c9 3c 0d bf 9f df ce be 8c 88 16 3f
       0.039569974 -0.55170876 -0.40404984 0.58802104
000220 cb 84 b8 3e 0a 1f 1b 3d e7 56 2b bf cd a5 97 3f
       0.36038813 0.037871398 -0.6692948 1.1847473
000230 bd 4a 48 3f d3 40 5b be 0d 09 50 bd 83 0d 0d bf
       0.7823904 -0.21411447 -0.05078988 -0.5509874
000240 5b 57 7a be 80 e2 86 3e 6a 64 9f be 59 98 1a be
       -0.24447386 0.2634468 -0.31131297 -0.15097179
000250 9d 38 86 3f 22 82 86 bf 77 03 00 3f 94 cf b1 3e
       1.0486027 -1.0508463 0.50005287 0.34728682
000260 e2 e1 63 3f 38 a1 f3 3e 1f 4c e8 3e 57 9d 18 3f
       0.89016545 0.47583938 0.45370576 0.5961508
000270 13 03 ab 3e 6d e2 67 3f 55 b9 6e 3f da a3 37 3f
       0.33400783 0.90579873 0.93251544 0.7173439
000280 f5 0c 0a 3f 16 dd 7e 3f f5 08 40 3f 58 5b 25 3f
       0.5392602 0.995561 0.7501367 0.64592505
000290 78 c5 a4 3d fe ff 85 3e 04 b1 0c 3e 0d 9d 13 3f
       0.08045477 0.2617187 0.13739401 0.57661515
0002a0 b6 82 09 3f 48 b5 1a 3f 85 ca 80 3f 3d 8c 87 3f
       0.53715074 0.60432863 1.0061804 1.0589672
0002b0 d5 e0 44 3f da 70 ee 3e b4 43 5b 3f 7f 46 29 3f
       0.76905566 0.46570474 0.8565018 0.66123194
0002c0 25 64 dc 3e 40 a9 31 3f 8c a0 97 3f ff bd 5b 3f
       0.43045154 0.6939888 1.184587 0.85836786
0002d0 6d 33 2a 3f 9f 44 7e 3f 29 bb 55 3f 3e 20 7b 3f
       0.6648472 0.9932346 0.8348871 0.9809607
0002e0 54 6c 5d 3e 99 d3 37 3f e9 74 c1 3e 45 83 8a 3e
       0.21623355 0.7180725 0.37784508 0.27053276
0002f0 42 2e 32 3f ea ad 26 3f e6 1b 00 3f be f6 28 3f
       0.69601834 0.6510912 0.5004257 0.660015
000300 d6 60 13 3f 1d 97 80 3f db 89 0b 3f 28 43 ba 3e
       0.57569635 1.0046116 0.54507226 0.3637936
000310 f1 0c 8c 3f a7 5d 01 3f 94 3c 2e 3f 62 98 d3 3e
       1.0941449 0.5053353 0.68061185 0.41327196

fc.weight f4 [109, 50]
000000 d9 49 52 3f 31 e8 e2 3e eb 0d 50 3e 0b 0a 03 be
       0.8214393 0.44317773 0.2031781 -0.127968
000010 42 5f 2a 3d 61 c3 82 be e6 cd 99 3e ac d1 41 bf
       0.04159475 -0.25539687 0.300399 -0.7571056
000020 81 82 03 3e 43 59 bb be 62 13 49 3e 68 8e f8 3e
       0.12842752 -0.3659154 0.196363 0.48546147
000030 71 ca bf 3e 9d 5a 6e bf bd 0e 25 bd 6f b4 38 3f
       0.37459138 -0.93107015 -0.04029726 0.7215032
000040 41 28 c2 3e 03 44 23 bf eb ed a0 be 67 d9 55 bd
       0.37921336 -0.6377565 -0.31431517 -0.052209284
000050 cd c6 5e 3d 1a 89 56 be f4 78 4c bf ad f0 0e 3f
       0.05438881 -0.20950738 -0.7987206 0.5583599
000060 5d df a6 bf 6d 6d 93 be 0c ba b1 3d 8c 70 db be
       -1.3036915 -0.28794423 0.08678064 -0.42859304
000070 43 88 b5 3e 4a 02 07 3f 19 95 27 3f ec 88 aa 3f
       0.35455522 0.5273787 0.6546188 1.3323035
000080 20 50 8d 3e 18 43 1f 3e 06 3e 1d 3d 24 f4 b9 3c
       0.27600193 0.15552938 0.03838923 0.022699423
000090 ba 0d 62 bd cb ec 11 bf 90 cc 73 3f 22 99 4e 3e
       -0.055188872 -0.5700194 0.9523401 0.20175603
0000a0 e2 f0 12 3f df 0f 51 3f 71 98 9d bf f5 1b 40 be
       0.5739881 0.8166484 -1.2312146 -0.18760665
0000b0 f2 0a 51 bf 8e 97 0a bf a6 89 f0 be 98 69 ee 3d
       -0.81657326 -0.54137504 -0.46980017 0.11641234
0000c0 bc e2 7f 3d 6d 14 5e bf 1a 0f a9 be 51 5d 00 3f
       0.06247209 -0.8674992 -0.33019334 0.5014239
0000d0 10 a7 cb bf ef 34 95 3e 0b 6d ac 3f 5e 38 86 3f
       -1.5910358 0.29141948 1.3470777 1.0485952
0000e0 66 0a de 3e b1 e6 41 be 98 af 03 3f 86 27 4b 3d
       0.43367308 -0.18935658 0.5143981 0.04959824
0000f0 96 06 e6 3e ee 21 2a 3e 0f c2 16 bf 6c 1d 1f bf
       0.449269 0.16614506 -0.5888986 -0.6215427
000100 41 99 f6 3d 08 7a b3 be a7 bd 9d bd 43 b5 ac bf
       0.120409496 -0.3505404 -0.07702189 -1.3492817
000110 59 0c 76 3e fb ae 10 be 41 bd a3 be c6 b6 24 3f
       0.24028148 -0.1412925 -0.31980327 0.6434139
000120 24 cf 16 bd fd b0 92 3c 53 95 a5 3d 4e a6 6c bf
       -0.03681864 0.01790666 0.08085122 -0.9244126
000130 92 f3 c1 bf dc 0d af bc af 42 20 bf d7 48 91 3f
       -1.5152457 -0.021368913 -0.6260175 1.1350354
000140 e3 4e 06 3f e6 43 de be 17 20 6a be 36 7e ee be
       0.5246412 -0.43411177 -0.22863804 -0.46580666
000150 6c 69 3e 3f 82 d5 79 3e 79 47 8b bf b6 fe 95 bf
       0.7437961 0.24397853 -1.0881187 -1.1718357
000160 dc 55 c3 bf 05 e4 85 bd 53 60 02 3e c8 79 01 3f
       -1.5260577 -0.06537632 0.12732057 0.5057645
000170 c1 72 c7 be be 2c 1f 3f 1c 64 72 3f d5 52 de be
       -0.38954738 0.62177646 0.94684005 -0.4342257
000180 43 13 a3 bf 67 02 b7 bd af 6c 09 3f af e5 0c be
       -1.2740253 -0.08936005 0.53681463 -0.13759492
000190 8b 24 c1 bd 47 b5 9c 3e 52 c3 8c be 3b bc 90 3f
       -0.09430798 0.30607054 -0.27492768 1.1307443
0001a0 da c6 d9 3e 1c c6 58 3f 93 c1 8d 3d fc c4 81 3d
       0.42534524 0.8467729 0.06921687 0.063364
0001b0 cf 95 1d 3f 66 64 83 be 8b 0f f5 3e 5a d4 11 bf
       0.61556715 -0.25662535 0.4786342 -0.5696465
0001c0 6b 9b 69 3d 06 f2 78 be 6f 90 4d 3f 2b 64 2c 3f
       0.057032984 -0.24311075 0.80298513 0.67340344
0001d0 d0 fb 47 3f 7c 99 bd bf 5f 2d eb 3e ab 85 69 3f
       0.7811861 -1.4812465 0.45933053 0.91219586
0001e0 50 f7 a1 bd 70 5e 42 3f 82 0b 8e be cd 1b 1e bf
       -0.07908499 0.7592535 -0.27743155 -0.6176117
0001f0 f0 0d 42 bf fd 35 11 3f 65 7c ff be d2 d9 35 be
       -0.75802517 0.56723005 -0.49899593 -0.17758873
000200 10 dd 06 c0 3d 86 c1 3e 43 67 55 3e ed 3c a6 3e
       -2.1072426 0.37797728 0.20840172 0.32468358
000210 96 7c e1 be 28 c0 9b bf f8 6b 06 3f 3c 8b b4 3f
       -0.44040364 -1.2168016 0.525085 1.4104991
000220 88 9c 35 3f c4 ae 84 bf f7 d5 79 bf 69 13 bf be
       0.7094197 -1.0365834 -0.9759211 -0.37319496
000230 d4 60 12 bf 79 cc d7 3e b6 4f 07 3e b5 d3 4c bf
       -0.57179 0.42148188 0.13214001 -0.8001054
000240 e4 4d 08 3e e1 5e 87 bf bc ce a2 be 72 65 62 3c
       0.13310963 -1.057583 -0.3179835 0.013818132
000250 18 3d 8f 3d 6a 8e 4a 3e 90 d4 c8 be b4 5e df 3e
       0.069940746 0.19780889 -0.39224672 0.4362694
000260 d8 98 2d 3e bc 87 8d bf 5d 74 ca bc 3d 32 94 bf
       0.16952837 -1.1057048 -0.02471369 -1.1577832
000270 08 2d 3f bd b4 32 76 3f 55 7c 1a bd c4 83 a7 3e
       -0.046673805 0.96171117 -0.03771623 0.32717717
000280 8a d2 3c bf af 16 3c 3f ab 62 42 3f 08 e5 b8 be
       -0.7375876 0.7347211 0.75931805 -0.36112237
000290 45 98 12 3d 53 6c 4d bf 06 99 c5 bd 69 86 71 bf
       0.035789747 -0.80243415 -0.096483275 -0.9434572
0002a0 8d dc 49 bf de 0a 54 3f ea 1a d8 3e 2a 26 d5 be
       -0.7885216 0.8282908 0.42208034 -0.4163068
0002b0 6c 54 48 3f 7b a2 ee 3e 5c 43 96 3e 6a 96 ce 3d
       0.7825382 0.46608338 0.29348266 0.10087283
0002c0 87 16 fb bd c1 76 59 3d cb ea 4a 3f ce dc 36 3f
       -0.12260156 0.05309177 0.79264516 0.7143067
0002d0 00 70 31 bf f8 99 82 be 4f 88 e3 bd c0 a0 da be
       -0.69311523 -0.25508094 -0.11109983 -0.42700768
0002e0 7f 0e eb 3e 66 da 49 3d ea ac 74 bf b9 ac 6e be
       0.45909497 0.049280547 -0.95576346 -0.23308076
0002f0 82 2a 30 bf fd 90 c5 3e 6a 8b f9 3d 87 8e 92 be
       -0.6881486 0.3858718 0.12184794 -0.28624365
000300 be d0 10 3f 73 6a 67 bf 62 1e f4 3c 87 8f 1a be
       0.56568515 -0.90396804 0.029799644 -0.15093814
000310 eb d5 3e bc 65 c4 d5 3b 4c 62 7d 3f 3e 0b 13 bf
       -0.011647682 0.006523656 0.98978114 -0.5743903
000320 73 25 40 3f c7 9d 1b bd dd f0 96 bf 60 db d7 be
       0.7505714 -0.037992265 -1.1792256 -0.42159557
000330 c2 da 98 3e 47 06 de 3d f7 13 24 bf 8e a6 3a bf
       0.298544 0.10841041 -0.64092964 -0.7291039
000340 77 e4 1a bf 25 32 11 3f f9 9f 01 3f cc f7 35 bf
       -0.6050486 0.5671714 0.50634724 -0.71081233
000350 ac 5b 0f 3f b8 34 03 bf 20 b7 d2 3e 62 15 53 bf
       0.55999255 -0.5125232 0.41155338 -0.824545
000360 98 1f 03 bf bc 81 be bd 11 61 40 bf 48 f1 bc 3e
       -0.51220083 -0.093020886 -0.7514811 0.36902833
000370 fd 08 25 bf 0c a6 c8 3e 1a 12 c9 be 63 39 e2 3c
       -0.6446684 0.39189184 -0.39271623 0.027615255
000380 1c 3c 19 3f b3 f4 25 bf 34 16 8e 3d bf ad c0 be
       0.59857345 -0.64826506 0.06937829 -0.37632558
000390 f1 12 6b 3f 2f ed 7a 3f 2f 56 0b 3f a4 85 8d 3f
       0.9182578 0.98018163 0.5442838 1.1056409
0003a0 28 4e 9b 3e c9 34 a8 be 23 6a aa 3d fa 71 a3 bf
       0.30333066 -0.32852772 0.08321025 -1.2769158
0003b0 2b 3b c8 3e 93 19 50 bd ea a0 ab be 35 f2 3c bd
       0.39107642 -0.05080564 -0.33521205 -0.046129424
0003c0 e8 b0 dc 3e 2f f9 a8 3e 26 08 0d 3f c1 c8 1c 3f
       0.4310372 0.33002612 0.5509056 0.61243826
0003d0 61 8d 23 3c 31 3f 28 bf 22 da b6 bf 42 23 fe be
       0.009982438 -0.6572142 -1.4285319 -0.49636275
0003e0 04 43 06 3f e6 a5 95 be 29 99 d8 be cc 15 f9 be
       0.5244601 -0.29228133 -0.42304352 -0.48649442
0003f0 78 98 57 bf 01 64 15 bf c7 0b 19 be ae 9a 13 bf
       -0.84217024 -0.5835572 -0.14945899 -0.576579

fc.bias f4 [109]
000000 ef bd fa bd 24 93 ae 3e 2c d7 bc 3e 28 8f a7 3e
       -0.12243258 0.34096634 0.36882913 0.32726407
000010 49 9e dd 3e 8e f1 54 3f a3 ea ea 3e f0 bf 01 bf
       0.43284824 0.83181083 0.4588214 -0.506835
000020 ed 78 61 be 75 32 f1 be ae 51 0b be d0 06 1e bf
       -0.22018786 -0.47108808 -0.13605377 -0.61729145
000030 99 63 0e 3f ee 2a 33 bf d7 6e e3 be 6d da 9c 3e
       0.55620724 -0.6998738 -0.44420502 0.30635396
000040 d9 2b 0f 3d 8c ed 25 bf 40 3c 28 bf c9 ad 24 3f
       0.034953926 -0.6481559 -0.65716934 0.64327675
000050 e9 37 d7 3e a9 5c 6d bd 2b 8e 1a 3e 4f 25 6f 3f
       0.42034844 -0.057949696 0.15093295 0.93416303
000060 8e e6 18 be 1f 71 49 3e 7d 27 ca be 2f ad f7 3e
       -0.149317 0.19672059 -0.39483252 0.48374316
000070 a2 e7 68 be aa 6f 2c 3f 74 be 6f be ee d5 93 be
       -0.22744611 0.67357886 -0.23412496 -0.28874153
000080 9f 79 ca be d3 44 5b 3f 0d b2 a2 be 42 9e f5 bc
       -0.39545915 0.8565189 -0.31776467 -0.02998269
000090 df b1 a1 3e 70 66 98 be 14 be cf be b1 3e e7 3e
       0.31581017 -0.29765654 -0.40574706 0.45165017
0000a0 de 16 72 bf 19 bd dd 3d 9c c9 51 bf f0 12 dd be
       -0.9456614 0.10827083 -0.81948256 -0.4317851
0000b0 e9 85 99 be 4a c1 86 bf eb f1 ae be 0e 38 83 3e
       -0.29984978 -1.0527737 -0.34168944 0.25628704
0000c0 4f 0d fb be c8 1b 93 3e 24 eb 83 3e 15 a0 ba bd
       -0.4903359 0.28732133 0.25765336 -0.091125645
0000d0 df 2a 26 3f 40 c5 2b 3f a8 b0 c2 3c 1a 33 59 bf
       0.64909166 0.67097855 0.023765877 -0.848436
0000e0 39 bd 16 be 12 6d 07 bf f9 b8 2c 3e 55 c7 0c be
       -0.1472062 -0.52900803 0.16867436 -0.13747914
0000f0 c6 c1 29 3f b1 eb 8b 3e 3b dc 01 bf b8 5d 32 3f
       0.663113 0.27328256 -0.5072667 0.69674253
000100 4f fd b4 be b8 5c 90 3e 92 71 06 40 92 df 77 be
       -0.3534951 0.2819574 2.1006818 -0.24206379
000110 7d 3d e3 be de 47 86 bf 56 a7 d9 be f4 f6 db be
       -0.4438285 -1.0490682 -0.4251048 -0.42961848
000120 61 03 48 bf 8f 50 1f be 58 e9 dc 3e 55 1c aa 3e
       -0.78130156 -0.15558074 0.43146777 0.3322474
000130 e0 38 2d 3f 0a e6 f7 be 55 79 29 3f 49 0b 32 bf
       0.6766491 -0.48417693 0.66200763 -0.6954847
000140 48 9b ce be d9 6b f1 3d 6a f4 28 bf 3d df ca 3e
       -0.40352845 0.117881484 -0.65997946 0.39623442
000150 8e 49 aa be 25 3f 93 bc 05 ab b6 3e 6f a8 72 3e
       -0.33259243 -0.017974446 0.35677353 0.23697065
000160 47 42 56 3f ff 57 42 3e 58 4f 0f bf 9d 7c 0a be
       0.8369488 0.1897888 -0.55980444 -0.13524099
000170 4d f8 ac 3d c1 b5 0e 3f df 08 cb 3e 0f 49 c2 3d
       0.08445797 0.55746084 0.39655206 0.09486591
000180 0c c3 90 3e 26 50 02 bf 37 75 8e be 49 e5 c8 be
       0.2827381 -0.50903547 -0.27823803 -0.3923743
000190 16 a1 db 3e d4 35 6a bf a7 ef b3 bd 35 6d 34 bf
       0.42896336 -0.91488385 -0.087859444 -0.70479137
0001a0 19 2e 4c bf 15 e3 03 bf 47 53 89 3f e8 1e 81 3f
       -0.7975784 -0.51518375 1.0728539 1.0087557
0001b0 60 c6 fc 3e
       0.49370098
