speaker_id/models/model_fbank.pth (torch_old, 83247 bytes, 6 tensors)

lstm.weight_ih_l0 f4 [200, 23]
-0.37408358 0.29675984 0.5866375 -0.5988071 -0.32924244 0.6271048 -1.0957164 -0.11222514
0.22918312 1.0265871 -0.20969813 -0.41038686 0.79118645 0.5806378 0.43630615 -1.1163739
-0.22201057 0.122016266 -0.120263785 0.72700244 0.1354598 -0.04365781 0.5561613 -0.635269
2.655902 0.078440666 -1.3656772 -0.3773141 0.15080053 0.6179957 0.5692778 0.2704829
1.3055853 -0.09169389 0.5358854 -0.41331246 -0.62454206 -0.13117933 -0.75852364 0.03827075
-0.07424657 -0.12953968 0.5083906 0.12164465 -0.0034541334 -0.07649194 0.21775492 0.23031867
0.08514684 0.32770935 -0.05295931 0.8522447 0.3529312 0.0778734 0.016330978 0.16571961
0.06327568 0.16200067 0.31910253 0.105413854 -0.4643155 -0.1865295 -0.19128413 -0.10371381
-0.19520971 0.040384065 0.34158802 0.28043845 0.12008551 0.027368026 0.42369223 0.35682315
-0.2660999 0.5660983 0.80202466 -0.107254416 -0.0031280627 0.16475789 0.16984916 -0.19152552
-0.22602426 0.032675605 0.32179523 -0.14167804 0.086533226 -0.15320769 -0.24131325 -0.09131436
-0.38637123 -0.60812056 -0.10087951 0.7783813 -0.9169639 -0.23495558 -0.32558537 -0.6195543
-0.26363954 0.734944 0.9474149 0.016452167 0.21516714 0.16916595 0.4079003 2.350595
2.4284146 -0.021261126 -1.0715971 -0.43165657 -1.6807914 -2.5085316 -1.5930852 -0.2954683
2.690214 0.7311872 -0.043081917 0.37461957 0.287723 0.26383543 -0.2783458 0.0074064173
-0.30065578 -0.063424364 -0.018058032 -0.0951942 -0.13060744 -0.47109273 -0.19272548 -0.39691734
-0.27229178 0.042530164 -0.15849674 0.04853089 -0.10751365 0.20777683 0.11439522 0.14111607
0.17156486 0.087181784 0.16279624 0.083474964 0.13283001 0.20972258 0.0053282008 0.13282634
0.010904845 0.09113794 0.17018516 0.4516395 0.24004126 0.098999485 -0.11626873 -0.12802777
-0.26958823 -0.19564858 -0.35690764 -0.20306669 -0.086682856 0.079503514 -0.055102505 -0.117777556
-0.01303958 -0.8169104 -0.1379343 0.61822355 -0.25227815 -0.2250106 1.0998242 0.22146527
-0.17274305 0.5994447 0.045593604 0.17520186 -0.046811704 -0.09801844 -0.11260099 0.06244179
0.1704403 -0.017741777 -0.09194127 0.10910521 -0.11759287 0.22258951 0.25589302 0.43178698
0.16218981 0.4406951 0.43835 0.01888782 -0.21206681 -0.025037132 0.07700245 0.09689979
0.21793905 0.29549387 -0.023034975 0.2159545 0.053056534 -0.038485058 0.21692075 0.06751629
-0.17316014 -0.12939782 -0.37243596 -0.6378553 -0.95402616 -0.5435237 1.7121128 -0.059114955
-0.29087302 -0.07889981 0.079403326 0.120049275 -0.050421245 0.15950191 -0.09460223 -0.022761045
0.22202384 0.27169284 0.044234756 0.02449282 -0.8136255 -0.083546944 -0.41948545 -0.11465381
-0.15064438 -0.4710616 -0.34703365 0.28469783 0.07079354 0.27249053 0.02270254 0.19172667
0.041938458 -0.36905807 0.15910667 0.7150903 -0.44808546 -0.0222279 0.10146387 0.37627923
0.13707478 0.019597756 0.30541086 0.37794456 0.5147776 -0.3220171 0.15443787 0.4521598
-0.6797153 -0.5790086 0.24055922 -0.011057181 0.10971819 0.06175658 0.088545956 0.55628246
00000000: e287 bfbe e8f0 973e e02d 163f 6c4b 19bf
00000010: 7792 a8be f189 203f 6f40 8cbf 4bd6 e5bd
00000020: fbae 6a3e 3567 833f 1bbb 56be 3a1e d2be
00000030: 328b 4a3f aea4 143f 8563 df3e 57e5 8ebf
00000040: bd56 63be aae3 f93d dc4c f6bd d51c 3a3f
00000050: f9b5 0a3e 88d2 32bd 9660 0e3f fda0 22bf
00000060: 4cfa 2940 80a5 a03d 83ce aebf 502f c1be
00000070: 746b 1a3e f734 1e3f 31bc 113f bc7c 8a3e
00000080: 6b1d a73f 02ca bbbd c92f 093f b19d d3be
00000090: fde1 1fbf e053 06be 9b2e 42bf cac1 1c3d
000000a0: 960e 98bd 0da6 04be e325 023f d520 f93d
000000b0: be5e 62bb cea7 9cbd 25fb 5e3e a8d8 6b3e
000000c0: 7761 ae3d 85c9 a73e ddeb 58bd b52c 5a3f
000000d0: 66b3 b43e 177c 9f3d 8bc8 853c 67b2 293e
000000e0: ae96 813d 81e3 253e 6861 a33e 38e3 d73d
000000f0: c3ba edbe 9701 3fbe fddf 43be e867 d4bd
00000100: 0ee5 47be c369 253d a0e4 ae3e a195 8f3e
00000110: 64ef f53d e932 e03c 30ee d83e 86b1 b63e
00000120: 3f3e 88be d1eb 103f 7d51 4d3f 34a8 dbbd
00000130: 2f00 4dbb 4bb6 283e f0ec 2d3e 441f 44be
00000140: e772 67be dbd6 053d 58c2 a43e 0c14 11be
00000150: 5538 b13d 7ae2 1cbe d21a 77be 0603 bbbd
00000160: 73d2 c5be caad 1bbf eb99 cebd ff43 473f
00000170: 25be 6abf 3298 70be 20b3 a6be 1c9b 1ebf
00000180: c3fb 86be 4a25 3c3f c889 723f b2c6 863c
00000190: c654 5c3e d739 2d3e 4fd8 d03e 2670 1640
000001a0: 256b 1b40 d02b aebc 182a 89bf 1702 ddbe
000001b0: 2c24 d7bf c88b 20c0 37ea cbbf 9f47 97be
000001c0: 772c 2c40 162f 3b3f aa76 30bd 23ce bf3e
000001d0: 6e50 933e 7015 873e 5783 8ebe 88b1 f23b
000001e0: 8eef 99be a2e4 81bd 70ee 93bc 2df5 c2bd
000001f0: f5bd 05be 1133 f1be d459 45be c038 cbbe
00000200: d469 8bbe 1c34 2e3d f84c 22be 54c8 463d
00000210: 1e30 dcbd 73c3 543e 0b48 ea3d bb80 103e
00000220: b3ae 2f3e 5d8c b23d 0fb4 263e ecf4 aa3d
00000230: 9704 083e 84c1 563e 3098 ae3b a103 083e
00000240: 3caa 323c 87a6 ba3d 0545 2e3e 4b3d e73e
00000250: 60cd 753e 3ec0 ca3d 4d1e eebd b619 03be
00000260: 7807 8abe 1a58 48be 99bc b6be b7f0 4fbe
00000270: c886 b1bd bdd2 a23d 2ab3 61bd 5c35 f1bd
00000280: f6a3 55bc 0a21 51bf a63e 0dbe e643 1e3f
00000290: 9a2a 81be 2e69 66be 0ac7 8c3f cbc7 623e
000002a0: 8ee3 30be 3575 193f 5cc0 3a3d 1e68 333e
000002b0: a1bd 3fbd e4bd c8bd 599b e6bd f6c2 7f3d
000002c0: e787 2e3e 3457 91bc b44b bcbd 8d72 df3d
000002d0: 88d4 f0bd 81ee 633e 6904 833e 2f13 dd3e
000002e0: 1615 263e caa2 e13e 696f e03e a1ba 9a3c
000002f0: 0b28 59be ac1a cdbc 76b3 9d3d 6673 c63d
00000300: 6a2b 5f3e f94a 973e d8b3 bcbc 2d23 5d3e
00000310: cf51 593d 82a2 1dbd 7920 5e3e fb45 8a3d
00000320: e450 31be dd80 04be edaf bebe 7c4a 23bf
00000330: 0f3b 74bf 5f24 0bbf 8326 db3f 8622 72bd
00000340: 4fed 94be 3996 a1bd 369e a23d 65dc f53d
00000350: 8286 4ebd 7854 233e d0be c1bd 5f75 babc
00000360: 385a 633e 531b 8b3e 812f 353d 2ba5 c83c
00000370: c349 50bf a91a abbd ccc6 d6be 9ecf eabd
00000380: 8542 1abe fc2e f1be 65ae b1be eac3 913e
00000390: 34fc 903d e183 8b3e adfa b93c ff53 443e
000003a0: a9c7 2b3d 2ef5 bcbe dcec 223e 2810 373f
000003b0: 756b e5be 4917 b6bc 4acc cf3d aca7 c03e
000003c0: 555d 0c3e 798b a03c d05e 9c3e f381 c13e
000003d0: 77c8 033f 6ddf a4be f624 1e3e 7d81 e73e
000003e0: d201 2ebf e839 14bf 2855 763e 2e29 35bc
000003f0: eeb3 e03d 78f4 7c3d 9557 b53d 8768 0e3f

lstm.weight_hh_l0 f4 [200, 50]
-0.036187503 -0.01274587 0.09495988 -0.12899923 0.32960683 -0.45103738 -0.025307966 0.12497272
0.10270639 0.19474006 -0.048669975 -0.112984516 0.17616765 0.21854506 0.18499845 0.00042861616
-0.10577353 0.31142175 -0.07847346 0.5037299 -0.21495366 0.013771123 -0.11707437 -0.561269
-0.22586313 0.36628953 -0.32136446 -0.67562366 -0.18459515 -0.09543419 0.1278868 -0.72320384
-0.23496501 -0.2132442 0.29510632 0.17012247 0.027257236 -0.068930596 0.3097314 0.39751694
-0.06982595 0.068766326 -0.15009867 0.19897355 0.032100696 -0.17208673 0.28049326 0.35748684
0.08564138 0.051032357 0.50054634 0.020183166 -0.24167152 0.11615151 0.28589612 -0.2961663
-0.032725435 -0.18861689 -0.1102365 -0.33806616 -0.022880392 0.60860085 -0.11192858 0.029020704
0.07494938 -0.09467874 0.21189672 0.0035100363 -0.068859525 -0.11066238 -0.2361549 -0.16611059
-0.40535963 -0.15202667 -0.6337103 -0.080251314 0.033187132 -0.47231907 0.24247414 0.40490985
-0.40939772 -0.3769715 -0.56832206 -0.50104123 0.39481923 -0.19208018 -0.6940273 -0.16866183
0.15122697 -0.08458444 0.113608554 -0.08081151 -0.11365116 -0.022353796 0.13000795 -0.23144424
0.20932035 -0.09882525 0.15289047 -0.24651161 -0.05302816 -0.305048 0.222038 0.012367303
0.0472245 -0.43564227 0.39397004 -0.033093654 -0.085020274 0.3155209 -0.059687372 -0.12071184
0.005896911 0.09520136 -0.1333106 0.4970715 -0.014370348 -0.42085007 -0.04887771 -0.31544358
-0.31340465 0.058662944 -0.4054372 -0.8101146 -0.021337388 -0.14975874 -0.01966501 0.08734967
0.012289244 -0.026356677 -0.033377968 -0.22686774 -0.0723558 -0.014183592 0.18334341 0.24418263
0.1361576 0.06754245 0.12144993 -0.3061063 -0.10851806 0.042582106 -0.2107327 0.07406029
0.031036846 -0.21677333 0.0021169707 0.3098115 0.11120609 -0.6427908 0.14787132 -0.3443372
-0.27286872 -0.17432655 0.32037407 -0.20801021 0.024375886 0.31194597 0.25344816 -0.23888114
-0.054892115 0.27431914 -0.045119073 0.21417357 0.23530293 0.1863249 0.13900717 0.36923608
-0.025579743 0.07074128 0.022172675 0.04378866 -0.31409553 -0.959147 -0.52922666 -0.4134227
0.10882874 -0.12443425 -0.06473469 -0.019470057 0.17499776 -0.04238931 -0.22286576 -0.1198953
0.0837932 -0.27393186 0.05742815 -0.48474303 0.22806866 0.061808795 -0.1867749 0.16629317
-0.00067553617 -0.113082394 0.04200033 -0.5808939 0.27076697 0.004962109 0.08686445 -0.0371415
0.87798935 0.09280404 0.11219511 -0.07703842 1.6118041 -0.15584841 0.9768757 -0.056558937
0.13717556 -0.8241492 0.12842774 0.45220292 0.83861935 -0.48645523 -0.24430972 1.1237125
0.877539 0.44025594 -0.08155084 -0.06364551 0.14849558 -0.41850975 -1.2198448 -1.009533
-0.3920602 0.12708008 0.264187 0.17891845 -0.6661536 -0.36290902 -0.2655259 -0.63849753
0.05615877 0.078840055 -0.32504258 -0.083571516 -0.57701266 -0.45644945 -0.46436054 0.2791518
0.028721202 -0.42222828 0.012531263 0.40656227 0.92426866 -1.4524486 0.20509514 0.78690743
-0.29783708 -0.01738619 0.017844848 -0.064579114 0.1393692 -0.30306464 0.01774693 -0.08556875
00000000: 5939 14bd 0ed4 50bc 537a c23d 6018 04be
00000010: 3ac2 a83e 5fee e6be a752 cfbc b3f1 ff3d
00000020: ba57 d23d f069 473e 2b5a 47bd 6d64 e7bd
00000030: 4b65 343e 47ca 5f3e 3c70 3d3e e3b7 e039
00000040: cb9f d8bd ac72 9f3e b2b6 a0bd 71f4 003f
00000050: d01c 5cbe 47a0 613c b0c4 efbd 53af 0fbf
00000060: aa48 67be 4d8a bb3e e289 a4be acf5 2cbf
00000070: 8306 3dbe 0073 c3bd c2f4 023e e323 39bf
00000080: ab9a 70be b05c 5abe 2d18 973e 9634 2e3e
00000090: 914a df3c 7c2b 8dbd 1d95 9e3e 5787 cb3e
000000a0: e800 8fbd 5cd5 8c3d 77b3 19be b9bf 4b3e
000000b0: 057c 033d 8137 30be d09c 8f3e 8408 b73e
000000c0: bf64 af3d 4e07 513d ce23 003f 2b57 a53c
000000d0: bd78 77be d8e0 ed3d fa60 923e 1ca3 97be
000000e0: 1b0b 06bd c924 41be adc3 e1bd 0217 adbe
000000f0: a96f bbbc 44cd 1b3f d03a e5bd d4bc ed3c
00000100: 0f7f 993d ede6 c1bd 74fb 583e a308 663b
00000110: 3906 8dbd f5a2 e2bd 97d2 71be e518 2abe
00000120: 4c8b cfbe e1ac 1bbe d73a 22bf cd5a a4bd
00000130: 3bef 073d ced3 f1be 244b 783e 5850 cf3e
00000140: 949c d1be 6902 c1be 8e7d 11bf 3d44 00bf
00000150: bf25 ca3e abb0 44be c6ab 31bf b0b5 2cbe
00000160: 3edb 1a3e 9b3a adbd 9aab e83d 8180 a5bd
00000170: f0c1 e8bd 4f1f b7bc ce20 053e b8ff 6cbe
00000180: 1358 563e e564 cabd 528f 1c3e 8a6d 7cbe
00000190: 0e34 59bd 402f 9cbe ee5d 633e 3aa0 4a3c
000001a0: 7a6e 413d 810c dfbe 71b6 c93e 368d 07bd
000001b0: 1c1f aebd f58b a13e bf7a 74bd c537 f7bd
000001c0: e03a c13b eef8 c23d 9382 08be 2880 fe3e
000001d0: 9c71 6bbc a979 d7be fe33 48bd d281 a1be
000001e0: 9376 a0be 8e48 703d 7795 cfbe ac63 4fbf
000001f0: bfcb aebc 5b5a 19be 8418 a1bc 62e4 b23d
00000200: d358 493c f5e9 d7bc 56b7 08bd 0450 68be
00000210: 472f 94bd 4c62 68bc 60be 3b3e 030b 7a3e
00000220: e66c 0b3e b253 8a3d beba f83d f7b9 9cbe
00000230: b73e debd 936a 2e3d 50ca 57be ecac 973d
00000240: fc40 fe3c d4f9 5dbe e0bc 0a3b 9d9f 9e3e
00000250: 05c0 e33d f08d 24bf 946b 173e f74c b0be
00000260: 73b5 8bbe a982 32be 1208 a43e a100 55be
00000270: f0af c73c 62b7 9f3e f5c3 813e 429d 74be
00000280: 8ed6 60bd 8f73 8c3e c7ce 38bd 5150 5b3e
00000290: 40f3 703e f4cb 3e3e e557 0e3e 830c bd3e
000002a0: 9c8c d1bc cee0 903d 78a3 b53c bd5b 333d
000002b0: 21d1 a0be a88a 75bf 667b 07bf 24ac d3be
000002c0: 9ae1 de3d 62d7 febd 9f93 84bd ab7f 9fbc
000002d0: 9d32 333e 6aa0 2dbd ec36 64be ab8b f5bd
000002e0: c59b ab3d cc40 8cbe c839 6b3d 3d30 f8be
000002f0: d58a 693e 382b 7d3d eb41 3fbe c248 2a3e
00000300: 7716 31ba be97 e7bd 8a08 2c3d 76b5 14bf
00000310: f8a1 8a3e 3099 a23b fde5 b13d af21 18bd
00000320: e9c3 603f 0b10 be3d 8dc6 e53d 52c6 9dbd
00000330: 994f ce3f ba96 1fbe 8714 7a3f 58aa 67bd
00000340: c077 0c3e 71fb 52bf 9082 033e 2487 e73e
00000350: c2af 563f a910 f9be 542c 7abe d0d5 8f3f
00000360: 65a6 603f 3a69 e13e 2004 a7bd 9458 82bd
00000370: 3a0f 183e e946 d6be e023 9cbf 6138 81bf
00000380: 1dbc c8be 4821 023e 8543 873e 6636 373e
00000390: 0b89 2abf 36cf b9be 03f3 87be 9374 23bf
000003a0: bd06 663d e576 a13d fb6b a6be 8b27 abbd
000003b0: 1ab7 13bf beb3 e9be aac0 edbe fcec 8e3e
000003c0: ba48 eb3c 4e2e d8be ed4f 4d3c ee28 d03e
000003d0: df9c 6c3f d6e9 b9bf 7604 523e c472 493f
000003e0: 1a7e 98be 7c6d 8ebc 5c2f 923c 0e42 84bd
000003f0: cdb6 0e3e 4a2b 9bbe 0262 913c ab3e afbd

lstm.bias_ih_l0 f4 [200]
-0.8768809 -0.88930726 -0.41553253 -0.7041925 -0.73219216 -0.24574283 -0.21594954 -0.77057296
-0.7904147 -0.51675326 -0.7452045 -0.020364236 -0.77576077 -0.34332824 -0.68033046 -0.10553537
-0.65141034 -0.72086143 -1.0857812 -0.40988803 -0.7652595 -0.8961289 -0.08707349 -0.5810822
-0.755648 -1.5921714 -1.0662016 -0.82233506 -0.60298586 -0.8088398 -0.76529247 -0.19781606
-0.47615874 -0.6594005 0.32119355 -0.96410674 0.11182481 -0.04916242 -0.75172716 -0.24234606
-2.8158796 -2.0827503 -0.9343982 -0.7269142 -0.9875984 -0.41352126 -0.7289658 -0.4023207
0.0584741 -1.5347778 0.5103535 1.0710818 0.81428385 0.4209421 2.8924627 0.1917558
0.56731933 0.95069784 0.25538576 0.5926654 1.1965581 0.504798 0.39045784 0.34793067
1.1036611 0.18032905 1.0037417 0.3259211 1.6476423 0.33308205 1.6270106 1.4370058
1.889826 0.24400108 0.23160358 1.8475718 1.5778304 1.2289562 0.69334364 0.7789446
0.8538444 0.50170225 1.429573 1.0790696 0.3717893 1.0209119 0.6113694 0.59810954
0.5892106 0.55344546 2.7863584 2.0722063 1.1219273 0.35635725 1.6745331 1.5321478
0.28624073 0.9287999 1.6182585 0.17186736 -0.33934537 0.27828342 -0.044024125 1.1690788
-0.2942295 -0.7622514 -0.440473 0.15438627 0.79741156 1.4328408 -0.11584868 -0.21113269
0.7224273 -0.6303749 0.66389436 -0.6982376 -0.24508058 -0.080127105 0.36043128 0.11865092
-0.4073007 -1.1765299 -1.0549994 -0.9036856 0.3202381 0.7065386 -0.15099864 0.49786997
0.6910341 0.2416676 0.8966743 0.71258813 -0.08165291 0.049974035 -0.29455924 -0.13954586
-0.32808992 0.55282694 0.23121753 0.068193845 0.72199196 0.59693384 -0.15085308 -0.6194755
-0.30024552 -0.017578755 -2.5076573 -0.8118174 -0.19391139 0.2792912 0.41044912 1.0728588
0.7952455 0.5780406 0.39820737 0.24260478 0.8259657 0.5463994 0.16449548 0.45510802
0.22637093 0.7150371 0.28489915 0.69833064 0.72636884 0.6011601 0.6111702 0.4836261
0.44247922 0.42118245 0.7206494 0.6829906 -0.3946572 0.14756274 0.47092062 0.7182441
0.7752162 0.9568778 0.36908686 0.8988385 0.17744337 0.69101197 -0.13967879 0.8280012
1.6838243 0.77064484 1.0389324 0.8271824 0.3577877 0.80938506 0.95239353 1.1479961
0.7445502 0.12522925 1.0865178 -0.060033742 0.68943745 0.6796401 0.5375521 0.15254919
00000000: 447b 60bf a4a9 63bf aec0 d4be f645 34bf
00000010: f270 3bbf 02a4 7bbe e021 5dbe 4544 45bf
00000020: 9e58 4abf f149 04bf b9c5 3ebf e6d2 a6bc
00000030: 4298 46bf b8c8 afbe 232a 2ebf ee22 d8bd
00000040: d4c2 26bf 608a 38bf e1fa 8abf d8dc d1be
00000050: 0ce8 43bf b468 65bf 9653 b2bd cec1 14bf
00000060: 2672 41bf 46cc cbbf 4b79 88bf 8d84 52bf
00000070: 485d 1abf 2010 4fbf 35ea 43bf 4b90 4abe
00000080: 14cb f3be 79ce 28bf 7b73 a43e b3cf 76bf
00000090: 6804 e53d 895e 49bd 3171 40bf 9129 78be
000000a0: 5f37 34c0 c84b 05c0 b834 6fbf 0d17 3abf
000000b0: 40d3 7cbf 0fb9 d3be 819d 3abf fbfc cdbe
000000c0: 8a82 6f3d 9973 c4bf 87a6 023f 3519 893f
000000d0: e874 503f b985 d73e 1c1e 3940 a25b 443e
000000e0: d73b 113f ef60 733f ecc1 823e ebb8 173f
000000f0: d128 993f 713a 013f 17ea c73e f823 b23e
00000100: c444 8d3f 2ea8 383e 9c7a 803f 21df a63e
00000110: f1e5 d23f bb89 aa3e e241 d03f ceef b73f
00000120: d2e5 f13f 6bdb 793e 7d29 6d3e 3c7d ec3f
00000130: 59f6 c93f 704e 9d3f f87e 313f ea68 473f
00000140: 8c95 5a3f 8f6f 003f 40fc b63f f41e 8a3f
00000150: 2b5b be3e 3ead 823f b482 1c3f b51d 193f
00000160: 82d6 163f 9aae 0d3f b253 3240 079f 0440
00000170: 509b 8f3f 7574 b63e 1a57 d63f 6b1d c43f
00000180: 258e 923e d5c5 6d3f 1823 cf3f fffd 2f3e
00000190: adbe adbe 2a7b 8e3e a452 34bd 60a4 953f
000001a0: 40a5 96be e822 43bf ad85 e1be 6f17 1e3e
000001b0: 2a23 4c3f 5467 b73f 1342 edbd 2b33 58be
000001c0: fff0 383f 4060 21bf fbf4 293f b3bf 32bf
000001d0: 67f6 7abe ae19 a4bd 738a b83e 41ff f23d
000001e0: b889 d0be 8898 96bf 380a 87bf f157 67bf
000001f0: 40f6 a33e b7df 343f 639f 1abe d0e8 fe3e
00000200: 9ce7 303f b677 773e 728c 653f 2d6c 363f
00000210: a439 a7bd 93b1 4c3d 78d0 96be 1ce5 0ebe
00000220: 67fb a7be 1186 0d3f 4ac4 6c3e 37a9 8b3d
00000230: 77d4 383f a8d0 183f 3b79 1abe f295 1ebf
00000240: c8b9 99be 5201 90bc 757d 20c0 44d3 4fbf
00000250: b590 46be 42ff 8e3e 6326 d23e 7053 893f
00000260: 3695 4b3f 78fa 133f d6e1 cb3e 636d 783e
00000270: 7d72 533f d5e0 0b3f 8171 283e eb03 e93e
00000280: c8cd 673e ac0c 373f 4dde 913e ccc5 323f
00000290: 4ff3 393f a1e5 193f a675 1c3f d79d f73e
000002a0: a38c e23e 3aa5 d73e 7b7c 383f 79d8 2e3f
000002b0: 8210 cabe b01a 173e 821c f13e d8de 373f
000002c0: 9274 463f f2f5 743f f4f8 bc3e 481a 663f
000002d0: b7b3 353e 29e6 303f f507 0fbe e3f7 533f
000002e0: 8e87 d73f fb48 453f bdfb 843f 3ac2 533f
000002f0: f32f b73e dc33 4f3f 10d0 733f 89f1 923f
00000300: d89a 3e3f 193c 003e 0413 8b3f f1e5 75bd
00000310: f97e 303f e5fc 2d3f 049d 093f db35 1c3e

lstm.bias_hh_l0 f4 [200]
-0.72233665 -1.0106188 -0.4377348 -0.59464973 -0.7050987 -0.1200269 -0.27550882 -0.8345978
-0.7476755 -0.6643933 -0.8952698 0.048267532 -0.8517438 -0.322721 -0.7280275 -0.035528623
-0.703583 -0.787589 -1.0116463 -0.30909786 -0.86765206 -0.7888904 -0.13882771 -0.4060834
-0.62977934 -1.660994 -1.1157143 -0.7786489 -0.787809 -0.60461056 -0.87963796 -0.10575896
-0.57421774 -0.5997203 0.25873974 -0.75353044 0.27621156 -0.09827475 -0.75200516 -0.30689514
-2.693811 -2.0399783 -0.9733008 -0.8386217 -1.029429 -0.4552419 -0.7487038 -0.43735465
0.05231713 -1.4860549 0.48852465 1.0643568 1.0531375 0.409448 2.801255 0.09311237
0.39118692 0.87223643 0.2565336 0.64048237 1.2955964 0.6284143 0.4181992 0.44794104
0.97481805 0.14188191 1.0908356 0.51763254 1.666019 0.24470302 1.5180626 1.2138767
1.8303642 0.1889185 0.36101362 1.8120744 1.5740358 1.1364558 0.57126456 0.8812947
0.9474254 0.5950495 1.3837135 1.1286998 0.44817674 0.8780638 0.48113072 0.5235746
0.7112645 0.60688335 2.7769136 2.1233623 1.0896649 0.19893698 1.6076254 1.5868293
0.23824641 0.84177476 1.7542636 0.1114519 -0.49162966 0.48076212 -0.06536799 1.1115727
-0.4063261 -0.8333743 -0.1900136 0.22789778 0.92593277 1.434846 0.07492017 -0.109303124
0.86314327 -0.4435575 0.6443788 -0.57223195 -0.22553872 -0.2586654 0.32374558 -0.08310587
-0.5319863 -1.009413 -1.0025306 -0.82875335 0.27902836 0.56291395 -0.008479062 0.43824092
0.61746407 0.09701035 1.0455648 0.8472212 -0.23359825 0.006539088 -0.39436784 -0.063751124
-0.19246708 0.40554082 0.2859033 0.090048924 0.91282547 0.57155854 -0.3747009 -0.7856704
-0.30111066 -0.01591036 -2.3902423 -0.75572264 -0.34969187 0.3886907 0.5081633 1.1192036
0.8379953 0.42408425 0.24509828 0.4066639 0.85396945 0.7268397 0.3330284 0.46753457
0.19328256 0.8960832 0.12012079 0.7445411 0.92208856 0.69939506 0.83166534 0.7099669
0.31332788 0.37571633 0.81852937 0.51202685 -0.40206668 0.030541953 0.6066391 0.6975402
0.98811316 0.80066353 0.37331596 0.83375514 0.20202287 0.49055785 -0.16402696 0.81172967
1.6191701 0.81791896 0.8256065 0.96301186 0.5138356 0.78796756 0.9033884 0.9408167
0.8947379 0.32755122 1.1211624 0.05574977 0.88149834 0.7825893 0.526393 0.0025572677
00000000: 0eeb 38bf f55b 81bf c71e e0be f73a 18bf
00000010: 5981 34bf aad0 f5bd 7e0f 8dbe 34a8 55bf
00000020: a967 3fbf ae15 2abf 6730 65bf 2db4 453d
00000030: e20b 5abf b03b a5be 0360 3abf 7686 11bd
00000040: 041e 34bf 6f9f 49bf a07d 81bf 1342 9ebe
00000050: 721e 5ebf b9f4 49bf da28 0ebe 2aea cfbe
00000060: 3839 21bf 749b d4bf bacf 8ebf 8955 47bf
00000070: daad 49bf c2c7 1abf f42f 61bf 2798 d8bd
00000080: efff 12bf 4587 19bf 8979 843e 5fe7 40bf
00000090: 9a6b 8d3e 4644 c9bd 6983 40bf 5c21 9dbe
000000a0: 6667 2cc0 018f 02c0 3e2a 79bf e9af 56bf
000000b0: 54c4 83bf 7715 e9be 0dab 3fbf f3ec dfbe
000000c0: 7d4a 563d 0c37 bebf e71f fa3e d83c 883f
000000d0: 36cd 863f 2ba3 d13e c347 3340 b3b1 be3d
000000e0: a749 c83e e34a 5f3f 5f58 833e a7f6 233f
000000f0: 1ad6 a53f c2df 203f 351e d63e 8758 e53e
00000100: ad8d 793f 7e49 113e 80a0 8b3f 9183 043f
00000110: 1c40 d53f 6e93 7a3e e04f c23f 5060 9b3f
00000120: 6049 ea3f da73 413e c7d6 b83e 0ef2 e73f
00000130: 017a c93f 6277 913f 653e 123f 889c 613f
00000140: 798a 723f 2a55 183f 861d b13f 3c79 903f
00000150: 6c77 e53e cac8 603f c456 f63e fc08 063f
00000160: 6e15 363f b55c 1b3f f4b8 3140 2be5 0740
00000170: 247a 8b3f 23b6 4b3e abc6 cd3f 391d cb3f
00000180: def6 733e 8d7e 573f b68b e03f e540 e43d
00000190: e2b6 fbbe 7426 f63e a7df 85bd 0448 8e3f
000001a0: f909 d0be 0558 55bf ed92 42be 095e 693e
000001b0: ee09 6d3f 09a9 b73f bf6f 993d 51da dfbd
000001c0: f5f6 5c3f f819 e3be 02f6 243f cb7d 12bf
000001d0: 9ff3 66be cb6f 84be fbc1 a53e 6933 aabd
000001e0: 4130 08bf 7234 81bf ec52 80bf 2e29 54bf
000001f0: cedc 8e3e 211b 103f c3eb 0abc 1d61 e03e
00000200: 2012 1e3f 5dad c63d 11d5 853f 7de3 583f
00000210: 6134 6fbe d945 d63b 95ea c9be f38f 82bd
00000220: 1716 45be 0ca3 cf3e eb61 923e 926b b83d
00000230: eeae 693f a951 123f ccd8 bfbe b221 49bf
00000240: 2d2b 9abe 7156 82bc bbf9 18c0 0a77 41bf
00000250: d00a b3be 7802 c73e fd16 023f 1042 8f3f
00000260: dc86 563f 9221 d93e 0bfb 7a3e 4036 d03e
00000270: be9d 5a3f 2b12 3a3f b382 aa3e b160 ef3e
00000280: ddeb 453e b565 653f e401 f63d 3f9a 3e3f
00000290: ff0d 6c3f 8e0b 333f 05e8 543f 64c0 353f
000002a0: 836c a03e e45d c03e 248b 513f 3114 033f
000002b0: afdb cdbe 1e33 fa3c b34c 1b3f ff91 323f
000002c0: fcf4 7c3f 49f8 4c3f 4523 bf3e fa70 553f
000002d0: 15df 4e3e 662a fb3e aff6 27be 84cd 4f3f
000002e0: f740 cf3f 2363 513f f35a 533f f287 763f
000002f0: bb8a 033f 3eb8 493f 7644 673f 5dd9 703f
00000300: 8b0d 653f cbb4 a73e 4082 8f3f df59 643d
00000310: e0a9 613f c657 483f b1c1 063f d597 273b

fc.weight f4 [109, 50]
-0.40392897 0.10779518 0.12840435 -0.26959932 0.67553025 -0.24997053 -0.33552286 0.7466049
0.45189184 -0.26671454 1.3504198 -0.2282031 -0.1345566 -0.3663677 0.4948841 -0.21528648
-1.4255095 -0.9681412 -0.09400519 -0.4280551 0.97813195 0.88329566 -0.17611545 -0.2661052
0.22185516 0.21747932 0.5385563 0.26782104 -0.9003577 0.49526453 0.28604543 -0.1669375
0.8722225 1.2302415 -0.11916292 -0.3917574 -0.4398403 0.5637492 -0.1486157 -0.14023092
-0.6789879 0.08355572 1.1120243 -0.085796975 0.75230896 0.4056104 0.27197102 -0.49426064
-0.61747926 -0.3171219 0.18498458 1.2376016 -0.61874944 -0.12908164 0.29631475 -0.17714316
-0.59578925 -0.0065266695 -0.7553911 -0.09620671 -0.57430774 -0.6164931 0.88146067 -0.3469086
-0.51184106 0.60204023 0.024821635 -0.47314182 -0.0945407 -0.66096866 -1.2254232 -0.19205993
-0.36831868 0.27823076 0.8958543 0.22513424 0.16026723 -0.2557219 -0.14337632 1.5733106
0.1726773 0.16150211 0.1007412 0.5490627 0.44663742 0.60951966 -0.08362145 -0.15781157
-0.8943899 -0.03130292 1.9348754 -0.059415072 -0.20601417 0.7274197 1.7245715 -0.1640024
1.1976051 0.5415397 0.7733871 -0.35758856 0.06559608 0.05260318 -0.048262816 -0.8899262
1.0128129 -0.21390064 -0.25131348 -0.2514571 -0.28673255 -0.024443965 0.010476298 -0.32579896
0.3244304 -0.08353191 0.12978517 -0.19171816 0.12222568 -0.9216991 -0.16007338 -0.2687599
-2.3427625 0.42460555 -0.046085596 -0.0094174445 -0.0051603625 -1.0993899 -0.75414777 -0.029161984
0.12487624 1.186917 -0.7374622 0.3883211 -0.6990043 -0.4770281 -0.16887672 1.0340014
0.35282964 -0.23832776 -0.9668415 -0.3028575 -0.39736632 -0.852231 -0.8261886 0.9383392
1.1166617 -0.99005806 0.31135544 0.25271112 0.99949616 -0.56316286 -0.63679916 0.76675177
-0.75519586 0.32834974 -0.4189695 0.3595366 0.096487336 -0.25697973 -0.70671105 -0.15671162
-0.9325691 -0.46230373 -0.7151833 0.15762354 -0.55936015 0.37390727 0.26227894 0.28729492
0.35068256 -0.5267089 -0.47974813 -2.29516 0.5519047 0.24855249 -0.22693798 0.27506715
0.41860047 0.07851238 0.3573009 0.08142257 0.8144574 0.1600309 -0.52280927 -0.9295107
-0.023203278 -0.15086319 -0.26576906 0.42082542 0.08239717 -0.047637243 0.48956627 -0.33503273
-0.041094005 0.5818492 -0.32252464 0.7069863 0.4708496 1.033331 -0.88691187 0.38342705
-0.006522184 -0.4343765 -0.2522052 -0.5618795 -0.43960968 -0.14317887 0.5077141 -0.15419838
0.12795708 -0.43560028 0.36463636 -0.080626264 1.1613154 -0.0038649302 0.26386657 0.05017494
0.68076503 0.7250623 0.93985283 0.39840674 0.76804954 -0.048505705 0.084953226 0.17995162
0.5364697 0.2223842 0.70911014 0.6261485 -0.048160348 1.013184 0.1826834 0.14632277
0.7727238 -1.2604239 -0.03754298 -1.0951796 -0.42678416 0.06446083 0.15077354 0.16698988
-0.7815769 -0.20560537 0.86399865 0.17790699 0.529304 0.3754353 -0.28114983 0.8517465
-0.09956598 -0.7132538 -0.2914435 0.34000742 -0.00646737 0.38246608 -1.2947778 -0.02666195
00000000: c7cf cebe b8c3 dc3d 6e7c 033e ec08 8abe
00000010: 8def 2c3f 46f8 7fbe a7c9 abbe 8021 3f3f
00000020: 5e5e e73e cf8e 88be 8eda ac3f 13ae 69be
00000030: 35c9 09be 8c94 bbbe 7361 fd3e 0f74 5cbe
00000040: 1877 b6bf 1ad8 77bf cb85 c0bd 0a2a dbbe
00000050: db66 7a3f aa1f 623f 9c57 34be f13e 88be
00000060: 002e 633e e6b2 5e3e d3de 093f d71f 893e
00000070: d87d 66bf 5093 fd3e 8c74 923e aaf1 2abe
00000080: f949 5f3f 8e78 9d3f b00b f4bd 6d94 c8be
00000090: bf32 e1be de51 103f b72e 18be b298 0fbe
000000a0: 27d2 2dbf 431f ab3d d056 8e3f 53b6 afbd
000000b0: 5297 403f 2bac cf3e c93f 8b3e bb0f fdbe
000000c0: 1f13 1ebf cd5d a2be 996c 3d3e bb69 9e3f
000000d0: 5d66 1ebf fa2d 04be 91b6 973e 0465 35be
000000e0: a585 18bf acdd d5bb 5061 41bf 0608 c5bd
000000f0: d505 13bf 7ed2 1dbf 68a7 613f 019e b1be
00000100: 0408 03bf 4f1f 1a3f be56 cb3c a53f f2be
00000110: 8e9e c1bd 3e35 29bf abda 9cbf 5cab 44be
00000120: 4494 bcbe 4374 8e3e b556 653f 9789 663e
00000130: 181d 243e fbed 82be 3ed1 12be 3e62 c93f
00000140: 51d2 303e cf60 253e 6751 ce3d 608f 0c3f
00000150: a9ad e43e 7b09 1c3f b941 abbd 5b99 21be
00000160: bdf6 64bf 7e37 00bd ffa9 f73f 385d 73bd
00000170: 61f5 52be 2d38 3a3f c2be dc3f 3ff0 27be
00000180: 204b 993f 59a2 0a3f b2fc 453f d915 b7be
00000190: 3d57 863d 6f76 573d 3baf 45bd 34d2 63bf
000001a0: daa3 813f c508 5bbe 29ac 80be fcbe 80be
000001b0: 9cce 92be b63e c8bc c7a4 2b3c 1fcf a6be
000001c0: be1b a63e c712 abbd 67e6 043e c451 44be
000001d0: 7551 fa3d 79f4 6bbf 47ea 23be e69a 89be
000001e0: d2ef 15c0 e665 d93e 40c4 3cbd a04b 1abc
000001f0: 4218 a9bb cfb8 8cbf d40f 41bf 1de5 eebc
00000200: 1dbf ff3d e5ec 973f 53ca 3cbf 06d2 c63e
00000210: f2f1 32bf 073d f4be 05ee 2cbe 285a 843f
00000220: 16a6 b43e 310c 74be ed82 77bf 2310 9bbe
00000230: 9973 cbbe d02b 5abf 1981 53bf ff36 703f
00000240: c5ee 8e3f 7274 7dbf fb69 9f3e 5a63 813e
00000250: fbde 7f3f 712b 10bf 4505 23bf d849 443f
00000260: 8454 41bf 751d a83e 2c83 d6be 2e15 b83e
00000270: 279b c53d d992 83be 04eb 34bf 0379 20be
00000280: d9bc 6ebf 13b3 ecbe 4116 37bf 1168 213e
00000290: 3a32 0fbf c670 bf3e 6d49 863e 5218 933e
000002a0: aa8c b33e 65d6 06bf 8ca1 f5be e7e3 12c0
000002b0: a049 0d3f 8b84 7e3e 6e62 68be 9ad5 8c3e
000002c0: cd52 d63e 19cb a03d 25f0 b63e e0c0 a63d
000002d0: 4880 503f 24df 233e d4d6 05bf 6af4 6dbf
000002e0: cd14 bebc e17b 1abe e212 88be 6e76 d73e
000002f0: d9bf a83d 451f 43bd 6ea8 fa3e 6989 abbe
00000300: 3052 28bd 12f4 143f f321 a5be 0efd 343f
00000310: 3313 f13e 3144 843f a80c 63bf 8d50 c43e
00000320: 0bb8 d5bb 9966 debe 0a21 81be 56d7 0fbf
00000330: 8514 e1be 7b9d 12be 8df9 013f 2ee6 1dbe
00000340: 2e07 033e 0007 dfbe 9eb1 ba3e 621f a5bd
00000350: fca5 943f c54a 7dbb 8519 873e 3d84 4d3d
00000360: 9e46 2e3f af9d 393f 329a 703f f8fb cb3e
00000370: e59e 443f ebad 46bd f5fb ad3d 3d45 383e
00000380: 1456 093f afb8 633e 3e88 353f 454b 203f
00000390: c943 45bd 03b0 813f 5b11 3b3e a3d5 153e
000003a0: 3ad1 453f 9255 a1bf abc6 19bd d82e 8cbf
000003b0: 7483 dabe 0a04 843d 6164 1a3e 65ff 2a3e
000003c0: 6c15 48bf 378a 52be 042f 5d3f 402d 363e
000003d0: 7880 073f 0e39 c03e dff2 8fbe 0f0c 5a3f
000003e0: 40e9 cbbd cd97 36bf 1538 95be 7415 ae3e
000003f0: 3bec d3bb 98d2 c33e 47bb a5bf 296a dabc

fc.bias f4 [109]
-0.26776072 -0.6029637 0.02797862 0.26454264 0.80864614 0.35835394 0.55646026 -0.7147523
0.34663126 -0.4649279 0.5581631 -0.99307346 0.08209931 -0.6908351 -0.7759164 0.13323575
-0.29482853 -0.6855567 -0.94594467 0.2341577 1.0441225 0.30334908 0.17167401 0.7434239
-0.7921427 0.1864162 -0.010174091 0.6785982 -0.12843958 0.75471747 0.16144642 -0.45730364
-0.08024055 1.366709 -0.6086232 0.09252014 1.2806095 -0.65578145 -0.332261 0.7187825
-0.7877911 -0.06559905 -0.8715263 -0.69432116 -0.47212407 -0.22732283 -0.75975937 0.46943796
-0.3040082 0.17381339 -0.01483635 -0.11173649 0.46874592 0.8500475 0.12608957 -1.1603534
0.31436962 -0.61215776 -0.05889916 -0.07483239 0.8444224 1.0109676 -0.62238747 0.13123249
-0.035742857 0.5508535 1.9892102 -0.531665 -0.06877809 -0.46422306 -0.6068946 -0.021838194
-0.7307537 -0.29479933 0.26015174 -0.31164104 0.6156367 -0.71199197 0.09530108 -0.63927245
0.016486755 -0.43501443 -0.7667444 -0.48678595 0.22907883 0.3548853 0.6151815 -0.061763298
0.70684004 0.20217353 -0.6900915 -0.25011963 0.43448967 0.569538 0.04662304 0.6072442
0.35025573 -0.47067347 -0.4234825 -0.5368492 1.3014178 -0.77434397 -0.16179647 -0.4349092
-0.7184173 -0.6330354 0.5333249 0.9006678 1.0319535
00000000: ef17 89be d45b 1abf 6b33 e53c 2272 873e
00000010: 6f03 4f3f 2b7a b73e 2e74 0e3f 02fa 36bf
00000020: a779 b13e 080b eebe c7e3 0e3f 103a 7ebf
00000030: af23 a83d 92da 30bf 75a2 46bf f46e 083e
00000040: c4f3 96be a580 2fbf 6e29 72bf 09c7 6f3e
00000050: cea5 853f 9250 9b3e 50cb 2f3e 0751 3e3f
00000060: ddc9 4abf e3e3 3e3e 3bb1 26bc 9db8 2d3f
00000070: aa85 03be 2a35 413f 3652 253e b423 eabe
00000080: 2855 a4bd 52f0 ae3f bbce 1bbf 337b bd3d
00000090: 03eb a33f 4be1 27bf 1d1e aabe 2102 383f
000000a0: adac 49bf cb58 86bd 591c 5fbf 08bf 31bf
000000b0: 3fba f1be 51c7 68be 977f 42bf 2c5a f03e
000000c0: f6a6 9bbe 23fc 313e 2a14 73bc 1ad6 e4bd
000000d0: 77ff ef3e b79c 593f a01d 013e 7686 94bf
000000e0: 0ef5 a03e 5fb6 1cbf 3f40 71bd b941 99bd
000000f0: 112c 583f 6367 813f c954 1fbf cf61 063e
00000100: 1a67 12bd bc04 0d3f 719e fe3f 331b 08bf
00000110: 87db 8cbd a5ae edbe 725d 1bbf 03e6 b2bc
00000120: ad12 3bbf f0ef 96be 9c32 853e 6a8f 9fbe
00000130: 5e9a 1d3f 1b45 36bf 362d c33d 5ca7 23bf
00000140: 3b0f 873c 36ba debe 5c49 44bf 023c f9be
00000150: a493 6a3e 87b3 b53e 897c 1d3f 83fb 7cbd
00000160: 78f3 343f 9406 4f3e d6a9 30bf ae0f 80be
00000170: 6e75 de3e 3ecd 113f cdf7 3e3d 5b74 1b3f
00000180: b854 b33e 1dfc f0be b3d2 d8be f36e 09bf
00000190: dc94 a63f 683b 46bf f9ad 25be 6bac debe
000001a0: 32ea 37bf 9c0e 22bf fb87 083f 2a92 663f
000001b0: 0d17 843f
