speaker_id/models/model_all.pth (torch_old, 93647 bytes, 6 tensors)

lstm.weight_ih_l0 f4 [200, 36]
0	0xbef9fd47	-0.48826048
1	0xbe394ed6	-0.1809648
2	0x3e8c5c47	0.27414152
3	0x3eb8bde1	0.36082366
4	0xbeedccc6	-0.46445292
5	0xbee523ca	-0.44753867
6	0xc0029327	-2.0402315
7	0xbf0a5ebd	-0.5405081
8	0xbed2b363	-0.41152486
9	0xbf332dc5	-0.69991714
10	0x3ea1ca65	0.31599727
11	0xbeb55416	-0.35415715
12	0xbc613aee	-0.01374696
13	0xbe18182e	-0.14852974
14	0xbecd57aa	-0.40105945
15	0xbe9a85be	-0.30180162
16	0xbb5a2aaa	-0.003328959
17	0xbe633c8a	-0.22191063
18	0xbe6e3335	-0.23261721
19	0x3de83acb	0.11339339
20	0xbe71879a	-0.23586884
21	0xbf1071de	-0.5642375
22	0x3e93c416	0.2886054
23	0x3dd47818	0.103744686
24	0xbd277370	-0.040881574
25	0xbe31bc5d	-0.17357011
26	0xbeacbbd5	-0.33737054
27	0x3e1773bd	0.14790244
28	0x3e5ca142	0.2154589
29	0xbd8124e0	-0.063058615
30	0x3c4911fa	0.012272352
31	0x3d317294	0.04332216
32	0xbe8da6c7	-0.27666304
33	0xbe1c238f	-0.1524794
34	0xbda64bb8	-0.08119911
35	0xbdc8d609	-0.09806449
36	0xbe756b98	-0.23966825
37	0xbea691b2	-0.32533032
38	0xbc67c967	-0.014147139
39	0xbe6849c8	-0.22684395
40	0x3dc10e24	0.09426525
41	0x3eb0c046	0.34521693
42	0xbd3939af	-0.045221027
43	0x3d1d1b36	0.03835603
44	0x3e8a1cf0	0.26975203
45	0xbda947fc	-0.08265683
46	0x3d288ced	0.041150022
47	0xbe1fc578	-0.15602672
48	0xbe47f654	-0.1952756
49	0xbe1a8b74	-0.1509226
50	0xbed0abad	-0.40755978
51	0xbe0e751a	-0.13911858
52	0xbe9d2ad4	-0.30696738
53	0xbf0d8fb5	-0.55297405
54	0xbf126e7c	-0.57199836
55	0x3e89e0fb	0.2692946
56	0xbe8498d3	-0.25897846
57	0xbea48363	-0.3213149
58	0x3f4e46e0	0.80576897
59	0x3ef9d90b	0.48798403
60	0x3ec3fc7e	0.38278574
61	0x3e4d9bcf	0.20078968
62	0x3f052111	0.5200358
63	0xbad67291	-0.0016361048
64	0xbe0b25eb	-0.13588683
65	0x3eb204c2	0.34769255
66	0xbd92a67d	-0.07160661
67	0x3e07c34a	0.1325809
68	0x3e6c7867	0.23092805
69	0xbcfc5740	-0.030803323
70	0xbd30fc2c	-0.04320924
71	0x3e4ee560	0.20204687
72	0x3df5e9f4	0.12007514
73	0x3eb5e9f7	0.35530064
74	0xbb92e2bc	-0.0044825953
75	0xbe83ec3c	-0.2576617
76	0xbe5a3ad4	-0.21311504
77	0x3d78c893	0.060738157
78	0x3f02329b	0.5085847
79	0x3e4b1172	0.19830874
80	0xbf5ebeaf	-0.8700971
81	0x3d5a13cf	0.053241547
82	0xbeecea86	-0.46272677
83	0xbd3a7466	-0.045521162
84	0xbed34731	-0.41265252
85	0x3f00628c	0.5015037
86	0x3dd0c37c	0.10193536
87	0x3dba6275	0.091008104
88	0xbdb435b2	-0.08799304
89	0xbeafca83	-0.34334192
90	0xbd82ba1e	-0.06383155
91	0xbcc0c2f7	-0.023530466
92	0xbeabd72c	-0.335626
93	0x3e9e2f37	0.30895397
94	0xbe9060da	-0.28198892
95	0xbeb45bd5	-0.35226312
96	0x3e76b820	0.24093676
97	0x3eeef90e	0.4667439
98	0xbe100dd7	-0.1406778
99	0xbe5320cb	-0.20617978
100	0xbe7df6ff	-0.24801253
101	0x3ca12171	0.019669266
102	0xbed10563	-0.40824422
103	0x3e42aa32	0.19010237
104	0x3d8a7a82	0.06761648
105	0xbdfff5fc	-0.1249809
106	0xbcd6c027	-0.026214672
107	0x3f1195f3	0.5686943
108	0x3e5bce05	0.21465309
109	0x3de6a536	0.1126198
110	0x3e22c18b	0.15894143
111	0xbecaf5d9	-0.39640692
112	0x3f07a2d1	0.52982813
113	0x3f1e1e4a	0.6176497
114	0xbeb57db2	-0.3544746
115	0xbefa94e2	-0.48941714
116	0xbf118190	-0.5683832
117	0x3f0bd66b	0.5462405
118	0x3dbf3c07	0.09337621
119	0xbe24fbf2	-0.16111735
120	0xbf3fef92	-0.7497493
121	0x3df88140	0.121340275
122	0xbdb554c3	-0.08854058
123	0x3efab688	0.48967385
124	0xbebbfaac	-0.36714685
125	0xbef6e68b	-0.48222765
126	0xbdf77d06	-0.12084393
127	0xbeea32ac	-0.45741785
128	0xbf2cdea5	-0.6752723
129	0xbc93579f	-0.017986117
130	0x3d7559ae	0.05989998
131	0x3e10960b	0.14119737
132	0xbe7ca4f3	-0.24672298
133	0x3d6d5abf	0.05794787
134	0xbc9d17f6	-0.019176465
135	0x3e64c702	0.2234154
136	0x3cfe3658	0.031031772
137	0x3dc4f2b6	0.09616606
138	0xbd4ea135	-0.050446708
139	0x3dea6978	0.11445898
140	0x3e5a3b60	0.21311712
141	0x3c1ddadf	0.0096347025
142	0x3abb00ef	0.0014267246
143	0xbcb00835	-0.021488288
144	0x3e921375	0.2853047
145	0xbeabfed0	-0.33592844
146	0xbdf9bc8e	-0.12194167
147	0xbead1dee	-0.33811897
148	0xbe23e408	-0.16004956
149	0xbf3157cd	-0.692746
150	0x3f2168ff	0.63050836
151	0xbecf032e	-0.40432113
152	0xbf24242d	-0.641177
153	0x3ee9410c	0.4555744
154	0xbe22610e	-0.15857336
155	0xbd43441d	-0.04767238
156	0xbea423ea	-0.3205865
157	0x3ef70a86	0.48250216
158	0x3ef1465c	0.47123992
159	0xbe58b16d	-0.21161433
160	0x3ea2560b	0.3170627
161	0xbf05c922	-0.5226003
162	0x3d8f1a73	0.06987467
163	0x3e3295cf	0.1743996
164	0xbe872811	-0.26397756
165	0x3e19bc8e	0.15013334
166	0xbebe0db8	-0.37119842
167	0xbdd38ede	-0.10329984
168	0xbd93c2df	-0.07214903
169	0x3c8a4f30	0.016883463
170	0xbea33a0c	-0.31880224
171	0x3e576a9d	0.21036763
172	0xbed78118	-0.42090678
173	0x3f0153bd	0.505184
174	0x3efe9465	0.4972259
175	0xbcc853c6	-0.024454009
176	0x3f2ab1c0	0.66677475
177	0x3e96b5f7	0.29435703
178	0xbec88c64	-0.3916961
179	0xbe564be7	-0.20927392
180	0x3f69c011	0.91308695
181	0x3f275dd8	0.6537757
182	0xbf7ba7a2	-0.9830266
183	0x3f16c7c4	0.5889857
184	0x3e2b7536	0.16743931
185	0xbec2598a	-0.37958938
186	0x3e427f3d	0.1899385
187	0x3ef818eb	0.4845651
188	0xbf2b22e6	-0.66850126
189	0xbf2885dc	-0.65829253
190	0x3e65f2bc	0.22455877
191	0xbeaf3659	-0.3422115
192	0x3e318fbc	0.17339987
193	0x3f32513c	0.69655204
194	0xbde6f595	-0.1127731
195	0x3e8cb766	0.27483672
196	0xbd814764	-0.06312445
197	0x3d4b29d2	0.04960043
198	0x3d11bb9a	0.0355793
199	0x3de1d196	0.110263035
200	0x3e83505b	0.25647244
201	0xbeb89407	-0.36050436
202	0xbed4a82b	-0.41534552
203	0xbf5de086	-0.8667072
204	0xbf0ea3c8	-0.5571866
205	0xbf6053a5	-0.8762763
206	0xbdd9b1c0	-0.10629606
207	0x3f7a8a61	0.978674
208	0xbedbe932	-0.4295135
209	0xbdb0b379	-0.08627982
210	0x3eb58a47	0.3545706
211	0x3e2db9cf	0.16965412
212	0x3d894165	0.06701926
213	0x3ec17073	0.37781104
214	0x3f215b29	0.63029724
215	0x3f8517c7	1.0397881
216	0x3e9fc579	0.31205347
217	0x3efdf7d7	0.4960315
218	0x3e920d98	0.28525996
219	0x3e8f5d74	0.28000987
220	0x3e1093ca	0.14118877
221	0x3e8eb824	0.27874863
222	0xbe97fad9	-0.2968357
223	0xbecc26b1	-0.3987327
224	0x3f75b908	0.9598546
225	0xbf806c78	-1.0033102
226	0x3e3fc6c9	0.18728174
227	0xbed0a908	-0.4075396
228	0xbf21e155	-0.63234454
229	0x3df6b542	0.12046291
230	0x3eb7c03b	0.35888848
231	0x3dcbaad2	0.09944691
232	0x3e892d80	0.26792526
233	0x3e99a392	0.30007607
234	0x3e964d96	0.29356068
235	0xbd8291de	-0.06375478
236	0x3e97e94d	0.29670182
237	0x3da0e0bb	0.07855364
238	0x3e4d2ef0	0.20037436
239	0xbd7336eb	-0.059378546
240	0x3d308103	0.043091785
241	0xbef1b327	-0.47206995
242	0xbea4897a	-0.32136136
243	0xbf070557	-0.5274252
244	0xbe4414cc	-0.19148558
245	0x3e0670cd	0.13128968
246	0xbe8b0c18	-0.27157664
247	0xbe01551c	-0.12630123
248	0xbd7a81ac	-0.06115882
249	0x3d873c36	0.06603281
250	0x3c5f2731	0.013620184
251	0xbca237f5	-0.019802073
252	0x3ea1981d	0.31561366
253	0xbd01b9ba	-0.031671263
254	0xbdb2209e	-0.086976275
255	0xbe0c6716	-0.13711199

lstm.weight_hh_l0 f4 [200, 50]
0	0xbeb931a7	-0.36170694
1	0x3eb9cd58	0.36289477
2	0xbd5a56d8	-0.053305477
3	0x3dc09f71	0.09405411
4	0xbf09ba1f	-0.53799623
5	0x3d5d06b1	0.05396146
6	0x3d932829	0.07185394
7	0x3e49ec43	0.19719033
8	0xbc1c759c	-0.009549525
9	0x3e91be66	0.28465575
10	0xbe461057	-0.1934217
11	0x3e96ea58	0.29475665
12	0x3d4414a8	0.04787126
13	0xbdf5e5c9	-0.12006719
14	0xbbf7a729	-0.007557769
15	0x3e229b14	0.1587947
16	0xbe592871	-0.21206833
17	0x3eaaf183	0.33387384
18	0x3d9f86c1	0.07789374
19	0xbcb48838	-0.02203761
20	0xbbc895dd	-0.0061213807
21	0x3e819fe7	0.25317308
22	0xbf16800a	-0.5878912
23	0x3e1bdba0	0.15220499
24	0x3e3222dd	0.17396112
25	0x3e1d1f5a	0.15343991
26	0xbd8c0402	-0.06836702
27	0xbad172e0	-0.001597967
28	0x3cb18975	0.02167199
29	0x3c5ac6e8	0.013353087
30	0x3e54e07a	0.20788756
31	0xbcd2e49a	-0.025743771
32	0x3db790e5	0.08963183
33	0xbdcce6a5	-0.100049295
34	0xbd5cc51d	-0.05389892
35	0xbdbc498a	-0.09193714
36	0xbcf56ee3	-0.029960101
37	0xbe942fc2	-0.28942686
38	0xbda01d26	-0.078180596
39	0xbd092419	-0.03348169
40	0xbe5ad7c1	-0.21371366
41	0xbd54b3e9	-0.05192939
42	0xbe88aa2a	-0.26692325
43	0x3e4d4ca6	0.2004877
44	0xbdf897de	-0.12138341
45	0xbe5882c1	-0.21143629
46	0xbd82cd74	-0.06386843
47	0x3dcecc56	0.10097568
48	0xbdec3287	-0.11533075
49	0xbd6afec8	-0.057371885
50	0x3e1807c9	0.1484672
51	0xbe5fee82	-0.21868327
52	0x3db17c91	0.08666337
53	0xbe83b8f2	-0.2572704
54	0x3c2bdd74	0.01048981
55	0xbd0cd328	-0.03438106
56	0x3d9ddf71	0.07708634
57	0xbe5cb0bd	-0.21551795
58	0x3e3212b1	0.17389943
59	0xbda4c703	-0.08045771
60	0xbf2977d7	-0.66198486
61	0xbd3d797c	-0.046258435
62	0x3e8b795f	0.27241036
63	0xbd2a1755	-0.041526157
64	0xbf05f9d3	-0.52334327
65	0x3e813dcc	0.2524246
66	0xbe942414	-0.28933775
67	0x3eec73cc	0.46182096
68	0xbe0b7e5b	-0.1362242
69	0xbdbdc19b	-0.09265443
70	0x3df0fbac	0.117667526
71	0x3e20af98	0.15691984
72	0xbeaba89b	-0.33527073
73	0x3ebc21a4	0.36744416
74	0x3ccf75c6	0.025324713
75	0xbdb07d21	-0.086176164
76	0xbe76311d	-0.24042173
77	0xbdb1e166	-0.086855695
78	0xbe365930	-0.1780746
79	0xbdfe0074	-0.1240243
80	0x3dfd7623	0.123760484
81	0x399e2539	0.0003016384
82	0xbd8d3b6c	-0.068960994
83	0xbe62926f	-0.22126172
84	0x3da486ff	0.08033561
85	0xbe0f9707	-0.14022456
86	0x3d9e187d	0.077195145
87	0x3dbd90ec	0.09256157
88	0xbec73627	-0.38908502
89	0x3d096fe7	0.033553984
90	0xbe677a3f	-0.22605227
91	0xbed1a0e2	-0.40943056
92	0x3db2db86	0.08733277
93	0x3df909a6	0.121600434
94	0xbee36ae7	-0.44417498
95	0xbd3e3dab	-0.04644553
96	0x3df41030	0.1191715
97	0xbec3c42a	-0.382356
98	0x3d897fec	0.06713852
99	0x3d1fcbd4	0.039012745
100	0xbe13b7e3	-0.14425616
101	0xbdc6a18c	-0.09698781
102	0xbecdb226	-0.4017498
103	0x3de802f5	0.11328689
104	0xbf0956b4	-0.53647923
105	0x3ed2b4b3	0.41153488
106	0xbea7f544	-0.3280431
107	0xbb4adad6	-0.003095319
108	0xbe7ec3a6	-0.24879321
109	0xbe09476a	-0.13406149
110	0x3dcd119f	0.100131266
111	0x3e60c46b	0.21949928
112	0x3ec45cce	0.38352054
113	0x3eaa8d75	0.33311048
114	0x3ea9cea1	0.33165458
115	0xbee8e03b	-0.45483574
116	0xbd7f5833	-0.062339973
117	0x3f419e33	0.7563202
118	0x3e002bb1	0.12516667
119	0xbcc1c920	-0.023655474
120	0x3e1c7710	0.15279794
121	0xbe94c614	-0.29057372
122	0xbe8287db	-0.25494274
123	0x3efe32a1	0.49648002
124	0x3ecd0859	0.4004543
125	0x3e4d4fcc	0.20049971
126	0xbdc2c281	-0.09509755
127	0x3ee187a6	0.44048804
128	0xbea9892c	-0.33112466
129	0x3d504144	0.050843492
130	0xbe9cccb1	-0.30624917
131	0xbe711ac5	-0.23545368
132	0x3e86520e	0.26234478
133	0xbea6bbfd	-0.325653
134	0x3e10e2b2	0.14148977
135	0xbe90cd22	-0.28281504
136	0x3e698266	0.2280365
137	0xbe906564	-0.28202355
138	0xbe319ddc	-0.17345375
139	0xbe853659	-0.26018026
140	0x3ddf8dfd	0.10915754
141	0xbeb84d94	-0.35996687
142	0x3d5b9141	0.05360532
143	0x3e7f7487	0.24946795
144	0x3d304d5c	0.043042526
145	0x3da6d137	0.08145373
146	0x3ea32742	0.3186589
147	0xbde456fe	-0.11149405
148	0xbe85bb8b	-0.26119646
149	0xbe3bdf12	-0.18346813
150	0x3dca5994	0.09880367
151	0xbe9fa5f9	-0.31181315
152	0x3e43ac15	0.19108613
153	0x3ec7b501	0.39005283
154	0xbecb6d9a	-0.39732057
155	0x3f006297	0.50150436
156	0x3ea67a21	0.32515052
157	0x3e886379	0.26638392
158	0xbe7b3e67	-0.24535523
159	0x3e904245	0.2817556
160	0x3eb65ddf	0.35618493
161	0x3daa81f2	0.08325566
162	0x3ecff124	0.40613663
163	0x3eb37847	0.35052702
164	0xbe98fc8d	-0.2988018
165	0x3e8eac67	0.27865908
166	0x3e6292a1	0.22126247
167	0x3eae93a7	0.34097025
168	0x3c1a2584	0.0094083585
169	0x3e03936d	0.12849207
170	0x3eb246af	0.34819552
171	0xbe255d90	-0.16148973
172	0xbef214b6	-0.47281426
173	0xbdd8522d	-0.10562549
174	0xbeba82cf	-0.36427924
175	0x3c5e5dcd	0.013572169
176	0x3d92bb9c	0.0716469
177	0x3ec188e0	0.3779974
178	0xbe5a0599	-0.21291198
179	0x3e3fec0e	0.18742391
180	0x3de23e0f	0.11046993
181	0xbe8e2a21	-0.27766517
182	0xbdc67c35	-0.09691659
183	0xbde4c588	-0.111704886
184	0xbe942553	-0.28934726
185	0x3d737107	0.059433963
186	0x3e87d7ac	0.26531732
187	0xbe19ecb7	-0.15031706
188	0x3eaf4141	0.34229472
189	0xbe647553	-0.2231038
190	0x3e8562ae	0.2605185
191	0xbe025925	-0.12729318
192	0x3e946833	0.28985748
193	0x3ea84279	0.32863215
194	0x3d3ffbbf	0.046870943
195	0x3e842d71	0.2581592
196	0xbd629260	-0.055315375
197	0x3e5a591e	0.21323058
198	0xbf03c8d5	-0.5147832
199	0x3d8124d1	0.0630585
200	0xbde6789a	-0.11253472
201	0x3ef96fa0	0.48717976
202	0xbdd316dc	-0.103070945
203	0x3dba07c8	0.090835154
204	0x3f407510	0.75178623
205	0xbcd43ee9	-0.025908904
206	0xbe3ea5e9	-0.18617977
207	0x3e0d6c02	0.13810733
208	0xbd01e35b	-0.031710964
209	0x3c27f28a	0.010250697
210	0x3db4339b	0.087989055
211	0xbe141b67	-0.14463578
212	0xbcfe145d	-0.03101557
213	0xbd949b41	-0.07256175
214	0x3e28ffad	0.16503783
215	0x3de2924a	0.11063059
216	0xbe56dd27	-0.209828
217	0x3ed05ccd	0.406958
218	0x3d96a67a	0.07355972
219	0x3e13bec0	0.14428234
220	0xbda283fc	-0.0793533
221	0x3d5d7235	0.054063994
222	0xbf107204	-0.56423974
223	0xbe8b2bc9	-0.27181843
224	0xbe11e29c	-0.14246601
225	0xbdb765d8	-0.08954972
226	0x3d8618b2	0.06547679
227	0x3d9b8eee	0.07595621
228	0xbd1d2c05	-0.03837206
229	0x3a9d431b	0.0011998148
230	0x3e5b832a	0.21436754
231	0xbd445810	-0.047935545
232	0xbea6bb0e	-0.32564586
233	0xbe3a07dc	-0.1816706
234	0x3cdd5959	0.027020143
235	0xbd60f28b	-0.054918807
236	0x3ec470bb	0.38367257
237	0x3d9fb011	0.07797254
238	0x3e0499d7	0.1294931
239	0x39e44c9c	0.00043544627
240	0x3d48690d	0.04892831
241	0x3e9f5d8c	0.31126058
242	0xbcba8116	-0.022766631
243	0xbdce3fee	-0.10070787
244	0xbd892294	-0.066960484
245	0x3e2723e0	0.16322279
246	0xbe2939fe	-0.16526029
247	0xbe85a494	-0.26102126
248	0x3e5e523a	0.21711054
249	0xbec59fc9	-0.3859847
250	0xbdc171ac	-0.09445509
251	0x3f1134b7	0.5672106
252	0xbe831f68	-0.256099
253	0x3e19b0f6	0.15008911
254	0xbdb7ac0b	-0.089683615
255	0xbf7d1f44	-0.9887583

lstm.bias_ih_l0 f4 [200]
0	0xbf7abe4f	-0.9794664
1	0x3d7bafa4	0.0614468
2	0xbf9349c1	-1.1506883
3	0xbf936fc3	-1.1518482
4	0xbf3b1a09	-0.730866
5	0xbf1cfeaa	-0.61326087
6	0xbf377396	-0.71660745
7	0xbf92dac3	-1.1473011
8	0xbf46c9d1	-0.776517
9	0xbee8540e	-0.4537663
10	0xbf884d0d	-1.0648514
11	0xbf2402d5	-0.6406682
12	0xbe908790	-0.28228426
13	0xbf3e75c5	-0.7439845
14	0xbfa55d70	-1.291914
15	0xbf66c5e7	-0.90145725
16	0xbf3b44ac	-0.7315166
17	0xbe8835ff	-0.26603696
18	0xbf0d0d57	-0.5509848
19	0xbf99832e	-1.1993158
20	0xbf9b9ac4	-1.2156606
21	0xbf1425d6	-0.57870233
22	0xbe1fa000	-0.15588379
23	0xbf6fb6c3	-0.9363825
24	0xbf6774ba	-0.90412486
25	0xbf5aec09	-0.8551641
26	0xbedab4d3	-0.42716083
27	0xbea69dd8	-0.325423
28	0xbf32ca32	-0.69839776
29	0xbf6b36d2	-0.91880524
30	0xbf82ea10	-1.022768
31	0xbf9002e8	-1.1250887
32	0xbf02b826	-0.5106224
33	0xbfc279b5	-1.5193392
34	0xbf6192df	-0.8811473
35	0xbfb6b252	-1.4273169
36	0xbf50ee56	-0.8161367
37	0xbf5177d2	-0.81823456
38	0xbf9b9d4a	-1.2157376
39	0xbf4adaff	-0.7924041
40	0xbf0bb061	-0.5456601
41	0xbf46f280	-0.77713776
42	0xbf85195e	-1.0398366
43	0xbf3fece0	-0.7497082
44	0xbf9a1b6e	-1.2039621
45	0xbfa2c150	-1.2715244
46	0xbf206153	-0.62648505
47	0xbf3e3af1	-0.7430869
48	0xbe693302	-0.22773364
49	0xbeb50d70	-0.35361814
50	0x3ea574d7	0.32315704
51	0x3f0f22c6	0.55912435
52	0x3fa52caa	1.2904255
53	0x3ec8e03c	0.39233577
54	0x3f85a151	1.0439855
55	0x3fbe780a	1.4880383
56	0x3f46c8f6	0.7765039
57	0x3ee05c63	0.43820485
58	0x3f4a35b2	0.7898818
59	0x3ecfcef0	0.40587568
60	0x3f0c9245	0.5491069
61	0x3e72a14f	0.23694347
62	0x3eb938e1	0.36176208
63	0x3e83258c	0.25614583
64	0x3f876dc4	1.0580373
65	0x3f4c58c3	0.7982294
66	0x3f9073bd	1.128532
67	0x3fc4ec55	1.5384623
68	0x3f676f3e	0.9040412
69	0x3f47352d	0.77815515
70	0x3faa0d0a	1.3285229
71	0x3f08a877	0.53382057
72	0x3f73961f	0.9515094
73	0x3f0035a8	0.5008187
74	0x3f45d366	0.77275693
75	0x3eaad525	0.3336574
76	0x3f457776	0.7713541
77	0x3f9f3669	1.243848
78	0x3ed3a9e2	0.41340548
79	0x3f430071	0.7617255
80	0x3f0889e0	0.5333538
81	0x3fa60dab	1.2972921
82	0x3f056138	0.5210147
83	0x3fae05d6	1.3595531
84	0x3f2d8d75	0.6779397
85	0x3fb8f7d4	1.4450631
86	0x3f89c5f6	1.0763538
87	0x3f8050c9	1.0024654
88	0x3fa6f0cc	1.3042235
89	0x3f3eb38f	0.74492735
90	0x3e78b1a5	0.24286516
91	0x3fa87aa1	1.3162423
92	0x3f63ea6a	0.8902956
93	0x3f68553e	0.9075507
94	0x3f2e4774	0.6807778
95	0x3faf9503	1.371735
96	0x3f23f85e	0.64050853
97	0x3f506d38	0.81416655
98	0x3ecf9e1a	0.4055031
99	0x3ea8ab0b	0.32942995
100	0x3f8b54ce	1.0885255
101	0xbea11e04	-0.31468213
102	0xbeba0ebc	-0.36339366
103	0xbe58d5db	-0.2117533
104	0xbf0f3398	-0.559381
105	0x3ec8602f	0.39135882
106	0xbd907b66	-0.070547864
107	0x3f24c2ee	0.6435994
108	0xbeac4130	-0.33643484
109	0xbe1e5eca	-0.15465847
110	0x3e8570de	0.26062673
111	0x3f95b475	1.1695696
112	0xbf470fb1	-0.7775832
113	0xbee3610b	-0.44409975
114	0xbdaf01d9	-0.08545274
115	0x3fa0e1e2	1.2568934
116	0xbe1dbac0	-0.1540327
117	0x3efb7830	0.49115133
118	0x3db0cbe9	0.08632643
119	0xbe8b4614	-0.27201903
120	0x3f397822	0.72448933
121	0xbea73c10	-0.32663012
122	0xbe2c388b	-0.16818444
123	0xbd1d094a	-0.038338937
124	0xbf00520b	-0.5012519
125	0x3e4e0d2e	0.20122215
126	0xbe84fcda	-0.2597416
127	0x3c9e23f2	0.01930425
128	0x3de12e4c	0.109951586
129	0xbeccfef0	-0.40038252
130	0xbf31bd85	-0.6942981
131	0xbdedd275	-0.11612407
132	0xbe7a73ab	-0.24458186
133	0xbdc506eb	-0.0962046
134	0xbf983575	-1.1891314
135	0xbefc43e7	-0.49270555
136	0xbf9a0e9e	-1.2035711
137	0x3dfce889	0.1234904
138	0xbee39ba8	-0.44454694
139	0xbef3cd8b	-0.47617754
140	0x3d40f729	0.04711071
141	0xbd76103a	-0.06007407
142	0x3f08f8de	0.5350474
143	0xbe801829	-0.25018433
144	0x3f9255d4	1.1432443
145	0xbedd7d90	-0.4325986
146	0x3e308785	0.17239197
147	0xbe9d3406	-0.30703753
148	0x3f573c5c	0.84076476
149	0x3ed098cb	0.40741572
150	0x3f150174	0.5820534
151	0x3f7fbd43	0.99898165
152	0x3f3ef9c9	0.7459989
153	0x3e46334e	0.19355509
154	0x3eb0d590	0.34537935
155	0x3eeb1b0f	0.45919082
156	0x3f2bb23d	0.67068845
157	0x3ecb3d68	0.39695287
158	0x3f00d1ad	0.5031994
159	0x3e373f65	0.17895277
160	0x3efbfd31	0.49216607
161	0x3ecaf367	0.39638826
162	0x3e76db68	0.24107134
163	0x3ec01340	0.37514687
164	0x3eff8c9b	0.4991196
165	0x3efc850b	0.49320254
166	0x3f0f826c	0.56058383
167	0x3f25ee4e	0.6481675
168	0x3f166587	0.5874867
169	0x3ec8f493	0.39249095
170	0x3f45f356	0.77324426
171	0x3e81cb7f	0.25350568
172	0x3f88578b	1.0651716
173	0x3ed0ba45	0.40767112
174	0x3ec90da5	0.39268222
175	0x3e3773cd	0.17915268
176	0x3ecfb6a9	0.40569046
177	0x3f420929	0.7579523
178	0x3e12ffd1	0.14355399
179	0x3f082701	0.53184515
180	0x3df15aa9	0.1178487
181	0x3f169630	0.5882292
182	0x3f00fad8	0.5038276
183	0x3f6165e1	0.8804608
184	0x3ea904b0	0.3301139
185	0x3f1fa4c0	0.62360764
186	0x3f485233	0.78250426
187	0x3ee765e7	0.45194933
188	0x3f515b5e	0.8178004
189	0x3f14dbc1	0.5814782
190	0x3f076545	0.528889
191	0x3f3a238a	0.7271048
192	0x3ec92c4d	0.3929161
193	0x3ebcdb2b	0.36885962
194	0x3edac682	0.42729574
195	0x3f31c39f	0.6943912
196	0x3eb27767	0.34856722
197	0x3ef65658	0.4811275
198	0x3e45c635	0.19313891
199	0x3e4ed047	0.20196639

lstm.bias_hh_l0 f4 [200]
0	0xbf9c44ea	-1.2208531
1	0xbe075db6	-0.13219342
2	0xbf98fc13	-1.1951927
3	0xbf8b76e1	-1.0895654
4	0xbf2ea411	-0.68219095
5	0xbf0e9af7	-0.5570521
6	0xbf10b6ce	-0.5652894
7	0xbf950490	-1.1642017
8	0xbf215c98	-0.6303191
9	0xbed996a9	-0.42497757
10	0xbf64f7f9	-0.89440876
11	0xbf4ff636	-0.81235063
12	0xbeda0865	-0.4258453
13	0xbf26ebc5	-0.65203506
14	0xbf858926	-1.0432479
15	0xbf4b22cb	-0.79349965
16	0xbf3e7303	-0.74394244
17	0xbeacb0f1	-0.33728746
18	0xbf224104	-0.63380456
19	0xbf9ed2dc	-1.2408099
20	0xbf935563	-1.1510433
21	0xbf01a5f9	-0.5064388
22	0xbe7dd0ea	-0.24786726
23	0xbf6dda5b	-0.9291131
24	0xbf82bad7	-1.0213269
25	0xbf86144e	-1.0474946
26	0xbea240ab	-0.31689963
27	0xbdd194a1	-0.10233427
28	0xbf58ca0c	-0.846833
29	0xbf86d489	-1.053361
30	0xbf6378a1	-0.8885594
31	0xbf72e015	-0.9487317
32	0xbf01352d	-0.50471765
33	0xbfb514dc	-1.4146991
34	0xbf62b18d	-0.8855217
35	0xbfaeda20	-1.3660316
36	0xbf47e80c	-0.7808845
37	0xbf2c3301	-0.67265326
38	0xbfab15c2	-1.3366015
39	0xbf6323b3	-0.8872635
40	0xbeabd9e3	-0.33564672
41	0xbf165785	-0.58727294
42	0xbf68b7b3	-0.909053
43	0xbf426538	-0.759357
44	0xbfad8987	-1.3557595
45	0xbfaf3fc3	-1.3691334
46	0xbf3c8ea5	-0.7365516
47	0xbf5b98dd	-0.85780126
48	0xbe6b4c4b	-0.22978322
49	0xbed8581a	-0.42254716
50	0x3f15d507	0.5852818
51	0x3f09ff3d	0.5390509
52	0x3f9b284e	1.2121675
53	0x3e7aa7ec	0.2447812
54	0x3f7693fa	0.96319544
55	0x3fca139c	1.5787234
56	0x3f17979b	0.59215707
57	0x3f09a31c	0.5376451
58	0x3f527f14	0.82225156
59	0x3eb8627a	0.36012632
60	0x3f484684	0.782326
61	0x3e40de4c	0.188348
62	0x3f0dd0a4	0.55396485
63	0x3e028872	0.12747362
64	0x3f77a55a	0.9673668
65	0x3f6b8089	0.91993004
66	0x3f8680ae	1.050802
67	0x3fc363d5	1.5264841
68	0x3f8955dd	1.0729328
69	0x3f533ea6	0.8251747
70	0x3fa008d5	1.2502695
71	0x3f0c49f8	0.5480037
72	0x3f5c44d4	0.86042523
73	0x3f0c42ca	0.5478941
74	0x3f1a19a5	0.6019538
75	0x3eb30668	0.34965825
76	0x3f21342c	0.6297023
77	0x3f9138fa	1.1345513
78	0x3e65df70	0.22448516
79	0x3f507fab	0.81444806
80	0x3eb8449e	0.3598985
81	0x3f9b9a8f	1.2156543
82	0x3ef69547	0.48160765
83	0x3faeff00	1.367157
84	0x3f1299d1	0.57265955
85	0x3fa9b4a7	1.3258256
86	0x3f8397d3	1.0280708
87	0x3f73d2e3	0.9524366
88	0x3fae1475	1.3599993
89	0x3f38c520	0.7217579
90	0x3eba6c89	0.3641093
91	0x3f9b54dc	1.2135272
92	0x3f4d622f	0.8022794
93	0x3f7eccf6	0.99531496
94	0x3f31f85d	0.695196
95	0x3f9eb357	1.239848
96	0x3f19a951	0.6002398
97	0x3f5a79aa	0.85341895
98	0x3e58a930	0.2115829
99	0x3ebbfac8	0.36714768
100	0x3fa4f0d6	1.2885997
101	0xbef3c5aa	-0.47611743
102	0xbea8839b	-0.32912907
103	0xbe44c6a7	-0.19216405
104	0xbedd2915	-0.43195406
105	0x3e122c82	0.14274791
106	0xbe11d1d5	-0.14240201
107	0x3f338b17	0.7013411
108	0xbed7c8ab	-0.42145285
109	0xbde73ae4	-0.11290529
110	0x3e8c1ed4	0.2736727
111	0x3f8eff0d	1.1171585
112	0xbf37adc6	-0.7174953
113	0xbe92f39a	-0.28701478
114	0xbdb86dcb	-0.09005316
115	0x3fa9444c	1.3223968
116	0xbe0e2ae7	-0.13883553
117	0x3ea7a19a	0.3274048
118	0x3d9c07d1	0.07618678
119	0xbe90c0f7	-0.2827222
120	0x3f41519d	0.75515157
121	0xbe122669	-0.14272465
122	0xbe2bbf94	-0.167723
123	0x3e233d16	0.15941271
124	0xbecbe71b	-0.39824757
125	0x3c95e33a	0.018296827
126	0xbe2d74f0	-0.1693914
127	0xbc362430	-0.011117026
128	0x3e2f8c71	0.17143418
129	0xbeaa5650	-0.33268976
130	0xbf551a2e	-0.8324307
131	0xbda08c6e	-0.07839285
132	0xbe9506d8	-0.29106784
133	0xbd2a05d3	-0.04150946
134	0xbf9ced21	-1.2259866
135	0xbef2eb09	-0.47444943
136	0xbf8a4908	-1.0803537
137	0x3e04a1aa	0.12952295
138	0xbf08d237	-0.5344576
139	0xbf05fe74	-0.5234139
140	0xbe30ac9b	-0.17253344
141	0xbd253654	-0.040335014
142	0x3f0eeb79	0.5582805
143	0xbe56d534	-0.20979768
144	0x3f964acf	1.174158
145	0xbea886ce	-0.32915348
146	0x3c382124	0.01123837
147	0xbdf5c157	-0.11999767
148	0x3f5a9900	0.8538971
149	0x3f07c049	0.5302778
150	0x3eef437a	0.46731168
151	0x3f85687d	1.0422512
152	0x3f2b2524	0.6685355
153	0x3e7a7616	0.24459109
154	0x3eddfd30	0.4335723
155	0x3f00dfcf	0.50341505
156	0x3f249f57	0.64305633
157	0x3ed18118	0.40918803
158	0x3efc0777	0.49224445
159	0x3e154826	0.14578304
160	0x3eca49e1	0.3950949
161	0x3ea89c3e	0.32931703
162	0x3e14921f	0.14508866
163	0x3ea46c83	0.32114038
164	0x3f0b0352	0.5430194
165	0x3edafb4b	0.42769846
166	0x3ea9d4cc	0.33170164
167	0x3f3d19ed	0.73867685
168	0x3ef7df3f	0.4841251
169	0x3eb95f35	0.3620545
170	0x3f3f268f	0.7466821
171	0x3e96b250	0.29432917
172	0x3f9d47ef	1.2287577
173	0x3f093b22	0.53605855
174	0x3ebfacce	0.37436527
175	0x3dedff7b	0.11620995
176	0x3f031b4b	0.5121352
177	0x3f2bbc39	0.6708408
178	0x3e4309fd	0.19046779
179	0x3f3810a6	0.71900403
180	0x3ded1d37	0.11577838
181	0x3f1b1632	0.6058074
182	0x3ec786d7	0.38970062
183	0x3f670988	0.9024892
184	0x3ed4a2b5	0.41530386
185	0x3f0b5e5b	0.5444085
186	0x3f57b132	0.84254754
187	0x3f175a89	0.5912252
188	0x3f47108c	0.77759624
189	0x3f0aa489	0.5415731
190	0x3ebb28a6	0.3655445
191	0x3f40921c	0.75222945
192	0x3ede991a	0.43476182
193	0x3f06eef2	0.5270835
194	0x3f07e751	0.53087336
195	0x3f5ac056	0.8544973
196	0x3e82f471	0.2557712
197	0x3ec107a3	0.3770114
198	0x3e705223	0.23468833
199	0x3e2276d1	0.15865637

fc.weight f4 [109, 50]
0	0x3ea0cd9f	0.31406876
1	0x3e247a49	0.16062273
2	0x3e41d0b5	0.18927272
3	0x3f35e150	0.71046925
4	0x3f04788b	0.51746434
5	0xbf190d53	-0.59785956
6	0x3eedf4d2	0.46475846
7	0x3f107e12	0.5644237
8	0xbdff22f2	-0.12457837
9	0xbef0f679	-0.47063044
10	0xbf2fc7e1	-0.68664366
11	0xbeb006b0	-0.34380102
12	0xbe4e4e95	-0.20147164
13	0x3e7664e5	0.24061926
14	0x3ea21910	0.31659746
15	0x3f04bb65	0.5184844
16	0xbf9fa6cf	-1.2472781
17	0xbf5c6920	-0.8609791
18	0xbeb63a80	-0.35591507
19	0xbdb7a0eb	-0.089662395
20	0xbf30a139	-0.68996006
21	0xbf028108	-0.50978136
22	0xbc3d1fdf	-0.011543243
23	0x3e88436e	0.26613945
24	0x3ee4d95b	0.4469708
25	0x3e7dd995	0.24790032
26	0x3e9d9ac5	0.30782142
27	0xbf2fdc4e	-0.68695533
28	0x3e11615d	0.14197297
29	0xbec70816	-0.38873357
30	0xbdb1f726	-0.08689718
31	0xbf064fcd	-0.52465516
32	0xbf1cd331	-0.6125975
33	0xbef16fc9	-0.47155598
34	0x3f9f93a1	1.2466928
35	0x3f292f30	0.6608763
36	0xbf316edf	-0.693098
37	0xbf577b12	-0.84172165
38	0x3e2c843e	0.16847321
39	0xbbea70e5	-0.0071545714
40	0x3f8eefbd	1.1166912
41	0xbec0c743	-0.37652025
42	0xbf50bd0c	-0.8153846
43	0xbf6bbf76	-0.9208902
44	0x3f2523f3	0.6450798
45	0x3f898ca8	1.074605
46	0xbd89cc99	-0.06728477
47	0xbd383f86	-0.044982456
48	0x3e9e60ef	0.3093333
49	0x3f1cee61	0.6130124
50	0x3e4b02ce	0.19825289
51	0xbe5bfe8a	-0.21483818
52	0xbf32d22a	-0.69851935
53	0x3f021d6c	0.50826144
54	0xbd2ca855	-0.04215272
55	0x3f8e5d33	1.1122192
56	0x3ebaad55	0.36460367
57	0x3e4825cb	0.19545667
58	0xbf4ea750	-0.8072405
59	0x3db5f8dd	0.088853575
60	0xbf633c9a	-0.88764346
61	0x3f00d524	0.50325227
62	0x3ec7b61a	0.3900612
63	0x3c2029a5	0.009775554
64	0x3e30e1fb	0.17273705
65	0x3ef9af91	0.4876676
66	0x3f139db2	0.576625
67	0x3d50eba9	0.051005993
68	0xbf17037b	-0.58989686
69	0xbf73292b	-0.9498469
70	0x3de390df	0.11111616
71	0xbff148a5	-1.8850294
72	0xbe95d0ed	-0.2926096
73	0x3d460509	0.048344646
74	0x3e826aa2	0.2547198
75	0xbee0b7ff	-0.43890378
76	0x3ea34035	0.31884924
77	0xbdb4b5d3	-0.08823743
78	0xbd38b0a9	-0.04509035
79	0x3f89692c	1.0735221
80	0x3f034753	0.5128071
81	0x3eb91811	0.36151174
82	0xbe14e2cb	-0.1453964
83	0xbf7a9bd1	-0.97894007
84	0x3ede891b	0.43463978
85	0x3f390037	0.7226595
86	0x3f92316b	1.1421331
87	0xbf7059ec	-0.9388721
88	0xbfa13c4d	-1.2596527
89	0xbfc440f7	-1.5332326
90	0xbf96f5f7	-1.1793813
91	0x3f80c52b	1.0060171
92	0xbe05d99c	-0.13071293
93	0x3ed30252	0.41212708
94	0xbe14f5d0	-0.14546895
95	0x3f140515	0.57820255
96	0xbe8c79b4	-0.27436602
97	0x3d9d8842	0.07692005
98	0x3deaec54	0.11470857
99	0xbf5fe7c5	-0.8746303
100	0x3e4c8c70	0.19975448
101	0xbdcd11fc	-0.10013196
102	0xbf2b58d7	-0.66932434
103	0x3d50134f	0.050799664
104	0x3de8db04	0.11369899
105	0x3f7f4e2e	0.9972867
106	0x3f1c96a6	0.6116737
107	0xbe9dabb6	-0.30795068
108	0xbee1811e	-0.4404382
109	0x3f0058e1	0.5013562
110	0x3e9904de	0.29886526
111	0x3f10aab7	0.5651049
112	0xbd3391e5	-0.043840308
113	0x3f16c93c	0.5890081
114	0xbef02b6e	-0.46908134
115	0x3d8dd744	0.06925824
116	0x3e15ca73	0.1462801
117	0x3fc23166	1.5171325
118	0xbef621a6	-0.48072547
119	0xbfacfef5	-1.3515307
120	0xbea5b4c2	-0.3236447
121	0xbf892220	-1.0713539
122	0xbf8b082d	-1.086187
123	0x3f82cfc4	1.0219655
124	0x3f74db2c	0.9564693
125	0xbf20c403	-0.6279909
126	0x3eae35f8	0.3402555
127	0x3f0e11b6	0.55495775
128	0xbf819887	-1.0124673
129	0x3e382afa	0.17985144
130	0x3e46ecb2	0.1942623
131	0x3e828013	0.25488338
132	0xbe07e6a8	-0.13271582
133	0x3f7afa2a	0.9803797
134	0x3f6ebf44	0.932606
135	0x3ea72d6b	0.3265184
136	0x3f3b8ded	0.73263437
137	0xbf7bea74	-0.9840462
138	0xbf6ad48a	-0.9173056
139	0xbeebec84	-0.46078885
140	0x3d0eead7	0.03489193
141	0x3eece447	0.46267912
142	0xbf74b46c	-0.955878
143	0x3e8f3e95	0.27977434
144	0x3f699435	0.9124177
145	0xbf9169dc	-1.1360431
146	0xbed18e80	-0.4092903
147	0xbefa39ef	-0.48872325
148	0xbdcd456c	-0.10023007
149	0x3dfcbdcf	0.123408906
150	0x3f75eb8a	0.9606253
151	0xbf6bb24d	-0.9206894
152	0xbbdfc626	-0.006829041
153	0xbb8dcb14	-0.0043271873
154	0x3e2e451a	0.17018548
155	0xbee295ce	-0.44254917
156	0x3d8f7446	0.07004599
157	0x3e6e1a3f	0.232522
158	0x3ea99e71	0.33128694
159	0x3e75ed80	0.2401638
160	0x3de682fe	0.112554535
161	0xbf12f816	-0.574098
162	0xbd20a2d4	-0.039217785
163	0xbe945ce4	-0.2897712
164	0xbe3cf2b7	-0.18451963
165	0x3e850c05	0.25985733
166	0x3eb9c7e6	0.36285323
167	0xbfa0e807	-1.2570809
168	0xbf2402ad	-0.6406658
169	0xbf1f3a2e	-0.6219815
170	0x3e0ebcfc	0.1393928
171	0xbf5157bb	-0.8177449
172	0x3eaf9780	0.34295273
173	0x3d3c023c	0.04590057
174	0xbebe1b13	-0.3713003
175	0x3f7b8822	0.982546
176	0x3cf49dc6	0.029860388
177	0xbed347f5	-0.41265836
178	0x3d4975fd	0.049184788
179	0x3f31a052	0.69385254
180	0x3eb665a9	0.35624436
181	0x3f76ccc6	0.9640621
182	0x3f6146c7	0.8799862
183	0x3dcf9477	0.10135739
184	0x3eaea5c9	0.3411086
185	0x3f3c496f	0.7354955
186	0x3eaeb106	0.34119433
187	0x3ef638f4	0.48090327
188	0xbe33fd9f	-0.17577218
189	0xbe623b96	-0.22093043
190	0xbd10d2c0	-0.035357237
191	0x3f81762a	1.0114186
192	0x3ef64b45	0.481043
193	0x3f7b5bf9	0.98187214
194	0xbef8b3d3	-0.48574695
195	0xbf87bf69	-1.0605289
196	0xbedfda8b	-0.43721423
197	0xbe0945b8	-0.13405502
198	0xbf8f14e0	-1.1178246
199	0x3e0cd94e	0.1375477
200	0x3d19c8f6	0.037545167
201	0x3e75d3be	0.24006554
202	0xbc34e355	-0.011040528
203	0xbe337f8b	-0.17529123
204	0x3d0a962f	0.033834632
205	0xbf2ea440	-0.68219376
206	0x3e1aaad1	0.15104224
207	0x3f22fb42	0.6366464
208	0xbf55100e	-0.8322762
209	0xbeb60be8	-0.3555596
210	0xbf27efd3	-0.6560032
211	0x3d718359	0.058963154
212	0xbf41281c	-0.7545183
213	0xbf80f7ba	-1.00756
214	0xbf6913f4	-0.9104607
215	0xbf81f9a0	-1.0154305
216	0xbe8a0ca0	-0.26962757
217	0xbe457411	-0.19282557
218	0xbe696577	-0.22792612
219	0xbd166f71	-0.036727373
220	0x3e746a85	0.23868759
221	0x3d759e02	0.05996514
222	0x3da333fb	0.07968899
223	0xbe9a1247	-0.3009207
224	0x3ca8f632	0.020625208
225	0x3c840031	0.016113373
226	0x3ec0cc33	0.37655792
227	0xbe715706	-0.23568353
228	0xbf7ac434	-0.9795563
229	0xbed34141	-0.41260722
230	0xbf3298b4	-0.69764256
231	0x3e4e18b2	0.20126608
232	0xbf7a4d01	-0.9777375
233	0xc00606f0	-2.0941734
234	0x3d911dd1	0.07085765
235	0x3f112595	0.5669797
236	0x3eb6b8a7	0.35687754
237	0xbeaee0c5	-0.3415586
238	0x3fa982d6	1.3243053
239	0xbf769170	-0.9631567
240	0x3e1b9e39	0.15197076
241	0x3dbd1493	0.0923244
242	0xbee00c21	-0.43759254
243	0x3f2ac59e	0.6670779
244	0xbe35063f	-0.17678164
245	0xbdc35462	-0.09537579
246	0x3e99127d	0.29896918
247	0x3f7ecb14	0.9952862
248	0xbed4e2b0	-0.415792
249	0xbeba7e52	-0.364245
250	0x3f76d79a	0.9642273
251	0xbf27c59c	-0.655359
252	0xbfc64e1e	-1.549259
253	0x3ee55707	0.4479296
254	0xbf28a23d	-0.65872556
255	0x3f61f951	0.8827105

fc.bias f4 [109]
0	0x3e34560c	0.1761095
1	0xbc8bc533	-0.017061805
2	0x3dc3d897	0.095627956
3	0x3f5379f2	0.8260795
4	0x3effcfec	0.4996332
5	0x3f2f78f9	0.68543965
6	0x3f2c722a	0.673617
7	0xbf320178	-0.6953349
8	0x3ea848e5	0.32868114
9	0xbf017cf8	-0.5058131
10	0x3ec7fe34	0.3906113
11	0xbf62db22	-0.8861562
12	0x3e93fbc7	0.28903028
13	0xbf5d5807	-0.86462444
14	0xbf122de9	-0.57101303
15	0x3d3096ad	0.043112446
16	0xbd90fde5	-0.070796765
17	0xbf3df417	-0.74200577
18	0xbfa47342	-1.2847674
19	0x3f815ca4	1.0106397
20	0x3f6df7c7	0.92956203
21	0x3d9aaa75	0.07552043
22	0x3ee447f0	0.44586134
23	0x3f27d03d	0.6555212
24	0xbf00ffdd	-0.50390416
25	0x3ed7adcd	0.42124787
26	0xbd9b4607	-0.07581716
27	0x3f20be62	0.627905
28	0xbd97932f	-0.0740112
29	0x3f75cd39	0.9601627
30	0xbe46d661	-0.19417717
31	0xbe0d1080	-0.13775826
32	0xbc9f07f2	-0.019412968
33	0x3f9b50f7	1.2134084
34	0xbf19ce3e	-0.60080326
35	0xbe69e483	-0.22841077
36	0x3ef3ca70	0.47615385
37	0xbe5e79a6	-0.21726093
38	0xbe998b82	-0.2998925
39	0x3ee05fb1	0.43823007
40	0xbf503765	-0.81334525
41	0x3de37c41	0.11107684
42	0xbf59795c	-0.84950805
43	0xbf1b4ffc	-0.6066892
44	0xbf0cea2d	-0.55044824
45	0xbf00c638	-0.5030246
46	0xbf813090	-1.0092945
47	0x3e961368	0.2931168
48	0xbf35e81a	-0.71057284
49	0x3eeb41da	0.45948678
50	0xbe0dd2d0	-0.1384995
51	0x3e8cc39f	0.27492997
52	0x3f83c80c	1.0295424
53	0x3f92270b	1.1418165
54	0x3e303200	0.17206573
55	0xbf886304	-1.0655217
56	0x3e0f3350	0.13984418
57	0xbed113f5	-0.40835539
58	0x3dc7d66e	0.09757696
59	0xbdd20061	-0.102539785
60	0x3f366f05	0.7126315
61	0x3e9d5fcb	0.30737147
62	0xbf4a589e	-0.7904147
63	0x3f1ed525	0.6204398
64	0xbea2bfb6	-0.3178689
65	0x3f28c995	0.6593259
66	0x4005b1ed	2.0889847
67	0xbef904e8	-0.48636556
68	0xbec25bbc	-0.37960613
69	0xbf06bccf	-0.5263185
70	0xbf0451e1	-0.5168744
71	0xbe820401	-0.2539368
72	0xbf8d7f52	-1.105448
73	0xbda7793f	-0.08177423
74	0x3ef05b2c	0.4694456
75	0x3d2aa918	0.041665167
76	0x3f3b673b	0.7320439
77	0xbf5230d4	-0.82105756
78	0x3f1dba18	0.6161208
79	0xbf0990c5	-0.53736526
80	0xbed2bd29	-0.41159943
81	0xbd96a7c3	-0.07356217
82	0xbf5e4938	-0.8683047
83	0x3eac0d0e	0.3360371
84	0xbd323078	-0.043503255
85	0x3f523959	0.82118756
86	0x3f0dae8b	0.55344456
87	0x3e0d903b	0.13824551
88	0x3f48e7b1	0.78478533
89	0x3e3e173d	0.18563552
90	0xbf367b96	-0.7128233
91	0xbe454797	-0.1926559
92	0xbcf97e6a	-0.030455787
93	0x3f23eb24	0.6403067
94	0x3eea5ed3	0.4577547
95	0xbcba95dc	-0.022776537
96	0x3f14efa0	0.5817814
97	0xbf062c5c	-0.5241144
98	0xbea436d4	-0.3207308
99	0xbedf4419	-0.43606642
100	0x3f64fa1b	0.8944413
101	0xbf834978	-1.0256796
102	0x3ce6d13e	0.028175946
103	0xbea22aa9	-0.31673172
104	0xbf1e58c0	-0.6185417
105	0xbf5cf4a3	-0.86310786
106	0x3f449158	0.76784277
107	0x3fad98b4	1.3562226
108	0x3f3288c2	0.69739926
